models/lite_face_100.onnx (onnx, 920490 bytes, 12 tensors)

sequential.18.weight f4 [512, 128]
00000000: b0a9 acbc 2cfc 94bc 630e a53d 7393 993d
00000010: a660 3c3d d53e 42bd bedf 2e3d f7b5 8d3d
00000020: ce2a dbbc 75a8 59bd 5077 22bc cd50 3dbd
00000030: a09f ff3b 49df 36bd baa0 e5bc 2d68 6ebd
00000040: 5c84 003d a881 113d 23bd afbd c6ae 0d3d
00000050: ee39 3d3d de13 26bd 8e23 1d3d 2fa5 01bd
00000060: 5453 95bd 9077 cebc dddd 9f3d 253e a7bd
00000070: 5616 763d 98e3 273c a7e1 8d3d c357 8b3d
00000080: 0415 afbc a36b 9c3d 0b3d 9f3d 1420 e0bc
00000090: a1bf afbd b4cf 95bd 70cb 99bb c051 a7bc
000000a0: bf87 ac3d 8081 d13b c05d 23bc 00d6 fd3a
000000b0: 10e6 79bc f0b4 4d3c 720b 323d 6e1e 5b3d
000000c0: ee54 463d 0010 8e3c 197c a8bd a0a2 2f3b
000000d0: ec05 c9bc 8e71 563d d8d9 743c 9f1a 1bbd
000000e0: 6083 51bd 85b3 8f3d 35b1 893d f7f1 61bd
000000f0: 8699 5c3d 9af8 1f3d 990e 80bd 96e9 683d
00000100: 740a d13c 6a5f 1c3d 6a34 afbd da52 6ebd
00000110: 06eb 233d b6f5 3d3d 6ef1 113d 585f a5bc
00000120: d114 3dbd 0116 8ebd efb0 7ebd 0ac9 94bd
00000130: ef2e 8ebd ed4e 66bd 77b7 45bd 0ac0 783d
00000140: d63d 653d 1f62 a13d 1040 bdbb 6019 0bbb
00000150: e8c3 a5bc 1372 b4bd 5aa3 e2bc 1ae2 5abd
00000160: 8a02 2e3d 508b 02bc e421 73bd 70a7 41bc
00000170: 1f50 9e3d 6c70 84bd 8ffc 9a3d 4498 ccbc
00000180: 10c6 ac3b a4e7 62bd 0088 633a d4c4 cd3c
00000190: cd9e b43d 6336 8ebd 3207 4c3d 36de 5c3d
000001a0: 819e a03d 0a8e 2dbd b2e3 98bd e8a1 0cbc
000001b0: 8c06 973c c033 f33a e886 8bbd 0cb5 063d
000001c0: 4037 de3c 7bf6 2fbd e9dc a8bd 445a 9bbc
000001d0: b340 a93d 1bed a43d b099 acbd 8a04 7d3d
000001e0: da95 2d3d ce31 94bd 8730 973d a4d2 e43c
000001f0: 34c6 dd3c dd7b af3d b0b4 a4bb f213 5d3d
00000200: cf28 9d3d f5c0 833d aa6b 213d 50d3 ccbb
00000210: ecd8 9e3c 68a4 043d 3c8e a4bc 0208 2d3d
00000220: 2bde 08bd 98f0 d1bc 4014 e43b 8094 ffbb
00000230: 3f1e 38bd 1819 2cbd f81d 90bd c0c0 143c
00000240: 70cd 863c 60c8 50bb c8b1 f6bc 665b 23bd
00000250: 4019 beba 1061 6bbc 9861 073c d484 adbd
00000260: 5110 913d dd98 25bd 1eb7 353d f455 e8bc
00000270: b4ea 82bc 40df 99ba 5206 8bbd f66c a3bd
00000280: c23d 29bd 2751 9c3d 8007 84bd deb4 26bd
00000290: 925a 513d a453 bdbc 8472 a13c 2df4 8b3d
000002a0: f412 033d 6dc2 8dbd 8a11 503d 7258 f6bc
000002b0: 4a6f 303d b675 603d 051b 8e3d 1067 db3c
000002c0: 0634 debc 8eb2 4c3d 086e 74bd 805a a5bb
000002d0: b6a0 8ebd 001f e4bb 0744 863d d759 a13d
000002e0: 2f01 50bd 10b7 2ebc d1d4 933d e3c6 a03d
000002f0: c53e afbd 70a1 2f3c cc86 a73c 120d 7a3d
00000300: 80d9 df3c e0b1 953c 2c51 8cbd 98b1 76bc
00000310: e4cb bc3c d821 80bd 69cc 843d 8904 ae3d
00000320: b94a 4ebd 1840 913c 4faa a23d 58a0 043c
00000330: e21f 7fbd 6680 52bd 63cb 983d f2a2 733d
00000340: 28a5 32bc 5386 afbd b4bd 88bc 30c6 2a3c
00000350: bedc 6e3d 3965 a4bd 5710 5dbd 880f 863c
00000360: f947 82bd 9e3d 243d 7e8c 443d 72f5 1b3d
00000370: 8d36 883d 14d1 d33c 0c19 b23c f3e5 933d
00000380: 92b1 743d 93fb a0bd b293 b4bd c6a7 67bd
00000390: ec5a 853c 0680 6e3d 59f4 40bd 40b4 f23b
000003a0: 08d0 523c 208f 80bb 40bd 58bc 6a86 203d
000003b0: 886b a0bc 424c 24bd f3a5 903d 83d6 5ebd
000003c0: 00bb 8bbc c0cc b1bc f827 1fbd b830 52bc
000003d0: 0481 a3bd 3c4e 8bbd 9d93 853d 50fa 99bc
000003e0: c6cb 463d 48a1 cc3c 857a b33d f3b5 ad3d
000003f0: 533f a4bd 0cc2 093d 003b 45bc 5303 8b3d
-0.021077007 -0.018186651 0.08059385 0.07498827 0.04599061 -0.047423203 0.042693846 0.06919473
-0.02675381 -0.05313917 -0.009916142 -0.046219636 0.007801011 -0.044646535 -0.028030742 -0.05820482
0.031376228 0.03552404 -0.08580997 0.034590505 0.046197824 -0.04054629 0.038363986 -0.031651672
-0.07291284 -0.025203496 0.07805989 -0.0816615 0.060079895 0.010247134 0.069278054 0.068038486
-0.021372326 0.076377176 0.07775315 -0.027359046 -0.08581472 -0.07315007 -0.004693441 -0.020424724
0.08424329 0.0063936114 -0.009971082 0.0019366145 -0.015252605 0.012555346 0.043467946 0.053495817
0.04842084 0.017341614 -0.08226795 0.0026799813 -0.024538957 0.052354388 0.014944516 -0.037867185
-0.05115068 0.070166625 0.06723253 -0.055162396 0.05385735 0.039055444 -0.06252784 0.05686339
0.02551768 0.03817693 -0.08554919 -0.058184482 0.040019058 0.046376906 0.035630636 -0.020187065
-0.04616243 -0.06937791 -0.062180456 -0.07264908 -0.069425456 -0.056227613 -0.04827067 0.060730018
0.055967174 0.07880043 -0.005775459 -0.0021224841 -0.020235017 -0.088108204 -0.027665783 -0.053438284
0.04248289 -0.007967785 -0.059358492 -0.011819705 0.07730126 -0.06466755 0.07567703 -0.02497495
0.0052726343 -0.05539669 0.00086796284 0.025118269 0.08819351 -0.06943967 0.04981155 0.053922854
0.07842732 -0.042371787 -0.074653044 -0.008583523 0.018435739 0.0018554851 -0.06812841 0.032887504
0.027125955 -0.04295967 -0.0824526 -0.01896394 0.082642935 0.08053037 -0.08427751 0.061771907
0.042379238 -0.07236062 0.07382303 0.027932473 0.02707205 0.08568547 -0.0050264224 0.0539741
0.07673799 0.06433288 0.039409317 -0.0062507764 0.019390546 0.032383353 -0.020087354 0.042243965
-0.033415 -0.02562742 0.006960422 -0.007799685 -0.04495072 -0.04201612 -0.07036966 0.009079158
0.016455382 -0.0031857714 -0.03011407 -0.039882086 -0.0014503375 -0.014366403 0.008263014 -0.084726006
0.0708319 -0.040428985 0.044364087 -0.028361298 -0.015981056 -0.0011739507 -0.06788315 -0.07979767
-0.041318662 0.07632666 -0.06446743 -0.040699832 0.051111765 -0.023111172 0.019707926 0.06833682
0.032000497 -0.069218494 0.050797977 -0.03007147 0.043074884 0.054799758 0.06938747 0.026782542
-0.027124416 0.04997497 -0.059675246 -0.005046189 -0.06964247 -0.0069617033 0.06555944 0.07878464
-0.05078238 -0.010663763 0.07218326 0.07850435 -0.08556894 0.010719642 0.020450018 0.06104762
0.027325392 0.018273294 -0.0685142 -0.01505699 0.023046441 -0.06256455 0.06484301 0.08496959
-0.05036423 0.017730758 0.0794264 0.00809487 -0.062286265 -0.05139198 0.07460668 0.05948157
-0.010903634 -0.08570542 -0.01669202 0.010423228 0.058315985 -0.08027119 -0.05397066 0.016364828
-0.06361384 0.040097825 0.047985546 0.03807587 0.0665103 0.025856532 0.021740459 0.07221594
0.059739657 -0.07860484 -0.08817233 -0.056556486 0.016278706 0.05822756 -0.047108028 0.0074067414
0.012866981 -0.003923312 -0.0132287145 0.039190687 -0.019582525 -0.040111788 0.07062902 -0.054403793
-0.017056942 -0.021704078 -0.038856477 -0.012828998 -0.07983592 -0.068020314 0.065222956 -0.018796116
0.048534177 0.024979249 0.08763603 0.0848197 -0.08019891 0.033632323 -0.0120379925 0.067877434

sequential.18.bias f4 [512]
00000000: edee 953d 47fa 833d a43f 39bd 4097 60bc
00000010: 5357 98bd 881b 03bc cfcc 85bd dcea 843c
00000020: 2b34 25bd 4c7f 01bd 5eb6 35bd 60a0 4cbb
00000030: 803f 353b 7e90 493d 0040 403a fa56 213d
00000040: 2d29 8f3d 6cb2 37bd f260 363d 0cae 85bd
00000050: ba92 a5bd e285 743d 6b39 b3bd 0eab 5e3d
00000060: 7a3f 2d3d 56fa 7c3d c2ec 55bd 7e77 2f3d
00000070: f033 b43c f017 37bc 9887 d23c f041 ed3b
00000080: 6ced 6ebd 2042 39bc 5265 6b3d 0033 4abc
00000090: f30c 50bd b75e ad3d 2c68 84bd 55f0 10bd
000000a0: deea 3f3d 90bf ff3b 10fa c53b 7d5a a23d
000000b0: 4853 bf3c 7a87 99bd 9394 983d 8aba f1bc
000000c0: aaff a7bd 70c0 94bc b60e 503d ac4b 893c
000000d0: 7c64 70bd e06f 9cbd 5112 85bd b2da 3e3d
000000e0: 7c51 43bd 10dc 0c3d 8091 aeba 28bc 99bc
000000f0: 4e2c 623d 0029 e03c e0e6 a1bb 77b2 b3bd
00000100: 5688 653d bab3 7a3d 6200 373d e00b 673c
00000110: 337e a53d 9c5e b7bc 402a 163b ca01 8cbd
00000120: 6307 97bd 01b3 9f3d 6c3f cebc 5a2e 603d
00000130: 6b9b a63d acf3 073d 5d7d 823d 9491 fd3c
00000140: 2017 e4bb cc66 063d f8d4 20bc c048 0bbc
00000150: 5204 84bd c0f3 9b3c 5aa7 3c3d 7c6f d23c
00000160: e67f 4c3d 3a02 8abd 6409 873c 24f9 8dbc
00000170: 7250 4c3d 94b6 eabc 56fc 443d bc96 cbbc
00000180: 1e2a f0bc 8842 ae3c 205d 95bc 7de1 89bd
00000190: c0ff c83a 62a0 6dbd 9d75 43bd 4034 8dbd
000001a0: 46f4 8cbd 2901 a63d f7cc afbd 805b 8f3a
000001b0: f26a 16bd 629d 0e3d 1cd5 103d d140 a63d
000001c0: 83c7 ad3d f1bc 843d 1260 1f3d a89b 0cbc
000001d0: a8b8 99bc 0056 10ba c049 a0bd 8062 e83c
000001e0: b06d 01bd 5efa 92bd c258 8fbd cab0 2e3d
000001f0: aa22 5d3d facd 563d 3e2b 83bd 9fc8 8c3d
00000200: 152b 49bd 4bd1 8a3d cd40 3dbd 52ff 5e3d
00000210: 88d4 8cbd a2e9 563d c90a 11bd d809 2fbd
00000220: 4c69 fcbc 17e2 903d e027 51bb e0f6 bfbb
00000230: 9016 e4bb 3c6f e93c 36e5 5c3d 4410 81bd
00000240: 00d5 ab3c f13b a23d ec9f b0bd 52fa 86bd
00000250: 9278 95bd 72b6 293d 38c9 ec3c bcce bebc
00000260: 3b21 99bd 73b6 973d 4025 6b3c 0ae7 5b3d
00000270: 70c1 cabc 8e86 49bd 6f55 77bd 8bca a6bd
00000280: 261a 403d c086 93bc 9812 60bc e8e7 053c
00000290: ba14 20bd 9460 63bd 68ae 803c 5075 5ebc
000002a0: b826 f03c 18f4 103d b6c2 643d 58cd aebc
000002b0: a44b 97bd 394c 8e3d 4954 36bd cd83 a43d
000002c0: 1c87 a3bd c4db af3c a095 2dbc af6a 44bd
000002d0: 5096 c3bc 70f5 f9bb 3803 95bd d844 183c
000002e0: 7921 66bd c01a 6ebb 8046 7cbc 680e 5dbc
000002f0: 741b d2bc bfbe 843d 30a0 86bc a94b b03d
00000300: 0e63 5cbd b074 8bbd e035 5f3c b4f8 a9bd
00000310: 2320 8a3d 3381 973d 1dea a13d 7393 833d
00000320: 7a70 6b3d 811f a1bd ec64 aebd 558d 4abd
00000330: 0cc2 873c 02ee 6d3d 24ea 15bd b0f0 5d3c
00000340: f012 f13b 793d 2bbd ff89 11bd 17f2 803d
00000350: 24a8 8cbd 28f2 7fbc 5b3c 8a3d 2c7e 87bc
00000360: 70d7 ab3b 80fd d93c 0617 d7bc 6367 8abd
00000370: 082b 8ebc a3b8 9abd 7916 a9bd a6e1 153d
00000380: 5efc 71bd 30b3 243c 8035 a0bc c87f c3bc
00000390: 2fba 9fbd 1203 2f3d 40e2 f3ba a032 f13b
000003a0: ca7a 633d dd98 a5bd 085d 523c 7685 01bd
000003b0: 0d84 823d 58c7 fbbc 33d4 9e3d f67f 633d
000003c0: 7db2 90bd f966 9e3d 9e2f 4f3d e027 3ebb
000003d0: 56ab 663d c82f bb3c c04d 92bb b08d bd3c
000003e0: edb2 ab3d 2a69 77bd 4094 85bd 807b 863c
000003f0: 2e72 08bd 0273 643d 70c1 0fbd 1a75 59bd
0.07320962 0.06444221 -0.045226708 -0.013707936 -0.07438531 -0.008002169 -0.06533205 0.01622527
-0.040332954 -0.03161554 -0.044363372 -0.003122352 0.0027656257 0.049210064 0.00073337555 0.039389588
0.069902755 -0.04484789 0.044526048 -0.065273374 -0.080846265 0.059697993 -0.08751186 0.05436235
0.042296864 0.061762176 -0.052227743 0.042838566 0.021997422 -0.011175141 0.025699422 0.0072405264
-0.058331892 -0.011307269 0.057469673 -0.012341261 -0.0507936 0.08465331 -0.06465182 -0.03538545
0.046854846 0.0078048185 0.0060417727 0.079274155 0.023355141 -0.07496543 0.07450213 -0.029507894
-0.08203061 -0.018158168 0.05079528 0.016759716 -0.05868958 -0.07638526 -0.06497634 0.046595283
-0.04768513 0.034389555 -0.0013318509 -0.018766478 0.055218033 0.0273633 -0.0049408525 -0.08774274
0.056038223 0.061206557 0.0446781 0.014101952 0.08080711 -0.02238398 0.0022913367 -0.06836279
-0.07374456 0.07797814 -0.025176726 0.054731704 0.081351124 0.033191368 0.063715674 0.030953206
-0.0069607645 0.03281288 -0.009816401 -0.008501232 -0.064461365 0.019037127 0.046058036 0.025687926
0.04992666 -0.06738706 0.01648397 -0.017330714 0.049881406 -0.028651513 0.04809221 -0.02485215
-0.029316958 0.021271959 -0.018232882 -0.067324616 0.0015335009 -0.05801428 -0.047719587 -0.068947315
-0.06882529 0.0810569 -0.08584016 0.0010937303 -0.036723085 0.03481806 0.035359487 0.081178315
0.084853195 0.0648135 0.03890998 -0.008582033 -0.018764809 -0.0005505979 -0.07826567 0.028367281
-0.031598747 -0.0717666 -0.06999351 0.042649068 0.053988136 0.05244253 -0.06404732 0.06874203
-0.04911335 0.06778201 -0.046204377 0.05444271 -0.068764746 0.052468903 -0.035410676 -0.042733997
-0.030811928 0.07074373 -0.0031914636 -0.005858287 -0.0069606975 0.028495423 0.05392953 -0.063019305
0.02097559 0.07921589 -0.08624253 -0.065907136 -0.072983876 0.04143376 0.028904542 -0.023291938
-0.07477041 0.07407846 0.014352143 0.053687133 -0.024750441 -0.049200587 -0.06038421 -0.08144101
0.046899937 -0.01800859 -0.013676308 0.008172967 -0.039082266 -0.055512026 0.015708163 -0.013577774
0.029315338 0.035389036 0.055849753 -0.02133815 -0.07387474 0.06948132 -0.044513974 0.080329515
-0.079847544 0.021467097 -0.010594755 -0.047953304 -0.023875386 -0.0076281354 -0.072760046 0.009293757
-0.056184266 -0.0036331862 -0.015397668 -0.013492204 -0.025647856 0.064816944 -0.016433805 0.08608181
-0.053805403 -0.06809366 0.013623685 -0.082993895 0.06744411 0.0739769 0.07905982 0.06424608
0.057480313 -0.07867337 -0.08515343 -0.04945119 0.016572021 0.05808831 -0.036600247 0.013546154
0.007356994 -0.04180667 -0.035531994 0.06296175 -0.06868008 -0.015621699 0.06749793 -0.016539656
0.005244188 0.026610136 -0.026256096 -0.06758001 -0.017354503 -0.07554748 -0.082562394 0.03659215
-0.059078567 0.010052487 -0.01955676 -0.023864642 -0.077991836 0.042727537 -0.0018606856 0.0073607713
0.055537023 -0.08085797 0.012839563 -0.03162142 0.06372843 -0.030734703 0.077553175 0.055541955
-0.07065294 0.07734484 0.05058252 -0.0029015467 0.056315742 0.022849932 -0.004464835 0.02313885
0.08383737 -0.060403027 -0.06522417 0.016416311 -0.033312015 0.055773742 -0.035096586 -0.053090192

sequential.21.weight f4 [128, 512]
00000000: b18d 273d 8e59 9e3c b84a bcbc 4902 2d3d
00000010: 9f2a 093d e2f4 973c 844d 303c 38e0 083c
00000020: 3291 b03c f802 edbb f361 18bd 4edd eb3c
00000030: d592 0e3d 80d7 6f3a 2076 e4bb ea26 e3bc
00000040: b886 b8bb 1c19 6fbc 6032 353c ad32 1e3d
00000050: eb2f 9ebc 5877 183c b04a 1d3c 6628 c43c
00000060: 8c08 16bd b72a 2bbd 0862 eabb 21b3 33bd
00000070: 3a15 d8bc 479d 22bd 7054 4a3b 4de9 ddbc
00000080: 3255 f6bc af60 c8bc a082 44bc 3ab2 c5bc
00000090: 6b35 143d 9c47 c7bc 3ed8 823c f0ed 00bd
000000a0: ba80 8dbc 82d7 fe3c 297c 0d3d 7258 0cbd
000000b0: 7018 583c 7baf d5bc f86c 8b3b 4b4b e6bc
000000c0: b63a a93c 3cb5 853c c739 aebc 409e 71ba
000000d0: 8e93 af3c b011 edbb 192d c8bc 8f18 0d3d
000000e0: 5378 263d 682d 9abc 0f70 a5bc 2245 a93c
000000f0: f8fc 843c bc2d b6bc 30eb 47bc aa79 d23c
00000100: 029f 05bd bd0e 173d 8012 5dbb 5e49 ad3c
00000110: c96b f5bc 8b01 02bd c4dd 6c3c 1025 6b3b
00000120: dc1b 12bd 8b78 c3bc 5abc e33c 12ae 20bd
00000130: 2bc0 f8bc 5ca6 40bc b0f3 1f3b 4002 03bb
00000140: 208c 81bc 81f0 1e3d 3de7 233d daf6 0bbd
00000150: 52c9 aa3c 814a 2bbd b3a9 cfbc 00fa 0bbc
00000160: 6f5e d4bc 6414 113c 84b1 23bc 34c7 01bd
00000170: 9488 573c c02f 85ba be0a 77bc c1f0 063d
00000180: 7cad cabc 70e2 73bb 5a76 1dbd 9ed2 03bd
00000190: 4f85 a9bc 33d9 27bd e970 0c3d 2847 51bc
000001a0: 45ee 06bd 98d3 cfbb c81c 583c a651 68bc
000001b0: 3c20 16bd 6c5c 803c 6ae4 f1bc fa68 d53c
000001c0: 0e93 63bc 781f 623c ea7a c2bc 6b72 10bd
000001d0: 6732 eebc 4cff 1bbd 60a7 0cbc e0a3 a83a
000001e0: c41f 06bd de1a b33c bfaf 103d 75fb 2bbd
000001f0: 409e 7aba 00b0 ef39 f068 31bd 3807 c3bc
00000200: 49d8 19bd d040 d63b dac1 8abc 0624 c9bc
00000210: 4033 1e3a d314 0f3d 20a0 823c 8efd a8bc
00000220: dc2d 24bd 8610 c7bc 059d 303d 398d 34bd
00000230: da9f e53c 45e2 2e3d 1c2b eabc 9eda b63c
00000240: e278 9e3c 14a4 22bd bbcf 273d d6c3 f2bc
00000250: 87f9 053d 30b6 7e3c 0357 c3bc 2478 7e3c
00000260: e8e9 83bc de3a cd3c aff9 1cbd 1023 e23b
00000270: 8baf e9bc e0ed 14bd f820 493c f3dd bebc
00000280: 7610 2ebd bcbd 2fbd 4c97 5a3c 982b 3b3c
00000290: cd86 eabc 4073 633b 3cbc 1f3c b06e c3bc
000002a0: e87f adbb fdd1 1e3d 20bf 41bc a1f2 d0bc
000002b0: 7a60 d33c 0060 84b8 47ae 1c3d 13a8 2f3d
000002c0: 2cf0 0cbc ec62 d6bc 726d 8b3c c048 b8bc
000002d0: bee2 c13c 9936 a9bc 6380 0d3d 0401 5e3c
000002e0: 30aa 06bc d81d 6e3c 59f3 33bd 3021 5f3c
000002f0: 5cb1 0abd be3e d03c 8009 8c39 c3fd 8bbc
00000300: 4dbf f7bc 8794 15bd a86d 473c 43f0 23bd
00000310: e274 ff3c 528d fe3c 089b 30bc 806e 8bb9
00000320: 6074 463b 8018 abbb c05b 03bc 653f 1abd
00000330: 0012 5939 5214 933c 30aa 023c cc9e 5ebc
00000340: 4c20 2bbc 05bc 2a3d 0043 7f39 3b7e e9bc
00000350: bab9 ac3c b0d2 02bd e04f c13b adad 06bd
00000360: 5d02 2e3d 8219 cc3c 9d8c 063d 2aab b7bc
00000370: ee8a cbbc 306d 12bd bafe 72bc beb0 e93c
00000380: a699 f13c 909b 983b 8874 47bc b075 803c
00000390: 8638 89bc e2a7 dbbc ec1e 51bc 20da 43bb
000003a0: ab2f 2c3d 447c 16bc dcc8 1d3c 18d5 823b
000003b0: e2a7 fd3c 800b 903b ec30 183c 1f26 103d
000003c0: b0d0 9dbc 24a6 2abc 9342 0e3d 0ecc d23c
000003d0: 087f 8abc 8ea0 ff3c d0e9 3dbb 9806 503c
000003e0: b010 c13b 7496 1d3c 115a 0f3d 40c7 a7ba
000003f0: 7dd1 1e3d 1490 073c edf6 28bd 224d c73c
0.04090661 0.019329812 -0.022984847 0.042238507 0.033487912 0.018549386 0.010760669 0.008354239
0.02155361 -0.00723302 -0.037202787 0.02879205 0.034808 0.00091492385 -0.0069720894 -0.027728517
-0.005631294 -0.014593389 0.011059374 0.038622547 -0.019309958 0.0093057975 0.009600326 0.023945045
-0.036629245 -0.041788783 -0.0071527995 -0.043872003 -0.02637731 -0.039700773 0.0030873083 -0.027088786
-0.030069921 -0.024460165 -0.011994034 -0.024132837 0.036183756 -0.024326138 0.015972253 -0.031476915
-0.017273296 0.031108622 0.034542236 -0.034264036 0.01318942 -0.026084652 0.0042549334 -0.028112074
0.020657878 0.01632177 -0.021267785 -0.00092170015 0.021432664 -0.0072347745 -0.024435567 0.03444725
0.040642094 -0.01882048 -0.020195035 0.020662848 0.016233906 -0.022238605 -0.012202069 0.02569278
-0.032622345 0.03687929 -0.003373295 0.021153148 -0.029958623 -0.031739753 0.01445717 0.0035880245
-0.0356711 -0.02386119 0.027799774 -0.039228506 -0.03036507 -0.011758413 0.0024406724 -0.0019990355
-0.015813887 0.03880358 0.040015448 -0.034170963 0.02084795 -0.0418191 -0.025349474 -0.008543491
-0.025923936 0.008854959 -0.0099910535 -0.031684116 0.013155121 -0.0010161325 -0.015078245 0.032944445
-0.024740927 -0.0037213825 -0.038442947 -0.032183282 -0.02069345 -0.04097862 0.034287367 -0.012773313
-0.032942075 -0.0063423626 0.013190456 -0.014179623 -0.036651835 0.01566907 -0.029527862 0.026051033
-0.013890041 0.013801448 -0.02374025 -0.035265367 -0.029076768 -0.038085267 -0.008584827 0.0012866221
-0.032745138 0.021863397 0.035323855 -0.041987855 -0.0009560324 0.00045716763 -0.043312967 -0.023807153
-0.03755978 0.006538488 -0.016938139 -0.02455331 0.00060348585 0.03493197 0.015945494 -0.020628717
-0.040082797 -0.024299871 0.043118495 -0.044079993 0.028030325 0.042696256 -0.02858501 0.022321042
0.01934475 -0.03970726 0.04096959 -0.029634397 0.03270867 0.015546367 -0.023845201 0.015531573
-0.016102746 0.025052484 -0.038324054 0.0069011524 -0.028526088 -0.036359668 0.012275927 -0.023299193
-0.042496167 -0.042905554 0.013341736 0.011423968 -0.028628731 0.0034706146 0.009749468 -0.02385649
-0.0052947886 0.03877448 -0.011825353 -0.02550632 0.02580284 -6.312132e-05 0.03825214 0.042884897
-0.008602183 -0.026170217 0.017019961 -0.022495627 0.02366769 -0.020655917 0.034546267 0.013550047
-0.008219287 0.0145334825 -0.043933246 0.013618752 -0.03386055 0.025420543 0.0002670996 -0.017088776
-0.030242587 -0.0365186 0.01217214 -0.040024053 0.031183664 0.031073246 -0.01077915 -0.00026594475
0.0030281767 -0.0052214265 -0.00801748 -0.037658114 0.00020701438 0.017954025 0.007975146 -0.013587665
-0.010444712 0.041683216 0.00024343655 -0.028502574 0.021084655 -0.03193921 0.0058994144 -0.032880474
0.042482723 0.024914507 0.032848943 -0.022420485 -0.02484652 -0.03574866 -0.014831239 0.02852666
0.02949221 0.0046572164 -0.012173779 0.015681118 -0.016750585 -0.026813451 -0.01276372 -0.0029884651
0.042037647 -0.009184901 0.009630408 0.003992688 0.030963842 0.004395902 0.009289008 0.035192605
-0.019264549 -0.010415588 0.03473146 0.025732066 -0.016906276 0.031204488 -0.0028978474 0.012696885
0.005891882 0.00961839 0.034998003 -0.001280047 0.038774002 0.008274097 -0.04125111 0.024328772

sequential.21.bias f4 [128]
00000000: 7060 3d3c 1700 cebc 68c4 f93b 7c5d 03bd
00000010: c6cf f23c b252 d13c 802b 653b 8d34 153d
00000020: 7be9 d0bc aa09 ad3c 40a7 3fba b4ed 333c
00000030: 12ff 953c 9403 23bc 820b b23c 12c4 2abd
00000040: bec8 f03c 0838 253c 685b 10bc 18f4 1dbc
00000050: 60c4 9eba 1db5 1a3d 8038 4abb c239 a93c
00000060: af8a 91bc 0126 213d 22e9 cc3c 0035 e83a
00000070: 460f ce3c 65b5 1c3d 373d 293d a0ca f5bc
00000080: ab1d 0c3d d047 91bb 581c 743c 38a5 07bc
00000090: f5d8 30bd 5988 263d 5b67 093d d662 2ebd
000000a0: e6f3 c1bc 88dc 2dbc 066e de3c 99a8 98bc
000000b0: 2a26 5fbc 264c bc3c a215 eb3c ee28 ca3c
000000c0: 165c fb3c 9e87 11bd ce8a 93bc 808b 93b9
000000d0: 96c4 20bd 741d 16bd 2c6e 21bd c69f c23c
000000e0: 800c b8bc 2c9c edbc e229 22bd 3e18 5ebc
000000f0: ac8a 653c 36ad ea3c ef5a 2a3d f628 c3bc
00000100: 98e6 36bc 606b e6ba 0320 263d 40dd 1a3a
00000110: b5b0 333d 593b a5bc feca f13c 340c 09bc
00000120: a04e fe3b ae3b 2dbd d130 133d f2cf a8bc
00000130: 442d bdbc 0949 093d 2925 97bc 81d1 303d
00000140: 6221 54bc 1afd c83c ca76 24bd 3d5f 173d
00000150: 0348 2abd 742b 193c 3044 27bd f85b 1bbc
00000160: 75c9 063d 80c3 893a 00e4 3fba fa8d b0bc
00000170: 4139 0b3d 8f54 b0bc 19c9 203d 9141 b0bc
00000180: 18df 873c 800f 413a bb17 2bbd d884 39bc
00000190: c08c 31bd d192 0abd be40 a43c e8fc 87bb
000001a0: 2a2c dd3c 4104 b9bc d0fa 2abc 3a34 a23c
000001b0: 02a5 09bd 87a7 c4bc e887 f4bc 5096 bd3b
000001c0: a616 c53c 16b0 15bd e2fd d83c 62d7 efbc
000001d0: 44dc 0a3c add1 a3bc 1d1a b4bc 5079 213b
000001e0: 5267 f1bc 55a7 1e3d 1d95 03bd a895 48bc
000001f0: e72c 14bd 1051 2e3b a0c6 313b 3053 953c
0.011558637 -0.025146527 0.0076222904 -0.032071576 0.02964009 0.025552128 0.0034968555 0.03642707
-0.025501957 0.021122772 -0.0007310994 0.010981966 0.018310104 -0.009949584 0.021734003 -0.041690893
0.029392596 0.01008416 -0.008810855 -0.009640716 -0.0012112968 0.03777038 -0.003085643 0.020657424
-0.017766325 0.039342884 0.02501351 0.001771599 0.025153767 0.03825893 0.041318145 -0.030003846
0.03420798 -0.0044336095 0.014899336 -0.008279137 -0.043175656 0.040657375 0.033545833 -0.042574726
-0.02367587 -0.010611661 0.027152073 -0.018635081 -0.013619939 0.02298553 0.028696839 0.02467772
0.030683558 -0.035529725 -0.018010523 -0.0002814196 -0.03924998 -0.036649182 -0.03941171 0.023757827
-0.022466898 -0.029005133 -0.039590724 -0.0135555845 0.014010113 0.028647047 0.041590627 -0.023823243
-0.011163376 -0.0017579608 0.040557873 0.00059076026 0.043869693 -0.0201699 0.02951574 -0.008364726
0.0077608377 -0.042293243 0.035935227 -0.020606969 -0.023092873 0.033516917 -0.018450337 0.04316855
-0.012947412 0.02453475 -0.04015235 0.03695606 -0.041572582 0.009348739 -0.040836513 -0.009482376
0.03290697 0.0010510534 -0.00073200464 -0.021552075 0.03399015 -0.021524696 0.03925428 -0.02151564
0.016585872 0.00073646754 -0.041770678 -0.011323176 -0.04334712 -0.03383142 0.020050403 -0.004150022
0.026998598 -0.022585036 -0.010435775 0.019800294 -0.03360463 -0.024005665 -0.029849961 0.005785741
0.024058651 -0.03654488 0.026488248 -0.029277507 0.008475367 -0.019997442 -0.021985108 0.0024638958
-0.029468212 0.0387338 -0.032124627 -0.012242712 -0.036175635 0.002659861 0.0027126446 0.018228143

onnx::Conv_55 f4 [16, 3, 3, 3]
00000000: bcb2 9cbd 6220 e93d 5aaf bdbc fc45 2cbe
00000010: 34e3 1bbe d3db c6bd 1263 0dbd 0c2a 3dbe
00000020: 4ac9 a3ba d783 82bd c54d 01be 7d1f 22be
00000030: ee4e 28be e869 e23d 0633 613c c88f 4fbd
00000040: a8dd 5cbc a57c 20be 5afb c7bd a0a5 043d
00000050: c67e b1ba f220 8c3b 44b2 e7bc 6019 dabc
00000060: 9f83 14bd 373d 423e 84da aabd 4ac6 023e
00000070: a2e0 133e bc25 babd 8838 1a3e d607 4abd
00000080: 45e8 0f3d 46bc b13a 7edf 25be c286 bb3b
00000090: ef5e 39be 9303 0c3e a879 babd 3b1e 53bb
000000a0: 5d2f fdbc e683 6d3d 6aea 25be 10c7 31be
000000b0: 0038 73bd 8d09 ddbd 2cba 263e 5706 29be
000000c0: 95f6 0a3e 9511 133e 9768 bfbd d09f 29bd
000000d0: fa40 fcbd 3b0a 21bd e994 413e 8d7c 33bd
000000e0: 98d1 13be 319e 583d 8aa8 033e 2da8 9a3c
000000f0: 49a1 fcbd 5570 eb3d 6b08 3c3e 3341 a9bd
00000100: 94cb d7bd f75e 3c3e 5cd9 e23d 84b7 1e3d
00000110: 1d92 4b3d 667f e83d a869 e23d 57dd f5bc
00000120: d866 dabc 3659 05be 364c ce3d c549 1bbe
00000130: 3327 6cbb 9be7 293e 14d6 2b3d bf36 1e3e
00000140: d565 a13d 4a6e f6bd da08 083e 0258 17bd
00000150: a3b6 6a3c 5696 3f3e 2d81 d33d 75da 81bd
00000160: d6f9 b53d 2345 d2bc 7f9c d93d 836a 223d
00000170: e1aa 3fbd 2bcc 3c3e fb5d 5f3d 06f2 16bd
00000180: aacf cf3d 6f1e 9b3d 596d a7bc d03c 66bd
00000190: 0f46 8cbd 8707 173e 5521 e4bb 3c58 973d
000001a0: 14f5 cabd 0cdc 97bd 7d61 84bc cfcb 35be
000001b0: 7ba5 533c b860 5bbd 4141 13be 9de3 b2bc
000001c0: 3226 d4bc ac1b cfbc bd31 bb3d 3580 3c3e
000001d0: b313 52bd ceba 073e 7acc 1dbe 2bc4 a1bc
000001e0: 22b9 193d 9329 37be d344 8e3d 9d46 13be
000001f0: b91d 37be 13a7 c3bd 4bfa cb3d b6fa 0bbe
00000200: 57d4 a83d 8fd7 07bd 62ab b73d eef9 0abe
00000210: 8723 223d 2a13 a0bd 9b58 6b3d 85e0 1c3d
00000220: 19c2 873d e9aa 41be 4002 1abe 5d0d 08be
00000230: 4f6c 77bd 1df9 4b3c b333 b5bd e185 33be
00000240: 2065 063d 0243 2bbe dbbd 523c eb76 a2bb
00000250: 723c afbd 31c3 29be 7f26 3b3d da10 203e
00000260: 4c45 01be c0be c2bc 27e8 dd3c 2c9b 93bd
00000270: 58da 44be ee6f 313d 9a30 213e b616 62bc
00000280: 902d 27be b685 393e 6822 983d 13f7 fc3d
00000290: 54e9 a43d 8995 8a3d b1cf 38be 354e 063e
000002a0: 3403 383c bca4 e03d 0f11 d83d fc1a e73c
000002b0: ab20 38be 4f1d cc3d df58 1fbe c67e f0bd
000002c0: cf89 89bd db4a d73d 7acf 85bd c90a 22be
000002d0: 1bdd d0bb b37f e9bc 91ad f0bb a1b6 653d
000002e0: 755a 33be 68e5 343e f7f1 3d3e 5528 1abd
000002f0: a263 c33d 6010 17be 80ac 4fbd 4717 2c3e
00000300: 5118 3c3e a1ac 12be bbd3 0c3e 3a3a 00be
00000310: 7416 1b3e 27ce 823d e258 0dbe ec5d 503c
00000320: 0e84 083e 65b5 10bd cfb8 95bc a0ac 80bd
00000330: f8dd efbd e83b 2c3e 84ff f83d 4c71 b1bd
00000340: 6a14 563c e5ef 19be 0b33 95bd b58b 1d3e
00000350: f2a8 0bbe 3a7c d8bd c6c7 923d 1cf7 efbd
00000360: d971 b93d ac87 0f3e a5a3 013c e8e7 c93d
00000370: 2260 213e 71ce 41be 722d 0bbc 2a29 c7bd
00000380: 5d42 1f3e 9f2b 243e 361c c8bd 504c 42bc
00000390: 4663 32be f387 13be c26d bd39 9be4 32be
000003a0: 068a 60bd 3155 0e3d 48be 1cbe 6cce d53d
000003b0: 6632 4abd bc18 85bd 9193 0f3d 49f4 f6bd
000003c0: 0402 693d 0808 2bbd 6665 61bd 2efa fe3d
000003d0: 0a50 24be aef0 6e3d 5e3e 6dbd 5a8d 0ebe
000003e0: d9cf 59bd 1e47 353e 6cc7 febc f1eb 4cbd
000003f0: ef90 b23d f313 b93c 8479 263e 93ff b9bc
-0.076512784 0.1138313 -0.023154903 -0.16823572 -0.1522339 -0.09709897 -0.03451831 -0.18473071
-0.0012495902 -0.06372803 -0.12627323 -0.15832324 -0.1643636 0.11055356 0.013745075 -0.05067423
-0.013480581 -0.15672548 -0.097647384 0.032384515 -0.001354181 0.0042763883 -0.028283246 -0.026623428
-0.036258336 0.18968664 -0.0834246 0.12770954 0.1444116 -0.090892285 0.15060627 -0.04932388
0.03513362 0.0013560138 -0.16198537 0.0057228515 -0.1810262 0.13673238 -0.09105235 -0.0032214064
-0.030906374 0.057987116 -0.16202703 -0.17361093 -0.059379578 -0.10792837 0.16281956 -0.16506325
0.13570626 0.14362176 -0.09346121 -0.041412175 -0.12317081 -0.039316397 0.18904461 -0.043819953
-0.14435422 0.052885238 0.12857261 0.01887902 -0.1233545 0.11496035 0.18362586 -0.08264389
-0.10536876 0.18395601 0.11076614 0.038749233 0.04969989 0.11352424 0.110553086 -0.03001277
-0.026660368 -0.13022313 0.1007313 -0.1516486 -0.0036034107 0.16592257 0.041952208 0.15450571
0.07880751 -0.12032755 0.13284627 -0.036949165 0.014325771 0.18709692 0.10327373 -0.063404955
0.08885543 -0.025667733 0.106255524 0.03965236 -0.046793822 0.18437259 0.054532986 -0.036851905
0.10147031 0.07574164 -0.020437883 -0.05621034 -0.068493 0.14748965 -0.0069619813 0.07389876
-0.09910026 -0.074150175 -0.016159767 -0.17753528 0.012917872 -0.053559035 -0.14380361 -0.02183705
-0.02589712 -0.02528175 0.09140346 0.18408282 -0.051288318 0.13254854 -0.15410033 -0.01974686
0.037530072 -0.17886953 0.06946721 -0.14382406 -0.17882432 -0.09553351 0.09959849 -0.13669857
0.082436256 -0.033164557 0.089682356 -0.13571903 0.039584663 -0.07816155 0.057457548 0.038300056
0.06628818 -0.18912853 -0.15039921 -0.13286348 -0.060406025 0.01244953 -0.088477515 -0.1753154
0.032811284 -0.1672478 0.012862648 -0.004958024 -0.08556451 -0.16578366 0.04569101 0.15631428
-0.12624091 -0.023772597 0.027088238 -0.07207331 -0.19223917 0.043319635 0.15741196 -0.01379936
-0.16325974 0.18117413 0.074284375 0.12351813 0.08052316 0.06766803 -0.18047978 0.13115771
0.011231232 0.109689206 0.10550129 0.02821111 -0.17981212 0.09966528 -0.15561245 -0.1174293
-0.06715738 0.105123244 -0.06533714 -0.15824427 -0.006374014 -0.028503275 -0.0073449095 0.05608237
-0.17514975 0.17665637 0.18549334 -0.03763612 0.09540488 -0.1475234 -0.05070162 0.16805755
0.18368651 -0.14323665 0.13752644 -0.12522212 0.15145284 0.06386977 -0.13803437 0.012717705
0.13331625 -0.03532924 -0.0182766 -0.062829256 -0.11712259 0.16819727 0.12158111 -0.08664188
0.0130663905 -0.15032919 -0.07285126 0.15385325 -0.13638666 -0.10570569 0.0716701 -0.11717054
0.09054918 0.14016598 0.007912551 0.09858686 0.15759328 -0.18926407 -0.008494722 -0.09724648
0.1555266 0.16032265 -0.09771006 -0.011859015 -0.17420682 -0.1440733 0.00036130665 -0.17470019
-0.05481913 0.034749214 -0.15306962 0.104397625 -0.04936447 -0.06498858 0.03505284 -0.120583124
0.056886688 -0.041755706 -0.05502834 0.12450062 -0.16046157 0.058335 -0.057920806 -0.13921109
-0.053176735 0.1770291 -0.031100951 -0.0500297 0.0871905 0.02259252 0.16257292 -0.022704875

onnx::Conv_56 f4 [16]
00000000: 71ee a83c 4a04 623d 7a1e d03d 9386 9a3d
00000010: b8c2 1d3d bd91 3bbe e700 b3bd c381 b8bd
00000020: a664 a3bd 147f 2b3d 2f37 1e3e 40ed b2bd
00000030: 3e1c f3bd 43cc 08bc 5000 353e dbf1 09bd
0.02062151 0.05517987 0.10162063 0.07545199 0.038515776 -0.18317313 -0.087404065 -0.09009125
-0.079781815 0.041869238 0.15450738 -0.08736658 -0.11870621 -0.008349481 0.176759 -0.033677917

onnx::Conv_58 f4 [32, 16, 3, 3]
00000000: 2c46 8a3d 0ec4 f9bc bf48 633d 2339 42bd
00000010: e600 a5bc 7248 bebb 56ff 18bd a0ed 90bd
00000020: 9531 82bd 5075 4cbd 136f 0f3d d427 aabd
00000030: 22d0 bbbc 92bf 56bd b175 79bd 902f 8cbd
00000040: 529f 0d3d 1731 a03c a077 92bd 4ae9 d43c
00000050: 550b 863d 1e0b 62bc 0c4c e1bc 4e9b 20bd
00000060: 90d5 85bc d43c 83bd d21a 233d 82b1 99bc
00000070: 8f10 d9bc ebf9 9abd 0d49 33bd 47ca 2ebd
00000080: cffa 583d 0b3b 73bd 4d1b 8ebc 18d8 5bbb
00000090: 5fac 633d e4dc 4f3c b3f1 09bd 86f1 a03d
000000a0: d74d 5ebd 9ba8 963c 8ee6 5cbd ee18 8f3d
000000b0: af43 9cbd 5afc 5b3d 7fe0 5d3c 15be 87bd
000000c0: d4ba 06bc a0b7 11bd c729 403d 8b03 a23b
000000d0: 9427 06bc dfe4 803d 9a49 673d 7c90 823d
000000e0: 42f7 053d 0fb5 5ebc e923 a8bd 5b99 7b3d
000000f0: a331 813d 2b4e d3bb 95f6 6dbd 8c07 aabd
00000100: 57be a43d 13c7 81bd 6376 1a3d 5459 b5bb
00000110: d05b 9b3d 0f89 07bd 3e13 2abd 1bce 3a3c
00000120: e716 993d c74c 323d c1e9 2c3d 3989 693d
00000130: b11e 163d 36ff afbc a7ff 84bd 6df5 8fbd
00000140: 53cd 803d c6fd 3139 c08d 0bbd 19d3 a53d
00000150: c176 b3bc c8ec a5bd 459f 8c3d 8808 5bbd
00000160: 8337 8c3d 50ad 91bb 5e27 61bd b50f 2e3d
00000170: 7195 10bd bbab 513a b0a1 193d 2a14 a23d
00000180: 707e a83d 3144 72bc 14ca c7bc 4c04 6d3d
00000190: 41b4 80bd 138d 3f3d e352 ba3c 5106 6c3d
000001a0: 6ff3 4fbd f318 883c 7d8c f13c 7d6a 75bd
000001b0: 7648 793c eb48 963c b2d3 13bd 6541 e43b
000001c0: c06b 2bbd 0416 b63a 24b7 b73c 4ceb 923c
000001d0: 61cd 403c 7237 67bd eac0 4dbd 7cd9 37bd
000001e0: 9c76 4ebd 9423 06bc d05f 9dbd 3059 c3bb
000001f0: 4447 82bd 9b05 a2bb ea2c a0bd eefd 5a3d
00000200: 25fd 4abd 63d4 8b3d 5e68 bcbc 20f1 f43b
00000210: 792e d83a 38c4 623d cf93 5d3c 3603 8dbc
00000220: e7dd 923d d220 0dbb dd0f fcbc d105 96bd
00000230: 1d0c 903c ef40 d7bc 58ea 953d 1046 9a3d
00000240: be4f d53c 6adb 123d ee5d 6bbd bed3 41bd
00000250: a30d 9d3d 29ea 3fbc a435 3e3d 7967 84bc
00000260: 114d 58bd fa85 b5bc a14c 9b3c 9d7c 4cbd
00000270: 5fe1 653d 4133 9f3d 78b2 113c 8b1a 21bc
00000280: c2f8 ee3b b1cc 0f3c b385 8d3d d9a7 a7bd
00000290: 1b13 c6bc d7d7 06bd 1141 463d fbaa 38bd
000002a0: dc68 e2bc 6bdc 50bd 9b5d 6f3d 4e2c 2a3d
000002b0: fc05 c23c 44c5 92bc 3d24 8ebc dd20 9abc
000002c0: c87a 5abd a3e2 403d d60c 8c3c 8f81 633d
000002d0: be44 bc3c 5877 0bbd 6005 5abd 7436 4fbd
000002e0: 90fa e7bc aa37 663d fda2 fcbb ce6c 4f3d
000002f0: f14e 283d 758d 863d db5c a53d 9ec1 ecbc
00000300: 08fd abbb 6707 2ebb 2f26 2ebc 3b25 9bbd
00000310: c3cb 383a 8d79 64bc a3b3 eb3b 7e07 a03d
00000320: 8281 ecbb f070 83bd d381 273d 8bf7 9abd
00000330: 872e 2fbd 1ae0 943d bc1d 1e3d 1d9f cc3c
00000340: 15bf 6ebd c1d0 3e3b d522 523d 07dd 333d
00000350: c765 f0bc b3f2 503c a22a bc3c e625 e03b
00000360: dc6f a7bd 6188 82bc 84eb 61bd c769 66bd
00000370: df31 f73b 74b3 4ebd f537 213d 4bb3 203d
00000380: 67bb a7bd fdf3 ef3c ea08 9a3d 1179 e33c
00000390: af44 413d 6aa1 af3c 4baa f53c 25b7 6b3d
000003a0: 0202 bcba 95f0 8e3c 0700 1c3d c6e9 a03d
000003b0: 6b10 943c 6870 74bc 33b8 403d 65ec 81bd
000003c0: a126 88bd 3a50 a53c f71f 71bd 4477 66bd
000003d0: f222 683d 1607 91bd 7a39 89bd e49a 8ebd
000003e0: f6d0 a13d 5eb2 11bd 6d37 5d3d a1c2 403c
000003f0: 0e95 5a3d 210b 933d c0c7 54bd a912 57bd
0.067516655 -0.030488994 0.055489298 -0.04741777 -0.02014203 -0.005806976 -0.037352882 -0.07076573
-0.06357113 -0.049916565 0.035018038 -0.08308378 -0.022926394 -0.05242879 -0.060903255 -0.06845009
0.034575768 0.019554658 -0.07151723 0.025990147 0.0654513 -0.013796596 -0.027502082 -0.03921061
-0.016337186 -0.064080864 0.0398205 -0.0187614 -0.026497154 -0.07567199 -0.04377084 -0.042673375
0.052973565 -0.05938248 -0.017347002 -0.003354555 0.055584308 0.012686942 -0.033677768 0.07858567
-0.054273453 0.018390944 -0.05393081 0.06987177 -0.07630097 0.053707458 0.013542294 -0.06628052
-0.008223254 -0.03557551 0.046914842 0.00494427 -0.008188147 0.06293654 0.056466676 0.063752145
0.032706507 -0.013592972 -0.08209974 0.061425548 0.063082956 -0.0064485273 -0.058096487 -0.08302221
0.08044117 -0.063367985 0.03771056 -0.0055343304 0.07585871 -0.033089694 -0.041522257 0.011401678
0.074750714 0.04353025 0.042215113 0.05701563 0.036650363 -0.021483999 -0.06494074 -0.07029233
0.062891625 0.00016974573 -0.03407073 0.08096904 -0.021907212 -0.08101803 0.06866316 -0.053474933
0.068465255 -0.0044457093 -0.054969184 0.04249545 -0.03529877 0.0007998307 0.037507713 0.07914002
0.08227241 -0.014786766 -0.02438835 0.057865426 -0.06284381 0.0467654 0.022744602 0.05762321
-0.050769266 0.01661346 0.029485935 -0.05991601 0.01521503 0.018345317 -0.03609056 0.0069658034
-0.041850805 0.0013892059 0.022426195 0.017934464 0.011767716 -0.05644936 -0.050232805 -0.044885144
-0.050406083 -0.008187193 -0.076842904 -0.0059615597 -0.06361249 -0.004944516 -0.07821067 0.053464822
-0.049557824 0.06827619 -0.022998985 0.0074750334 0.0016493342 0.05536291 0.01352401 -0.017213445
0.07171231 -0.0021534455 -0.030769283 -0.07325328 0.017583901 -0.02627608 0.07320088 0.075328946
0.026039 0.03585378 -0.057462625 -0.047321074 0.076686166 -0.011713543 0.046437874 -0.01616262
-0.05280787 -0.022158612 0.018957438 -0.049923528 0.056123134 0.07773448 0.008892648 -0.0098329885
0.007292838 0.00877683 0.06910267 -0.08186311 -0.024179032 -0.032920685 0.048401896 -0.045084935
-0.027637891 -0.050991457 0.05843888 0.04154616 0.023684494 -0.01791633 -0.017351264 -0.018814499
-0.05333975 0.047091138 0.017095964 0.05554348 0.022981998 -0.034049362 -0.053227782 -0.05058904
-0.02831772 0.05620543 -0.0077098594 0.050640874 0.04109091 0.065699495 0.080743514 -0.028900918
-0.0052486695 -0.0026554705 -0.010629221 -0.075754605 0.0007049406 -0.013944996 0.007193045 0.07813929
-0.007217587 -0.064180255 0.040895294 -0.07566746 -0.04276898 0.072693065 0.038602576 0.024978215
-0.0582877 0.0029116126 0.05130275 0.04391196 -0.029345406 0.0127531765 0.022969548 0.0068404553
-0.08175632 -0.015934171 -0.055156246 -0.05625322 0.007543787 -0.05046411 0.039360005 0.039233487
-0.08190041 0.029291147 0.075212315 0.02776769 0.047184642 0.021439273 0.029988429 0.057547707
-0.001434386 0.017448703 0.038085964 0.07857089 0.018074235 -0.014919378 0.047050666 -0.06343917
-0.06647993 0.020179857 -0.058868375 -0.056266084 0.05667395 -0.0708143 -0.06700416 -0.06963137
0.07901184 -0.035570495 0.054007936 0.011765153 0.053364806 0.07179857 -0.05194831 -0.05250803

onnx::Conv_59 f4 [32]
00000000: 6507 81bd 0136 913d 3eb7 49bb 74fb b53b
00000010: 70f3 f3bc 345b dc3c 6218 b0bc 4929 59bd
00000020: 0bba 093c 2cdc b1bc 24be 9abd ff51 a33d
00000030: ea76 95bd 34f3 18bd bc66 4fbb ba07 87bd
00000040: 0c3b 9fbc 0176 b4bc 738d 853d 5d5c 65bc
00000050: 6ebb 973c d517 223d 08ce 493d ef5c 853d
00000060: fbee 3f3d 97bf 1c3d 26f7 813d 1736 8abc
00000070: 4bb7 9fbd 43e6 f53c 4733 af3c 51c2 efbc
-0.063002385 0.070903786 -0.0030779387 0.005553657 -0.029779166 0.026898958 -0.021496002 -0.05301789
0.0084061725 -0.021711431 -0.07555798 0.07974624 -0.07298072 -0.03734131 -0.0031646928 -0.065932706
-0.019437335 -0.022028925 0.0652112 -0.013999072 0.01852199 0.03957351 0.049268752 0.06511866
0.04685877 0.03826865 0.06345968 -0.016871495 -0.07798632 0.030017024 0.021386756 -0.029267462

onnx::Conv_61 f4 [64, 32, 3, 3]
00000000: 2982 f2bc 0031 453d 2bf5 e53c 0d3d d7bc
00000010: 6db6 b83c 1623 22bd edec 403c 39af 373d
00000020: 1cb8 2bbd 6512 ba3c 6905 d33c a825 163d
00000030: 91cc 013c 1407 67bb 862c 0dbc 9b08 d83c
00000040: f446 23bd 1cf8 febc f37c a63c faf5 473c
00000050: 6cad b63b abd2 d2bb 0fd8 4f3d 1391 833c
00000060: 7665 a93c 1776 3a3c 4619 983b b399 6e3d
00000070: 90bd c93c e1eb 6dbd a8e1 92bc 39f9 2b3d
00000080: 735c 43bd a5e2 fcbc 9900 26bd 02f5 e63c
00000090: 1580 2b3d 2c4b 633d 0544 4cbc 215a f9bc
000000a0: a0b5 aa3b 11ae 343c 7169 7c3c 0c37 e8bb
000000b0: 17b0 2cbc 4f83 253d 8299 bd3a e59b fdbc
000000c0: 624b 2c3d c192 d2bc d58f 65bd d1f5 8dba
000000d0: 3c33 39bd f149 8eba 2b5f 51bc d345 e4bc
000000e0: e523 10bd f96b 1e3d cf98 123d 2dda 50bd
000000f0: bd15 953c 641b fabc fd8b eb3c b333 363d
00000100: 5045 103d 9dc0 39bd fe49 593d 98e7 70bd
00000110: 781b f53b b7cd d8bc 1d33 1e3d 255a 95bc
00000120: 383b 2d3d eb60 353d 4b66 1f3d ed33 2b3d
00000130: c7b3 2dbc 88b0 023d 3df3 22bd b6d3 48bc
00000140: 67b7 ad3a d9b8 63bd 96b7 163d 2f44 45bd
00000150: 86c1 283d 1f9d 2cbc 2a19 4ebd 13cf 383b
00000160: 3bbc 423d 6aed 213d c79a 4e3d 5042 693d
00000170: 5b62 6ebd 1b77 56bd 7e92 c8ba 0c1a 463d
00000180: 1d72 113d 03ec 0fbd 74f2 7fbc cdc6 b83c
00000190: f163 a2bc 72b5 6b3d 24ce ffbc cd74 02bd
000001a0: 4795 943b 900c 993c 8560 0fbd 5810 063c
000001b0: 60e2 633d 85e1 943c 8c59 093d 92cc 01bd
000001c0: 3797 f73b 1409 d03b 6345 69bd 2dc0 ebbc
000001d0: df4c ddbc 3c78 0bbd 8807 453d 6e66 b1bc
000001e0: a817 293d d6df e73c cbde 51bc 9c13 573d
000001f0: 7a60 543b f000 1fbd 11ae 57bc 8543 bb3c
00000200: cb33 133d 0d95 40bd 4dce f63c 179d f2bc
00000210: e7af 4abd 6762 51bc 9c33 fdbc 691a 593b
00000220: afba 75ba 0486 fcbc a577 47bd bb99 11bd
00000230: a796 60bd fa5e 24bb b481 11bc 877f 49bd
00000240: 755c 11bd c9c5 1e3d c7ee 87bc 2e4e 353d
00000250: 7864 1fbd f97a 2dbd 2c0a 6b3d 0acb a33a
00000260: 4342 d93c b383 4f3d 7167 62bd bfaf e5bc
00000270: 6660 093d 9b7e 663d d055 c2bc ee86 17bd
00000280: 41b1 edbc 416a 90bb 68ad d53c e933 673d
00000290: d13b 613d 0cc5 333d 03c5 e43c dbaa 2cbc
000002a0: 88e2 66bd 99f2 4c3c 5e7c c43c 6dcb c4bc
000002b0: 9149 88bc b67f a5bc 1304 65bd ae89 6c3c
000002c0: 9a12 033d e68e 2fbb a8ea f33b 52d1 593d
000002d0: 1b3c 6d3d 6fa3 a7bc 47b9 1f3d bd95 103c
000002e0: 9bb6 453c 246e 05bb 720b 49bc 826c 49bc
000002f0: d909 333c c6c2 3dbd 1c91 fa3c 2177 58bd
00000300: 9c73 cebc 6397 c03c 07bb 683d 3243 6cba
00000310: 62f1 bdba 1ec6 643d 5213 793c 4fc5 be3c
00000320: db4f b43c c9de 653c 3da1 cdba 37e2 c53b
00000330: e8a3 393d 1181 a6bc 24a3 2ebd a219 92bc
00000340: 110e 963c 99c6 a1bc f6f9 e4bc c9a2 c53c
00000350: 3d4f f63c 3c0d 513d b3b1 21bd d96c 133d
00000360: f463 4d3d 9bc5 6bbc 21b6 ac3c 6c49 73bc
00000370: 6ae9 4b3d 980a 17bd 5251 613c b3c7 313d
00000380: b0a1 5fbd c3ce 67bd 925f 3d3b d421 17bd
00000390: 1956 343c 007d c23a 7850 daba 2cd2 393d
000003a0: f946 c13b c503 103c 03e4 5f3c 0e1b 333d
000003b0: 1033 9fbc 5dd9 27bd 88d0 afbc 823b 69bd
000003c0: fd4f 413c f8c9 323d 63a8 d73c fe34 d5bc
000003d0: c4f4 633d 0da6 5b3d a24f a5bc 0557 b4bc
000003e0: da00 98bc ece2 ec3c 464d edbc ca44 093d
000003f0: 7c10 e93b 6459 ee3c 9819 07bc 2f1d 2abd
-0.02960308 0.048142433 0.028071007 -0.026274228 0.022547925 -0.03958424 0.0117752375 0.04484484
-0.041923627 0.02271385 0.025759416 0.036657006 0.007922308 -0.0035252022 -0.008616572 0.02637129
-0.039862588 -0.031124167 0.020323252 0.0122046415 0.0055748727 -0.006433805 0.05074316 0.016060388
0.020678263 0.011380694 0.0046416847 0.058252048 0.024626523 -0.05808628 -0.017929867 0.041985724
-0.04769559 -0.030869791 -0.040527914 0.028193 0.041870195 0.05549161 -0.012467389 -0.030438485
0.0052096397 0.011027829 0.015405999 -0.00708664 -0.01054003 0.04040843 0.0014465305 -0.030958125
0.04206408 -0.025704743 -0.056045372 -0.0010830705 -0.045214877 -0.0010855776 -0.0127790375 -0.027865326
-0.03519048 0.03867719 0.03579026 -0.05098932 0.018198842 -0.030530639 0.028753275 0.044482898
0.03522235 -0.045349706 0.05304908 -0.058814615 0.007480081 -0.02646528 0.038622964 -0.01823146
0.042292804 0.04428188 0.038915914 0.041797567 -0.010601944 0.031906635 -0.03978275 -0.012257507
0.0013253511 -0.055596206 0.036796175 -0.048160728 0.041200183 -0.010535507 -0.050316967 0.0028199598
0.04754279 0.039533056 0.050440576 0.056948006 -0.058199268 -0.05235968 -0.0015302447 0.048364684
0.035509218 -0.035137188 -0.01562177 0.022555733 -0.019823046 0.057546087 -0.031226225 -0.03184967
0.004534397 0.018682748 -0.035004158 0.008182608 0.05563581 0.018173942 0.033532664 -0.031689234
0.007555868 0.0063487384 -0.056950938 -0.02877816 -0.027014194 -0.03405021 0.048102885 -0.021655288
0.041282326 0.028304975 -0.012809466 0.052508935 0.0032406137 -0.038819253 -0.013164059 0.022859344
0.035938065 -0.047017146 0.030127669 -0.029615922 -0.04948416 -0.012779809 -0.030908398 0.0033127314
-0.00093738263 -0.030825622 -0.048698086 -0.035547 -0.054831173 -0.0025081025 -0.008881021 -0.049193885
-0.035488565 0.03876284 -0.01659335 0.04426401 -0.038914174 -0.042353604 0.057382748 0.0012496423
0.026520854 0.050662708 -0.05527443 -0.028037904 0.0335392 0.056273084 -0.02372256 -0.036993913
-0.029015185 -0.0044071977 0.026083663 0.05644599 0.054988686 0.04388909 0.027925974 -0.010538782
-0.05636838 0.012509012 0.023985084 -0.024022782 -0.016636642 -0.020202499 -0.05591209 0.014437122
0.03200016 -0.0026788055 0.0074437447 0.05317814 0.05791865 -0.020463673 0.038995054 0.008824763
0.012067462 -0.0020359838 -0.012270795 -0.012293937 0.010927641 -0.04632833 0.030586772 -0.052847985
-0.025201611 0.023509687 0.05681899 -0.00090126984 -0.0014491493 0.055853 0.01520236 0.023287443
0.022010734 0.014030167 -0.0015688312 0.00603893 0.04532233 -0.020325216 -0.04263605 -0.017834488
0.018317254 -0.019748019 -0.027951222 0.024125474 0.03006708 0.051038012 -0.039476108 0.035992477
0.05014415 -0.0143903745 0.02108294 -0.014849048 0.049783148 -0.036875337 0.013752298 0.04340334
-0.054597557 -0.056593668 0.0028896076 -0.036897495 0.011006855 0.0014838278 -0.0016656062 0.04536645
0.005898353 0.008789961 0.013665202 0.043726973 -0.019433528 -0.04097878 -0.02146174 -0.056941517
0.011798856 0.043649644 0.02632541 -0.026026245 0.05565335 0.053625155 -0.020179573 -0.02201415
-0.018555094 0.028916799 -0.02896751 0.033512868 0.007112561 0.02909536 -0.008245848 -0.041531738

onnx::Conv_62 f4 [64]
00000000: 913c 343c 75de 533d cf1f 1437 cad6 86bc
00000010: 7496 36bb a65e 25bc d1ae 0f3b 2362 3fbd
00000020: 2aaa 4dbd 1c0d cfbb 9bc8 94bc 2b3d 02bd
00000030: 8c40 e23c f843 47bd 155a 613d d25a 013c
00000040: 70fc 39bd 8b4b b43c b186 27bc f213 c23c
00000050: cbea 3dbd fd71 243d 39dd 07bd 9130 19bd
00000060: ee58 30bd 8b9c cc3c d148 13bd 9018 403d
00000070: 6052 5bbd 53e2 5d3c bec2 203d 92ff 153d
00000080: 4420 5b3c dc74 2e3d a229 45bd cf3c 15b9
00000090: 4c24 533d db49 5ebd 4946 c13b c9d7 62bd
000000a0: ed29 0ebc 1e8c 6b3d 9ecc 083d 9c6b 113c
000000b0: 6b70 fe3c 6b5c adbc aa72 53bd 72b7 1b3d
000000c0: bc91 5abc 6c1e 6ebd 3c30 36bc 96fa 693d
000000d0: ef50 2b3d 3dff 0b3d 8e46 193b 69ef 6e3d
000000e0: 4bb6 9b3c 8bae 38bd 1ef3 52bd ec99 b5bb
000000f0: 38de 9dbc a7cc 603d c4db 743c fb87 96bc
0.011000768 0.051725823 8.828893e-06 -0.016459841 -0.0027860673 -0.010093367 0.0021924267 -0.04672445
-0.05021111 -0.0063187014 -0.018162062 -0.031796616 0.027618669 -0.048648804 0.05501755 0.007895188
-0.04540676 0.022008678 -0.010224984 0.023691151 -0.046366494 0.04014777 -0.03316996 -0.037399832
-0.04305356 0.02497699 -0.035958115 0.046898425 -0.053545356 0.013542729 0.03924822 0.036620684
0.013374392 0.042591915 -0.048135407 -0.000142324 0.051548287 -0.054269653 0.005898271 -0.05538157
-0.008676988 0.057506673 0.033398263 0.008875754 0.031059464 -0.021162232 -0.051623024 0.038016744
-0.01334041 -0.05813448 -0.011119898 0.057123743 0.04182523 0.03417896 0.0023388 0.058333788
0.019007822 -0.045088332 -0.051501386 -0.0055420306 -0.019271001 0.05488267 0.014944974 -0.018375387
