models/lite_face.onnx (onnx, 692134 bytes, 20 tensors)

sequential.31.weight f4 [256, 256]
00000000: 2acf 493d 6c55 ccbc bc5e b3bc 3e44 3b3d
00000010: c09a 823b 78fc 793c 90b5 c93b 54ec b1bc
00000020: a064 3b3d 5c4e 143d c802 47bd 4edb 11bd
00000030: 74ce e3bc 4464 653d 786d 673c 2c81 15bd
00000040: 98cf 923c 326f 013d b299 013d a883 183c
00000050: 0e80 08bd 203e 183d a626 5abd 9034 be3b
00000060: c8dd 2cbc c07f f2ba 4043 9bbb 5e31 003d
00000070: d84a 143d b47e e1bc 949d 583d 402c 3b3b
00000080: a04b a0bc 9c16 7e3d 364b 7bbd 9ea4 73bd
00000090: 64e1 06bd cece 533d cc46 5f3d fc4a a2bc
000000a0: 82ae 463d 202a 563d 2846 ddbc 1896 973c
000000b0: 0e69 1cbd b0fd e03c 2878 523d b897 3cbc
000000c0: 702d 24bc cc98 043d 1895 2b3d 405e 1e3d
000000d0: 682c e7bc 3613 09bd 5684 5dbd c6d3 783d
000000e0: 948d 903c 543c 7d3d 1045 6ebc 684f 51bc
000000f0: 6afd 1abd 02a4 763d 8a88 563d 3844 433c
00000100: 601e a83b d42c 3b3d 48d2 b63c 201e 953c
00000110: ac1c 07bd 4cf3 76bd e44c 2e3d aa5b 143d
00000120: 6082 36bd 70dd 33bd 6e22 6a3d 120f 413d
00000130: 7a03 51bd 8808 b3bc 7abb 7f3d 386f 45bc
00000140: ba2f 0a3d d809 2bbd 1871 9abc a8e6 633d
00000150: d060 81bb ae0c 103d a8ec b13c a0d6 e7bb
00000160: c0b7 563c 001d abbb c8ca 6ebd cebb 7e3d
00000170: ca45 2a3d a846 a63c 9211 5e3d 90bf f1bb
00000180: 600f 613c 82f2 443d 608b 603d b00a 6e3c
00000190: 9416 10bd 68e9 0e3c 4268 46bd 2465 b03c
000001a0: 78e7 8abc 5276 4abd 60a7 693d b2db 043d
000001b0: e0b2 45bb a070 d4bb 40a7 57bd 4c27 d8bc
000001c0: c681 5bbd 1838 79bd f836 2ebd e063 78bc
000001d0: 680d 47bd 5c88 103d 9aa6 3d3d 141d 64bd
000001e0: ba44 653d 0069 763d b88f 17bd baff 1fbd
000001f0: d456 9e3c cccc 1bbd 78ad 5e3c f6e2 693d
00000200: 4023 1f3d 52c2 7abd 18d0 93bc 3c65 f73c
00000210: 8eb3 31bd 00e7 c03c 9ca3 6f3d ce3b 413d
00000220: 9ce6 bcbc 1875 493c a81c 35bd cc50 763d
00000230: 005a 69b9 fc99 643d 1cee 78bd 08fa 763c
00000240: bc29 233d 4a0e 233d ccb4 cc3c 10ab 113d
00000250: 221d 433d c8b3 d5bc 20f0 2f3c 28fc 193d
00000260: 1420 d63c 9a77 39bd 384b 75bc 84de 13bd
00000270: 42d8 15bd b2d0 4cbd 0079 05bb aee7 773d
00000280: eedb 2c3d f0dc 48bd d093 09bd 60ed fc3b
00000290: 008c 033c e022 7f3d 4cc1 463d 10ed 1d3c
000002a0: 186e fe3c 0879 98bc 3881 6d3c 7095 743d
000002b0: c0c7 203d 8010 893b 245f babc 8091 4c3b
000002c0: 6089 983c cab9 543d 94d0 febc 78b6 04bc
000002d0: 24a6 f83c 10e9 c7bb 96a7 603d c4c7 6fbd
000002e0: 4858 6dbc 40a4 a1bb 101e 0f3d 2047 d93b
000002f0: 1c81 073d 6c5f 943c 88df 58bd b8d0 173c
00000300: b0c5 17bc 22b8 29bd e099 223b 703f ec3b
00000310: 7816 45bc 821b 253d 0e2c 0b3d b895 9f3c
00000320: 90aa ee3b 1c51 373d 90bf 56bd e0f3 ffbc
00000330: 40b8 01bd 68e6 273c 30b0 033d b8f5 03bc
00000340: ae1d 16bd 50af b03c 5a17 58bd 3456 993c
00000350: b8bd 1dbd d6bb 773d 3493 16bd 1001 303d
00000360: 16a5 5e3d 9073 613d ecd6 c13c aa54 4b3d
00000370: 6add 533d 9a28 3fbd d6ae 5b3d de37 06bd
00000380: 8690 24bd a8cd 2d3d 2878 233c bc83 ed3c
00000390: 8657 55bd 287d 5ebd 3e51 783d 289a c93c
000003a0: 88a7 7d3d 788b 3dbd 3c20 b03c 6a4b 043d
000003b0: ca76 233d 6086 093b 9050 373d 98e1 1a3c
000003c0: ac8c 45bd 48d3 723c 10a0 883c 7a5f 68bd
000003d0: 7609 203d 8439 b53c 8463 67bd c8d7 3e3d
000003e0: 8245 52bd 3c88 b43c 5a3a 0dbd 0021 b039
000003f0: a8d4 14bd 9281 2c3d 8039 ffbb 442e 6cbd
0.049269833 -0.024943076 -0.021895759 0.045719378 0.003985733 0.015257947 0.006155677 -0.021719135
0.04575026 0.03620754 -0.048586637 -0.035609536 -0.027808405 0.056003824 0.0141252205 -0.03650014
0.017921254 0.031600185 0.031640716 0.009308733 -0.033325247 0.037168622 -0.053259514 0.005804606
-0.010550924 -0.0018501207 -0.0047382414 0.03129708 0.03620419 -0.027526237 0.052884653 0.002856031
-0.01956731 0.06203328 -0.061351024 -0.059483163 -0.032929793 0.051710896 0.054510877 -0.019811146
0.048506267 0.052286267 -0.027010992 0.018504187 -0.038186125 0.027464718 0.05138412 -0.011510782
-0.010020599 0.03237228 0.041890234 0.038664103 -0.028219417 -0.033465587 -0.054081284 0.060748838
0.017645635 0.06182511 -0.014542833 -0.01277528 -0.03783933 0.060215004 0.052376308 0.01191812
0.005130574 0.04569705 0.022317067 0.018202841 -0.032986328 -0.06029062 0.042553797 0.03622023
-0.04455793 -0.04391235 0.05716174 0.047133513 -0.051028706 -0.021854654 0.06243465 -0.012050442
0.03373692 -0.041757435 -0.018852755 0.055639893 -0.0039483085 0.035168342 0.021719292 -0.007075146
0.013105333 -0.005221963 -0.058298856 0.062190823 0.041570462 0.020297363 0.054215975 -0.0073775724
0.013736576 0.048082836 0.05482042 0.014528915 -0.035177782 0.008722641 -0.04843927 0.021532603
-0.016956076 -0.049429245 0.057044387 0.03243608 -0.0030166432 -0.0064831525 -0.052649736 -0.026385926
-0.05359056 -0.06084451 -0.04253289 -0.015160531 -0.04859677 0.035286292 0.04630146 -0.055691794
0.055973746 0.06015873 -0.037002295 -0.03906224 0.019328512 -0.038037106 0.013591163 0.057101212
0.038851976 -0.061220475 -0.018043563 0.03019964 -0.043384127 0.02354765 0.05850564 0.047176175
-0.023059182 0.012295984 -0.04421678 0.060135648 -0.00022254139 0.055810913 -0.060773954 0.0150742605
0.039834723 0.03980855 0.024988554 0.03556353 0.047635205 -0.026086703 0.010738403 0.03759399
0.026138343 -0.045280077 -0.014971547 -0.03610088 -0.036583193 -0.050003715 -0.002036631 0.06052368
0.04220193 -0.049038827 -0.03358823 0.007718727 0.008028984 0.06228912 0.048524186 0.00963904
0.031058356 -0.0186124 0.01449614 0.059712827 0.039252996 0.004182875 -0.022750445 0.0031214654
0.018620193 0.051934995 -0.031105317 -0.008100145 0.03035266 -0.0061007813 0.054847322 -0.05854012
-0.01448638 -0.00493291 0.03494078 0.006630793 0.033082113 0.018111907 -0.05294755 0.009266071
-0.009263441 -0.04143537 0.0024810955 0.007209711 -0.012029283 0.040309437 0.03397756 0.019480571
0.007283516 0.044755086 -0.052428782 -0.031244218 -0.031669855 0.010247804 0.032150447 -0.008054189
-0.0366494 0.02156797 -0.052756645 0.018717863 -0.038511008 0.06048187 -0.036761478 0.042969763
0.054356657 0.05504185 0.023662053 0.04964129 0.05172483 -0.04666958 0.053633533 -0.032768123
-0.04017689 0.042432457 0.009977378 0.02899348 -0.052085422 -0.054318577 0.060624354 0.02460964
0.06192735 -0.046275586 0.021499746 0.032298483 0.039908208 0.0020984635 0.044754565 0.0094532
-0.04822986 0.014820881 0.016677886 -0.05673168 0.039071523 0.022122152 -0.05649139 0.046592504
-0.05133582 0.022037618 -0.034479477 0.00033593923 -0.036335617 0.042115755 -0.007788837 -0.05766131

sequential.31.bias f4 [256]
00000000: f821 803c c04a 933c 203f 863b 5001 563d
00000010: 54cd e23c b091 bbbb c473 8bbc 70c6 edbc
00000020: 0cf8 cfbc 10c6 e23b b84f dcbc 2004 673b
00000030: 1c74 70bd 50b7 ac3c 34dd c13c 2e76 49bd
00000040: 6c2b 7c3d ec12 50bd 9a5d 053d 0043 4abb
00000050: 6038 213c 70b2 ebbb a648 6a3d 64a0 933c
00000060: a821 debc 8466 5f3d 2898 273c c220 573d
00000070: ca69 04bd 04f5 fc3c 12da 7ebd 00ce 3839
00000080: a8a1 f23c e88c 8b3c a029 46bc 081e 5dbc
00000090: b811 1a3d 8e99 2b3d f0ba 433c 0050 b9b7
000000a0: 0029 72bc 848e 71bd 8aaf 7abd 60f2 503d
000000b0: 94c7 df3c 0895 c43c 0088 49b9 0022 ac39
000000c0: 1c13 78bd fced c7bc 2053 543c c852 8ebc
000000d0: 4099 30bc b86f 5b3d e489 c63c ba79 00bd
000000e0: d0fb 293c 382e 2c3c 8008 30ba 2cd1 34bd
000000f0: 2219 70bd aca9 be3c a88a 72bc 3005 f23c
00000100: 3add 53bd 0004 1e3d b0b4 00bc 3072 aa3b
00000110: fe3c 19bd 5cc2 5fbd 9c14 97bc c452 b23c
00000120: 62ee 753d 5a90 26bd 0cd8 2dbd c81f 1f3d
00000130: 5cba 8bbc 18d8 27bc 8890 71bc 60b3 1b3c
00000140: f008 db3c d0e5 a53b 9055 30bd e099 1d3b
00000150: e8ce cf3c f03a 6a3d 5817 2b3d 3aac 7ebd
00000160: 5034 bd3c c2f3 37bd 8079 e4ba 96d6 5f3d
00000170: 885f 073d 3492 683d 584b 76bc 8089 cfbb
00000180: 8edf 5c3d 2c2c 223d 4a79 09bd ae7e 1ebd
00000190: e01e 1fbc d411 24bd 8016 3b3d 4663 283d
000001a0: 6890 36bd a22d 053d ac4e a2bc 4ca3 07bd
000001b0: a0a3 04bc 00ff 193a 38b5 783d 20b5 43bb
000001c0: 2eb7 603d f05e e0bc 3687 723d d2c2 12bd
000001d0: ec7a 50bd be30 27bd 96d0 103d 2042 47bb
000001e0: 0062 53bd 7809 0d3c 00ea f73b 2c83 a33c
000001f0: 5c70 6cbd e0a4 f7bc 3863 a8bc a466 823c
00000200: 0efd 503d 18c5 a33c 343a 9ebc 1823 1d3d
00000210: 303d b63b b24d 653d ec28 15bd 8c66 4abd
00000220: 78fd 9abc 00e5 253a 6c2c 1c3d a0ec fdbc
00000230: f4c7 e33c a00a 96bb 2664 333d d097 d63c
00000240: 78cb d93c 14a7 2e3d 34a4 d33c 2083 8fbb
00000250: 0e87 71bd 9ee5 013d e8f9 1abc 1a5a 62bd
00000260: b8ea 533d ac3d 7d3d 3c4a 4a3d a2fa 1d3d
00000270: b0ba 393c 4836 143d fe50 023d a0b3 87bb
00000280: 8807 c6bc f4c3 fc3c 2c7d 583d 48ae 283d
00000290: 2e7e 00bd 4e7a 463d a838 4fbc 8e9b 6ebd
000002a0: da8a 0fbd 30be 33bc 7456 61bd e833 933c
000002b0: 9cde 7bbd 886f bdbc d47f 38bd 9c65 653d
000002c0: 1cc1 d13c c8cd a93c 2823 183c e0ba 5f3c
000002d0: 3847 093c 98a4 b7bc 1820 543c 4071 e63c
000002e0: e029 b73c 601c 5fbc fc0f a1bc 60b8 6cbc
000002f0: 24cc 4bbd 5022 0bbd 8038 6abd 827f 2ebd
00000300: 0054 eabb a0d2 2cbb f076 00bd 0c31 243d
00000310: f881 b53c b417 db3c d21f 3a3d c071 b2ba
00000320: 3c22 753d b66a 503d e0b1 c3bc 9c65 d7bc
00000330: be9d 2ebd 2abb 50bd 34da 69bd b0b2 9e3b
00000340: d02b 463c 4c84 66bd 18fe 483d 80b6 0c3a
00000350: 6844 3dbc 0098 6d38 f0a5 1dbc f071 26bc
00000360: 5063 303c 280a 77bc 90e5 03bd 58f2 7d3c
00000370: d428 9c3c c655 453d 0e43 353d 50af 22bc
00000380: 80f0 0eba 1833 3f3d 9af7 413d 88b8 aa3c
00000390: 30a8 913c 6ee3 5a3d 9af6 03bd b854 473c
000003a0: 5c32 50bd 28ec 1bbd 4064 3cbc a03f 633b
000003b0: 9a45 0e3d 2cc7 18bd f0e7 583c 7485 88bc
000003c0: 5096 e13c 28dd 1ebd 708f 1f3d d273 2fbd
000003d0: a433 723d 6886 e2bc 08bb 7dbd 4c75 93bc
000003e0: 284e 683c ce45 6b3d 5e0b 313d 2e51 53bd
000003f0: 0267 6d3d 7e26 493d 783b 02bc 92e8 0fbd
0.015641198 0.01797998 0.0040968806 0.052247345 0.027685799 -0.0057241544 -0.017022975 -0.029025286
-0.025386833 0.0069205835 -0.026893482 0.0035250261 -0.05870448 0.021083504 0.023665048 -0.04918497
0.061564848 -0.050799295 0.03255997 -0.003086269 0.009840101 -0.0071929023 0.05719819 0.018020816
-0.027115658 0.054541126 0.010229148 0.052521475 -0.03232745 0.030878551 -0.062219687 0.00017624348
0.0296181 0.017034963 -0.012094885 -0.01349593 0.037614554 0.041894488 0.011946425 -2.2090971e-05
-0.014780283 -0.058973804 -0.061202563 0.051012397 0.027316846 0.023996845 -0.00019219518 0.00032831728
-0.0605651 -0.024405472 0.012959272 -0.017373458 -0.010778725 0.05357334 0.024235673 -0.031366087
0.010374978 0.010509066 -0.0006715134 -0.044144794 -0.05861772 0.023274265 -0.014803566 0.02954349
-0.05172465 0.038578033 -0.007855579 0.0052016005 -0.037411682 -0.054628715 -0.018442445 0.021767981
0.060041793 -0.040665008 -0.042442366 0.03884867 -0.017056637 -0.010244392 -0.014743932 0.009503216
0.02673766 0.005062796 -0.04305035 0.0024048015 0.025367215 0.057185113 0.04177031 -0.062175967
0.023096234 -0.0449102 -0.0017431229 0.054648004 0.03305009 0.056780055 -0.015032612 -0.00633353
0.053924136 0.039592907 -0.033562936 -0.03869503 -0.009711951 -0.040056065 0.045675755 0.0411103
-0.04457131 0.032514222 -0.019812904 -0.033114716 -0.008095652 0.0005874485 0.0607197 -0.0029862598
0.054862194 -0.02738902 0.05921098 -0.035830326 -0.050898477 -0.04081797 0.035355173 -0.0030404404
-0.051607132 0.008608215 0.007565737 0.019960009 -0.05772434 -0.030229986 -0.020555124 0.015918083
0.05102258 0.019991443 -0.019314863 0.038363546 0.0055614933 0.0559823 -0.03641598 -0.049414203
-0.018919691 0.0006328374 0.0381283 -0.03099662 0.027805306 -0.0045789033 0.04379668 0.026195437
0.02658628 0.042639807 0.025835134 -0.004379645 -0.05896669 0.03171312 -0.009458996 -0.05526171
0.051737517 0.061826393 0.0493872 0.0385691 0.011336014 0.03618458 0.03181552 -0.004141286
-0.024173513 0.030855156 0.05285375 0.041181833 -0.031370334 0.048456483 -0.012647785 -0.058253817
-0.03504453 -0.010970637 -0.05501409 0.017969087 -0.061491594 -0.023124471 -0.04504378 0.056005105
0.025604777 0.020728007 0.009285726 0.013655394 0.008378796 -0.022417352 0.012947105 0.028130174
0.022358835 -0.013617605 -0.019660942 -0.014448255 -0.04975523 -0.03396827 -0.05718279 -0.04260207
-0.007151127 -0.002637066 -0.031363428 0.040085837 0.0221567 0.026744701 0.045440502 -0.0013614222
0.0598471 0.050883017 -0.023888528 -0.026293568 -0.042630903 -0.050959744 -0.05709286 0.0048430786
0.012095407 -0.056278512 0.049070448 0.0005367771 -0.011551954 5.6646764e-05 -0.009622082 -0.010159001
0.010765865 -0.015078105 -0.03220135 0.015499674 0.019062437 0.048177503 0.0442534 -0.009929493
-0.00054527074 0.046679586 0.047355272 0.020839944 0.017780393 0.05343955 -0.0322176 0.012166195
-0.050829276 -0.038067013 -0.011498511 0.0034675375 0.034734346 -0.03729932 0.013238892 -0.016665198
0.027537495 -0.03878513 0.038955152 -0.042835064 0.05913128 -0.02765198 -0.061945945 -0.018000267
0.01417879 0.057439618 0.04322373 -0.05159109 0.057959564 0.049108975 -0.007948749 -0.035133906

sequential.33.weight f4 [32, 256]
00000000: 765f 313d f0f3 a63c 848d 4e3d 60f0 37bd
00000010: 46bd 723d b844 283d 8091 66bd d09f 3c3c
00000020: ca83 613d e6d3 19bd 7cab bcbc ce54 4abd
00000030: 0a30 123d cc0c e43c b088 49bd 9c60 203d
00000040: 0cf8 9f3c 584a 0bbd a8f9 413d 78a4 20bc
00000050: d07c d13c 0063 e9bc b0ae 10bd c82f 493c
00000060: 0459 23bd e45b 89bc ba08 593d aeac 60bd
00000070: 7834 6f3d 8076 2f3b a825 6ebc d805 cf3c
00000080: 8c3d fb3c 8ab7 453d 6043 a5bb 10a6 a4bc
00000090: 80c4 9e3c 2ed8 2b3d b807 693c eed6 623d
000000a0: 5c80 e83c 38b1 403c c83b 3d3d b8da 483d
000000b0: 8637 55bd 5816 1cbd d235 64bd 68fd 38bc
000000c0: 00f3 f0bb a62e 59bd f4f7 7abd 4a04 6b3d
000000d0: 160d 69bd f480 d6bc bac9 0f3d 88bc 863c
000000e0: cea0 123d f0f9 e6bc fc96 623d 56a9 67bd
000000f0: a059 543d 5cee 243d 6a2f 0cbd 6293 0fbd
00000100: d6a4 6dbd ecdd a83c 6030 9fbb 305b f4bb
00000110: 5042 a9bc 00c9 9cbc d03d ebbb be7f 653d
00000120: 5ca7 1abd b0b2 5ebd 489e 70bc e02c f7bb
00000130: 1075 95bc 803f e2bb bc3a f2bc e018 973c
00000140: 60e3 c2bc 2c28 143d d6f2 16bd d88c 51bd
00000150: c0e2 443c 3034 7ebc 20a0 f43b a890 cebc
00000160: 24e6 ca3c 383f 63bd 201e 6d3c 2861 10bd
00000170: 94b4 4d3d f8b8 20bd 6ac7 513d 4068 5f3b
00000180: 1af1 1ebd a8ff 1ebd 0220 14bd 409c 78bb
00000190: cc25 6dbd 0835 903c 5818 b3bc e076 7e3d
000001a0: d84d 203c 9cf9 263d 508d 27bd fa4e 213d
000001b0: 226c 29bd 9a8c 5ebd accb e5bc b040 3abd
000001c0: 1616 553d 08f4 263c 78f8 50bd 3a66 5d3d
000001d0: 3078 53bc a48a 623d 00be 1c39 5893 643d
000001e0: 1c70 fcbc 647a 463d 10cf 37bc 20c0 fbbb
000001f0: 60df 6dbb 00f4 7439 66b0 103d da22 2b3d
00000200: 94ed 2abd 606a 0f3b a006 36bc 301b 37bd
00000210: e4b0 bebc 8860 e1bc 00d9 35ba 38a9 1c3c
00000220: 743c 5a3d 6625 69bd c0c6 2ebc 6435 32bd
00000230: 2cb2 f7bc c42b 6abd a846 8ebc 200e b7bb
00000240: 1c1a ecbc 74aa ffbc 14e8 753d 48b7 79bd
00000250: 80b8 613b 8c8b 1b3d c4b9 1ebd f2dc 6bbd
00000260: 487d e43c 383f 483d a44a 36bd b080 6bbd
00000270: d2e0 35bd a8a6 eebc c285 44bd 884d 0fbd
00000280: 5acb 71bd ec57 69bd b05e 333d e011 91bb
00000290: 6a77 62bd 9cd8 4b3d b84d 8fbc 94df 93bc
000002a0: b063 3abc 4acc 3abd 0075 35bc e8c2 c1bc
000002b0: c052 e53a 90a1 4ebd 4a5f 19bd 3a39 1e3d
000002c0: d8e2 aebc 6019 0dbc 40c8 ccbc 40af 20bc
000002d0: 4ad8 06bd 8056 12bd 94df 553d 88f1 383d
000002e0: 1024 4e3c 2c17 803c 88b5 d4bc 52e2 233d
000002f0: 10ea 2ebc 8e23 423d dae4 563d 327a 7abd
00000300: d264 29bd f085 5c3c 98e4 103d 6a14 343d
00000310: 4c5f 00bd 609d 103d 9078 d9bb a632 203d
00000320: 746f 013d 0e14 0bbd 2cc3 043d 984d a8bc
00000330: f07d 38bc b638 43bd dc72 09bd 1cd1 233d
00000340: c268 3cbd 88a0 53bc 4cd0 dc3c 6497 9c3c
00000350: f0a3 d33c a815 a93c 7434 14bd 7ca1 6f3d
00000360: 406f 3ebd 52eb 76bd 14f2 23bd 28c2 a6bc
00000370: 24c9 21bd 8e84 593d fc47 ba3c 3220 5d3d
00000380: 2c87 423d fc49 61bd 505d 39bc 181d 4bbc
00000390: 58cb 2bbc 1485 bcbc eec4 4abd 887f ff3c
000003a0: e05e b93b 6e56 25bd 4c6a 25bd 98c8 81bc
000003b0: 00a2 b4ba b474 a63c 9c09 dd3c 742e f63c
000003c0: 888d 3cbd 882c 093c c63c 43bd f8f4 6cbc
000003d0: 805b 7a3c 5cb5 b3bc 5208 08bd 1c48 f63c
000003e0: 68d9 05bc 34a2 30bd c093 c03a 0800 793c
000003f0: ccb4 1bbd 3061 b6bb 9825 fbbc 48c0 43bd
0.04330393 0.02037999 0.05042793 -0.044906974 0.059262536 0.04108116 -0.056291103 0.011512712
0.055057324 -0.037555598 -0.023030989 -0.049397282 0.035690345 0.027838133 -0.04920262 0.039154634
0.019527458 -0.034006447 0.04735723 -0.009804837 0.02557221 -0.02848959 -0.035322845 0.012279458
-0.039879814 -0.01676745 0.052986838 -0.05485218 0.058399647 0.0026773512 -0.014535345 0.025271341
0.030668996 0.04827074 -0.005043432 -0.020098716 0.019380808 0.041954212 0.014223032 0.055380754
0.028381519 0.011761002 0.04619959 0.04903671 -0.052054904 -0.038107246 -0.05571539 -0.0112908855
-0.0073531866 -0.053023003 -0.061271623 0.057377137 -0.056897245 -0.026184537 0.03510449 0.01644732
0.035797887 -0.028195351 0.05531977 -0.056557976 0.051843286 0.04026638 -0.034224905 -0.035052665
-0.058018528 0.020613633 -0.0048580617 -0.0074571595 -0.020661503 -0.019138813 -0.0071789995 0.056030028
-0.037757263 -0.05436963 -0.014686175 -0.0075431913 -0.018244296 -0.0069045424 -0.029569022 0.018444479
-0.023790061 0.036171123 -0.03685268 -0.05115971 0.012016952 -0.015515372 0.0074653774 -0.025215462
0.024767943 -0.055480212 0.014472514 -0.035248905 0.05022104 -0.0392389 0.051215567 0.0034089237
-0.03880415 -0.03881803 -0.036163338 -0.003793493 -0.057897374 0.017603412 -0.021862194 0.062125087
0.009784184 0.04076539 -0.04090625 0.03938196 -0.04136289 -0.054333307 -0.02805122 -0.045471847
0.052023016 0.0101900175 -0.05101821 0.05405257 -0.012907073 0.055308 0.000149481 0.05580458
-0.030815177 0.048456565 -0.011218801 -0.007682815 -0.0036296472 0.0002336055 0.035324477 0.041781284
-0.04173048 0.0021883473 -0.011109978 -0.044703662 -0.023277707 -0.02751185 -0.00069369376 0.009561829
0.05328031 -0.05692043 -0.010667503 -0.04350795 -0.030236326 -0.057170644 -0.017367676 -0.0055864006
-0.028821044 -0.031209208 0.06003578 -0.060965806 0.0034442246 0.03797488 -0.03875138 -0.057583757
0.02789177 0.048888415 -0.044504777 -0.057495773 -0.04440386 -0.029132202 -0.047979124 -0.03498605
-0.05903182 -0.056968614 0.043791473 -0.0044271797 -0.055289663 0.04976712 -0.017493114 -0.018050946
-0.011376306 -0.04560498 -0.011075258 -0.023652509 0.0017495975 -0.050447047 -0.03744439 0.038628794
-0.021348402 -0.008612007 -0.02499783 -0.009807408 -0.032921113 -0.035727024 0.052215174 0.045152217
0.01258184 0.01563605 -0.025965467 0.040010758 -0.010675922 0.04739719 0.052464344 -0.06115169
-0.041355915 0.013459668 0.035374254 0.04396478 -0.031340882 0.035306334 -0.0066366866 0.039110802
0.03160043 -0.033954673 0.032412693 -0.020544812 -0.011260495 -0.047661506 -0.033556804 0.039994344
-0.045998342 -0.012916692 0.026954792 0.019115157 0.025835007 0.02064021 -0.036182836 0.058503613
-0.046492815 -0.060283013 -0.040025786 -0.020356253 -0.039498463 0.05310493 0.022739403 0.053985782
0.04749219 -0.055002198 -0.011313751 -0.012397073 -0.010485493 -0.023012675 -0.049504213 0.031188741
0.005657062 -0.04036563 -0.040384576 -0.01584272 -0.001378119 0.02031932 0.026982121 0.030051447
-0.046033412 0.0083724335 -0.04766538 -0.014462702 0.015280604 -0.021937065 -0.03321106 0.030063681
-0.0081695095 -0.04312344 0.001469247 0.015197761 -0.03801422 -0.005565785 -0.030657575 -0.047790796

sequential.33.bias f4 [32]
00000000: 80d6 35bb 988a 62bc ec38 753d 0aeb 77bd
00000010: 8059 3e3d e676 1dbd 201c b93b b645 423d
00000020: fc2b 5a3d 3046 1f3d 6030 6ebd c44b d6bc
00000030: 8203 66bd b097 46bd 5e71 7a3d e010 c83c
00000040: 167a 7fbd caf1 453d 84bf b0bc 3650 363d
00000050: a023 51bd 00ec 58ba 44ab e9bc 6a30 183d
00000060: 146d 33bd a04d 6e3d 6025 6bbd e0e3 32bb
00000070: a017 623b 70e4 c7bc 78c3 473d c0b8 593c
-0.002774626 -0.013826989 0.059868738 -0.060526885 0.046472073 -0.03844347 0.0056491047 0.047429763
0.053264603 0.038885295 -0.058151603 -0.026159175 -0.05615569 -0.048484504 0.06114327 0.02442211
-0.06237229 0.04832629 -0.021575697 0.04451009 -0.051059365 -0.0008274913 -0.028524049 0.037155546
-0.043805197 0.058179498 -0.05740869 -0.0027296469 0.0034498945 -0.02440092 0.048770398 0.013288677

onnx::Conv_96 f4 [64, 3, 3, 3]
00000000: 28ae b13d d071 d6bd 0353 d7bd 39ac 4bbd
00000010: c684 1dbe 056e 263d e232 793d 4855 43bd
00000020: 1cf7 723d ed94 20be bb4e 773d b768 23be
00000030: c133 91bd 3a52 54bd 400b fb3d 19bd d93c
00000040: 1340 20be 8a8f ec3c feb2 08be ad00 7d3b
00000050: a9fd f1bc bffc 21bd 4f17 14be 1e44 e73d
00000060: 42f3 bd3a 6068 b4bd 8fca 43be a97b 2b3e
00000070: 045b 07be b6b0 6e3d 9c75 d0bb 1d42 843c
00000080: b05b 12be 7d2e 2b3e af8b 8e3d 2b50 e1bd
00000090: 9828 0bbe 696b 1b3d 1d39 323e 0d46 cdbd
000000a0: eeff 30bd ee1b 38be bffe 44bc ca65 23bc
000000b0: adfc de3d 160e 923d d3ff 09bb f108 c63d
000000c0: c903 2a3e 5dd5 df3d 8e69 223e 584a 0cbe
000000d0: fc5a 123d 4598 33bd 3369 5d3d bccc 393e
000000e0: b86f c5bd d044 8d3d de02 333e 3805 4fbd
000000f0: 4278 85bd 0167 7ebd 0585 443e fd34 4c3b
00000100: e110 a8bd 22b9 dabd 7073 1a3e 1218 a4bd
00000110: 0e4c 32be 88c5 bd3d b29b c13d 746f 153e
00000120: 8108 f83d c94f 053e aeed 20be da8d b73d
00000130: afd6 253e 523e 3f3e 33f2 1bbe 890e 2fbe
00000140: 0fbc eabd 194f f1bc d058 07be cd0b 34be
00000150: 796d 1f3e 0489 d53d 602b 43bc 986d dabb
00000160: dfc6 dfbc a8d1 4dbd e625 b0bd 43a6 b93a
00000170: 26f3 b73d c15a 103d 0169 583d 5c08 5bbd
00000180: 6f61 40be baac 853d d81e 133d f1ec c2bd
00000190: 39c8 0ebd 5679 ce3d 5270 383e a218 873d
000001a0: b347 443e 85d1 90bd 7322 363e eca2 9fbc
000001b0: 7e81 093e 447c 9d3c 24ba f2bd de95 4abc
000001c0: 7030 4e3d c5b0 cdbc 3f50 36be 4d74 7e3c
000001d0: bc3f cf37 b3cc f13d bffa 423e 7eb2 ce3d
000001e0: 7bbc 8d3d 8178 233e 875e 5ebc 8a09 24bc
000001f0: 0a60 debd 7b09 c0bd 0fa0 f5bb f74f fc3d
00000200: 0972 20be 26fa 403e 74a3 073e 8569 b9bd
00000210: 5cd1 ee3d 6e87 343e 6cc9 5cbd 9195 b83d
00000220: 7793 823d e92e 253e 6067 a53d 4ee9 f4bd
00000230: 0d8b 34be 2b3b 39bd 9e66 233d e9af cbbd
00000240: ff5d 473d 785a b2bd 3665 14be 341c 75bd
00000250: 474d d3bd 7e25 0a3e 8227 12be 4992 36be
00000260: ea64 12be f973 1b3d 23f6 393c 61ca a13d
00000270: b115 703c fcb3 35bd bf98 16bc 01d0 33be
00000280: 6f11 c7bd 8c28 433d 8335 2abe e89f f43c
00000290: 119f 1e3e 315c 3c3e f1b9 9dbd eb2b 43be
000002a0: ab19 20bc 276b c1bd 5ecd f9bc 2d9d 3b3e
000002b0: 2e27 14be 2b8b 8abc 4954 d33d a9aa 253e
000002c0: 1b5d 2cbe 7b99 08be 7fea ca3d 7f19 d73d
000002d0: 3c38 333e 9727 f03d 68f8 963d ca02 b9bd
000002e0: a522 3bbe 2807 2abd b769 df3b bf6b bbbd
000002f0: 0501 39be 506f 933b 8d64 93bd c781 a83d
00000300: 90d2 12be e970 0c3e afc9 f73a 13e2 cc3d
00000310: d6af 79bd b310 193e 3d4b 64bd 0c52 0f3e
00000320: 1adf 163d 66db 843d e64a eebd b8c0 05bd
00000330: 0d51 0cbe 6c0f 2bbd cc21 093e 8d1f 2ebe
00000340: ab6c 073e dc92 8d3d 2a54 603d 5f80 82bd
00000350: ea2a 6dbd 2b5c 9c3d 8947 febd c8e9 283e
00000360: e71f 3a3d 5c5b 813d c731 5d3c c11a c13c
00000370: 8588 64bc f0e1 133e c674 c23d 9dad e1bd
00000380: 56c8 6e3d 95be 1cbe 2082 ee3d c94c 1cbe
00000390: 4468 e9bd fa53 223e 028c 2ebe 292d 20be
000003a0: dd11 023d 4927 39be 1948 ac3d 7f9a 93bd
000003b0: 4fed b33d daf8 f43d 78e9 e23d 86c4 1bbe
000003c0: 9241 43be 5c55 043e 9a15 23bd 662c 05be
000003d0: e5f9 e43c b13b 3e3e cbf0 0ebe 4990 28bc
000003e0: 27fb ffbd ccba 383e d8b7 29be 65d8 0a3e
000003f0: 39ab bfbc 4c7c a53d 52f9 09be edf6 9a3c
0.08675796 -0.10470927 -0.1051388 -0.04972479 -0.1538268 0.040632267 0.06083954 -0.047688752
0.059317693 -0.1568181 0.060377818 -0.15957914 -0.070899494 -0.05183623 0.12258005 0.026579427
-0.15649442 0.028877039 -0.1334953 0.003860514 -0.0295399 -0.039547678 -0.14462017 0.11292289
0.0014492052 -0.088089705 -0.19120239 0.16746391 -0.13218313 0.058273993 -0.0063616764 0.016144807
-0.14292789 0.16716953 0.06960236 -0.11001619 -0.13589704 0.03794423 0.174046 -0.10023127
-0.043212824 -0.17979404 -0.012023627 -0.009972999 0.10888038 0.07131593 -0.0021057024 0.09669674
0.16603006 0.10929368 0.15860578 -0.13700235 0.0357313 -0.043846387 0.054055404 0.18144506
-0.09640449 0.068978906 0.17481562 -0.050542086 -0.06517078 -0.06210995 0.19191368 0.0031159513
-0.082063444 -0.106798425 0.15083098 -0.080124035 -0.17411825 0.09266192 0.09453525 0.14593297
0.12110997 0.13018717 -0.15715668 0.08962603 0.16195177 0.18676117 -0.1522911 -0.17095388
-0.114616506 -0.029456662 -0.13217473 -0.17582627 0.15569104 0.10426524 -0.011912197 -0.0066658966
-0.027316509 -0.050248772 -0.086009786 0.001416393 0.08981924 0.0352428 0.052834515 -0.05347477
-0.18787168 0.065270856 0.035918087 -0.09517849 -0.034858916 0.10081737 0.18011597 0.06596495
0.19167976 -0.07071213 0.17786579 -0.019486867 0.13428304 0.019224294 -0.1185191 -0.012364833
0.050339162 -0.025108704 -0.17804049 0.015530658 2.4706002e-05 0.118066214 0.19040965 0.100926384
0.069207154 0.15963937 -0.013572342 -0.01001204 -0.10858162 -0.09376808 -0.007495887 0.123199396
-0.15668501 0.18845424 0.13245946 -0.090533294 0.11661026 0.17629787 -0.05390303 0.090129025
0.06375783 0.16131176 0.08076358 -0.11958562 -0.17631169 -0.045222443 0.039892785 -0.099456616
0.048673626 -0.08708662 -0.14491734 -0.05984135 -0.10317474 0.13490865 -0.14272884 -0.17829241
-0.14296308 0.037952397 0.0113501875 0.07899929 0.014653609 -0.0443611 -0.009191691 -0.17559816
-0.09720122 0.04764609 -0.16621976 0.029861405 0.15490367 0.18394543 -0.07701481 -0.19059722
-0.009771745 -0.09444266 -0.030493435 0.18321677 -0.14468071 -0.016912064 0.103188105 0.16178383
-0.16832392 -0.13339798 0.09908008 0.1050291 0.1750192 0.11726301 0.073715985 -0.09033735
-0.18274935 -0.04151073 0.006818022 -0.0915141 -0.18066795 0.0044993535 -0.07196913 0.08227878
-0.14338136 0.13714947 0.0018904711 0.10004058 -0.060958706 0.14947776 -0.055735815 0.13996142
0.03683386 0.064871594 -0.116353795 -0.032654494 -0.13702793 -0.041762754 0.13391799 -0.17004223
0.13225047 0.06912777 0.054767765 -0.06372141 -0.057902254 0.07634767 -0.12415988 0.1649543
0.04544058 0.063162535 0.013500637 0.023572328 -0.013948564 0.14441657 0.09494929 -0.11019442
0.058296524 -0.15307076 0.11645913 -0.15263666 -0.1139684 0.15852347 -0.17045596 -0.15642227
0.031755317 -0.18081392 0.08412189 -0.07207202 0.087854974 0.11961527 0.11079687 -0.15211686
-0.19067982 0.12923187 -0.039815523 -0.13005218 0.02795119 0.18577458 -0.13959043 -0.0102883065
-0.124990754 0.18040007 -0.16574037 0.1355911 -0.023397075 0.08080348 -0.13474014 0.018916572

onnx::Conv_97 f4 [64]
00000000: 0f05 44be 2251 3dbe f94c ae3d a63c 203e
00000010: 8a57 a3bb 67cf 9c3d 0c97 2fbe bd3c 84bd
00000020: 3c17 11be 2604 313d a63a 003c 2f25 6c3d
00000030: fc4f 80bd af99 c53c c57a 703d a5ef f4bd
00000040: f18f 593d fcd4 a33d ec86 e6bd 8915 0b3e
00000050: 90eb 093e fef9 013e 09bf 41be 2cf3 743d
00000060: f475 abbd 0709 823d 5933 2bbe f75e 963c
00000070: 2d0a fc3a 008b 3a3e b78d dfb9 f16b bebd
00000080: 19c9 40be 9fe5 a83d a434 0f3e 2e37 2bbe
00000090: bc53 1ebd 88da ed3d b762 243e f5d2 e43b
000000a0: e08b 323e 3d9d debd fe50 19bd d2bb 8cba
000000b0: f562 3e3e a119 363e 0ee4 343e ca94 f43d
000000c0: 8a88 043e c807 0dbe f4d9 9e3c 9d23 0ebe
000000d0: 9bdb 233e 84af 403e 71c0 8abd ef07 093d
000000e0: 6c91 3cbe 15de 933d dfec 933c 5465 743d
000000f0: b1d8 c43d 1e12 1a3e 13b7 513d 18c5 f43c
-0.19142555 -0.18487981 0.08510775 0.15648136 -0.0049848007 0.07656746 -0.17147464 -0.064568974
-0.1416902 0.043216847 0.007826483 0.05765265 -0.06265256 0.024121134 0.058710832 -0.11959771
0.05311579 0.07999608 -0.11256203 0.13582434 0.13468766 0.1269302 -0.1892053 0.05980222
-0.08372107 0.06349378 -0.16718806 0.01835583 0.0019229107 0.18217087 -0.0004263946 -0.09297932
-0.18826713 0.08246922 0.13984925 -0.16720268 -0.038654074 0.11613947 0.16053282 0.006983156
0.1743617 -0.108698346 -0.037430756 -0.0010737127 0.18592437 0.17783214 0.17665121 0.11942442
0.1294271 -0.137725 0.019391038 -0.13880773 0.16001742 0.18816954 -0.067749865 0.03345483
-0.18414849 0.07220093 0.018057285 0.059666947 0.09611643 0.15045974 0.051199984 0.029879138

onnx::Conv_99 f4 [64, 64, 3, 3]
00000000: 1a52 bebb 7227 213d e1fe d0bc 69a2 ad3c
00000010: a3af 243d 57ff 12bd 447f ec3c e70d a83c
00000020: 7a62 283d eb7d c03c f104 24bd 129e 083d
00000030: f83e 5bbb d022 0dbd bdf2 03bd a8f7 92bb
00000040: b63f 083d 8107 903c 1f05 143c 4043 0cbd
00000050: 0bf0 9cbc 4496 bfbc c10f 28bd cda5 a4bc
00000060: 4d90 8cbc 7883 b13c 786c 273d 6d69 ac3c
00000070: 9bb4 443c 4132 0c3d d2e7 9d3c 795e f73c
00000080: 6e81 983a 3178 033c af4c d7bc 38d5 a5bc
00000090: 90d8 0cbd 03a6 123d 9d25 19bd af83 943c
000000a0: 6ddd cabc d507 fdbb 52c2 c6bc 6b94 01bd
000000b0: 1229 21bd 799f 27bb a3fe 183d 4fc2 d93c
000000c0: c3a7 a23c 4a67 1c3d 5b9a 46bc 70a7 b2bc
000000d0: 35e8 27bd 9030 273d 0c1a 1bbd 0b7c 05bd
000000e0: 7369 9b3c f55d cdbc 5831 c2bc f1ff 033c
000000f0: 130b e63c c24f be3b 0a82 24bc adb4 943c
00000100: 8a70 24bc 4c2c e03c 140c c1bc 23cb be3c
00000110: 68a2 aabb b451 213d 3e69 023d 6b8d 513c
00000120: 4554 573c d1d8 8f3c eadc 18bd d12b 123d
00000130: fb10 f3bc f423 383b f984 a2bc c72b 693c
00000140: c738 2d3b 38df dcba 94d6 9d3b 10c8 263d
00000150: b806 0a3d 4401 48bc 7092 1e3c 948d e1bc
00000160: c447 bfbc a874 84bc 1271 c43c 94e7 48bc
00000170: 506f c83c 1e8a c2bc 08db 4f3c d163 063d
00000180: d309 d1bc fba7 15bd ef05 9dbc a390 14bc
00000190: 718c 15bd a689 eabc 34cd 153d 6a3e 183c
000001a0: b75c 10bd 5ba8 203b 8326 a0bc a07c dcbb
000001b0: d937 633c b864 083d 2c65 fb3c 7615 e1bb
000001c0: b9e5 c7bc 9b8d 22bb 5852 f23b 549b 093d
000001d0: 96bc 1c3d fa67 9dbc b491 093d ad15 10bd
000001e0: 9022 813c 24bb bebc bc16 90bc 1607 e13b
000001f0: 694f 643c c89a e3bc 498c 283b 4dbb eb3c
00000200: 114d 123d cb66 c03c fb6c ef3c 24b6 a33c
00000210: 3749 96bb fc4b 113c 8ceb af3c c071 a5bc
00000220: f157 71bc 7d16 073d f0e7 8b3c eda9 4d3b
00000230: 23a8 2c3c a9cc 7cbc 9d1a 7cbc 6158 70bc
00000240: 309b f4b9 5449 e73a d87b c93c 08ce 153d
00000250: 9d0e 1f3d 54a4 f0bc 0deb bcbc bca7 cebc
00000260: 8d80 4b3c eb14 cdbc 719e de3c 406a af3c
00000270: cace a43c 2f33 22bc ae99 783a 7f3f bfbc
00000280: ad3d 18bd a436 753c c84d 9bbc 2966 053d
00000290: 93ba 04bd edad 273c c15c a6bb 4c25 a33c
000002a0: 306a 18bd 2ece f839 614a 703b 2283 d4bb
000002b0: 53fb 093c c3ae 113d fe44 79bb c797 c4bc
000002c0: 53af f3bc 1ee2 0f3d e28e bdba 17de df3b
000002d0: c302 92bc 970e cd3c 416e f73c 4897 d5bc
000002e0: 8ccc d7bc f7d4 043d 866f b63c 95da 593c
000002f0: e553 16bd 14d2 35bc 3aa8 47bc 0b9c 163c
00000300: a79e 003d 777e 3ebc 464b 06bd b3af 0a3d
00000310: d019 123a 51d3 a63b 6610 18bd 89a9 dd3c
00000320: 6e66 e63c dc29 90bc 7b2b a23c d7cf ddba
00000330: 535c 2ebc 2db8 f53c 1853 1cbd 8d4f 94bc
00000340: c5bf d13c bc76 8d3c 1c5a f0bc 893f bb3c
00000350: 45b0 81bc 760e 253c 7735 95bc f28b 0b3c
00000360: 44f1 1c3d 0202 ac3c d629 003a 632e 91bc
00000370: 1a45 a53c 8656 aa3c f086 c4bc d2ad 0cbd
00000380: b432 9e3b 214f 71bc 8b3f 203c 69b1 343c
00000390: 92de 0a3a a4eb 9dbb f6c5 e2bb 4f6e 6a3c
000003a0: d582 033b edc1 e93c 9928 df3c 4bd7 0dbd
000003b0: b56c d6bc f20c da3c 3818 293d 111e 1e3d
000003c0: f5e5 933c 3cc1 13bd b755 943b b5ef ea3c
000003d0: fba8 9bbc 8aa3 8b3c d54e dd3c 9fd2 ca3c
000003e0: 66b6 c83b 18eb bd3c 00ee f4bc 02e8 073d
000003f0: a378 69bc 2bc8 e33c 8751 e43c df62 95bc
-0.005808127 0.03934426 -0.02551216 0.021195607 0.040206563 -0.035888042 0.028869279 0.020514442
0.04110954 0.023497542 -0.040043775 0.033353873 -0.003345428 -0.034457028 -0.032213915 -0.0044850893
0.033263884 0.017581703 0.009034424 -0.034243822 -0.01915743 -0.023387082 -0.04103065 -0.020098591
-0.017158652 0.021669134 0.04087493 0.021046365 0.01200595 0.034227613 0.01927558 0.030196415
0.0011635253 0.008024261 -0.026281683 -0.020243272 -0.034386218 0.035802852 -0.037389386 0.018129198
-0.024763787 -0.007721881 -0.024262581 -0.031635683 -0.03934581 -0.002557723 0.037352215 0.026581911
0.019855386 0.03818444 -0.012121762 -0.021808356 -0.040992934 0.040817797 -0.037866637 -0.032589
0.01897118 -0.025069216 -0.02370517 0.008056627 0.028081452 0.0058078477 -0.010040769 0.01815256
-0.010036597 0.027364872 -0.02356533 0.023290223 -0.0052073486 0.03938456 0.031838648 0.012790064
0.01314265 0.01755944 -0.037320055 0.035686318 -0.029671183 0.0028097602 -0.019838797 0.014231629
0.0026431547 -0.0016851192 0.0048168395 0.04071814 0.033697814 -0.012207333 0.009678468 -0.02753333
-0.02334965 -0.016168907 0.023979697 -0.012262244 0.02446714 -0.0237475 0.012686498 0.032810036
-0.02551738 -0.03653715 -0.019167868 -0.009067687 -0.03651089 -0.028630089 0.03657265 0.009292224
-0.03524467 0.002451441 -0.019549614 -0.0067287236 0.013868296 0.033299178 0.030687891 -0.0068690134
-0.024401532 -0.0024803642 0.00739507 0.033595398 0.038265787 -0.019214619 0.03358622 -0.03517692
0.015763551 -0.023282595 -0.017588966 0.0068673 0.0139349485 -0.027783766 0.0025718382 0.028775835
0.035718028 0.023486516 0.02922677 0.019984312 -0.0045863646 0.008868214 0.021474622 -0.020195842
-0.0147304395 0.03298043 0.01707837 0.0031381801 0.010538134 -0.015429654 -0.0153872045 -0.014669509
-0.0004665493 0.0017645755 0.024595186 0.03657344 0.038832296 -0.029375233 -0.0230613 -0.025226466
0.012420786 -0.025034389 0.02717516 0.021412969 0.020118136 -0.009899898 0.0009483349 -0.023345707
-0.037168194 0.014966641 -0.018957987 0.03256813 -0.032404494 0.010234338 -0.005076975 0.019915245
-0.037210643 0.00047455862 0.0036665427 -0.006485359 0.008421737 0.035567056 -0.0038035507 -0.023998154
-0.029746687 0.03512775 -0.0014462138 0.006831895 -0.017823583 0.025031371 0.03020394 -0.026073113
-0.026342653 0.03242966 0.022269975 0.013296743 -0.0367011 -0.01109745 -0.012186104 0.009192477
0.031401303 -0.011626831 -0.03278663 0.033858966 0.00055733044 0.005091109 -0.037125014 0.02705838
0.028125014 -0.017598085 0.019796124 -0.0016922903 -0.010642129 0.029995048 -0.038165182 -0.018104339
0.025604138 0.017268531 -0.029339842 0.022857444 -0.015831122 0.010074249 -0.01821397 0.008517252
0.038316026 0.020997051 0.00048890465 -0.017722314 0.020174552 0.02079321 -0.023990124 -0.034345455
0.0048278216 -0.014728338 0.009780775 0.011028626 0.0005297448 -0.0048193503 -0.0069205714 0.014308526
0.0020066996 0.028534854 0.027241038 -0.034629147 -0.026174882 0.0266175 0.041282862 0.038602892
0.018053988 -0.036072955 0.0045268196 0.028678754 -0.019001475 0.017045755 0.02701513 0.024758635
0.006125259 0.02318339 -0.029898643 0.033180244 -0.014249953 0.027805408 0.027870907 -0.018235622

onnx::Conv_100 f4 [64]
00000000: 669a 21bd a0fc a53c dc12 5b3c 4160 a83c
00000010: 029a f33c d2b9 6d3c 3bb3 a9bc 5dd7 caba
00000020: ecae 7ebb fbc7 f13c db36 d93c 96cc f93b
00000030: 02cd 06bd 47bf 2dbc 13c3 123d f14a 08bd
00000040: cba4 02bd 2843 b5bc d313 d23b 6ded 403c
00000050: 1363 08bc 2c16 a43c 227b 1c3d b216 9f3c
00000060: c7a0 2d3a 1f08 513c f2c6 62bc d811 24bd
00000070: 05da cbbc 505b e13c 69c7 bf3b 7e6e b63c
00000080: ecbf 8c3c ed65 19bd 18a8 fa3c eb4c 8abb
00000090: 7d0e 963c 5ebf c93b d015 fa3c 4d8f 4c3b
000000a0: c0bb 8abc 5301 6b3c c351 14bc 7de2 9c3c
000000b0: f187 3f3c 3dfb 1a3b 0550 333b ffcb 383c
000000c0: e82f 663c 0144 97bc 2dea 3fbc 6e1c e83c
000000d0: 35e7 14bd c2fe 8c3c 5031 093d ce7c f3bc
000000e0: cd99 b4bb dabd c23c 91d0 1d3d b0e5 1fbc
000000f0: 1cdb 4f3c 0b98 253d fc41 ed3c 0158 e1bc
-0.039453886 0.020262063 0.013371196 0.02055371 0.029736523 0.014509635 -0.020715347 -0.001547556
-0.0038861586 0.029514303 0.026515415 0.0076232655 -0.032910354 -0.010604686 0.03583057 -0.033274595
-0.03189544 -0.02212675 0.0064110546 0.011775357 -0.008324402 0.020030104 0.038203366 0.019420002
0.0006623384 0.012758284 -0.013841378 -0.04005608 -0.024884233 0.027509362 0.005852629 0.022269484
0.01718136 -0.03745072 0.030597731 -0.004220595 0.018317455 0.006156846 0.03052798 0.0031213344
-0.01693523 0.014343577 -0.009052697 0.019150967 0.011690126 0.0023648285 0.0027360928 0.011279105
0.014049508 -0.018465044 -0.011713547 0.028333869 -0.03635331 0.017211322 0.033494294 -0.029722597
-0.0055114985 0.023772169 0.038528983 -0.009759352 0.012686517 0.040428203 0.028962128 -0.027507784

onnx::Conv_102 f4 [16, 64, 1, 1]
00000000: 03f2 6b3d 30a6 99bd 44b8 7f3d 8ec1 aa3d
00000010: 3279 f23d 4a88 18bd 6c55 8dbd 3b5e 533b
00000020: a4bd 063d 1795 81bd 014a eb3d c9d6 e4bd
00000030: 40e3 c7bd 5e30 dabd 823a 173d a6e9 b13b
00000040: 7dda d73d 2db1 26bd 7fc8 f7bc c25a 6c3c
00000050: bea7 173c ef69 d23d 96d1 3c3d 9a59 98bd
00000060: ac69 e73d 8958 f7bd a1e5 81bd b02d b1bd
00000070: 61dd dfbd 6605 01bc 434a a13c d4d2 edbd
00000080: 10ad f4bb b5d5 a23d 5ddf fbbc d9d2 9bbd
00000090: b238 ee3d 091b ae3d 1519 89bd 7ad3 d4bc
000000a0: ab1b 893c bf6c 53bd 9e93 e63d a38a 9a3d
000000b0: 4ff0 9b3d b88a 9fbd 6ea5 ca3c ebdd d2bc
000000c0: 91a5 a13d 9d71 cc3c bf17 ad3c 7107 afbd
000000d0: 1c45 11bd a54d 96bd ef45 f6bb 1451 11bd
000000e0: b165 8f3b 5e4b c9bd 1f55 a8bd 50d1 973d
000000f0: 8b1a 213c 79c4 fdbd 3dcc 8e3d 9280 d63d
00000100: fcc2 1e3c 6daa 4dbc 4912 273c d541 d83d
00000110: 7b8e b8bc a9d1 3ebd e6fe 903d b108 40bc
00000120: 6d20 653d 0c87 9d3d 8e18 483d 8ef9 bd3d
00000130: f26d a33c 2acc 233d 736b 6bbc 4f40 45bd
00000140: 2cab cebc 8c4b 9fbd 255d ac3d 41ed 26bd
00000150: defc e8bd a5d9 d9bd 8888 123d 2fe3 e5bd
00000160: bce0 1d3c f175 b3bd a4f6 043c 2ab0 a43c
00000170: 6081 913d 584a 07bd b7a7 5e39 c701 943c
00000180: b85b dcbd 46c7 abbd 9b17 9c3d e0ae 123d
00000190: c9ee 1cbd 8625 f3bd 3973 4d3d 7aa0 d43b
000001a0: 2b7e f6bd 971b 3a3d 75b5 40bd c934 4dbd
000001b0: 8dd4 713d 6525 a2bd c695 e7bd 551d 723d
000001c0: 92f8 b1bd 1333 f7bd 4fba 3a3d 0fd0 f7bb
000001d0: 702b c3bd 9dbf fcbc d3ff 8d3d d1d5 28bd
000001e0: 6ac2 d0bd f2a4 f43d 125c 623d f068 2abd
000001f0: 66fc 60bc 639a 15bd cc72 be3d 88a1 c33d
00000200: 290a 4dbd 2d2e d13d e5c6 71bd a07b 44bc
00000210: 6418 073c 7af5 ec3c 62b5 bb3b d501 29bd
00000220: b5cf e3bb ebb0 3abd 08c7 913d dadf ed3c
00000230: 72b3 d0bd 992d a83c c3dc b23d 6c5c 9dbc
00000240: 23e8 3a3d 813f d23d c776 2cbd f10b 583d
00000250: 96b6 0d3d 059a eabd 452e fd3c a77d 5fbd
00000260: 99ef c0bd 9b6a c0bd b5ef 583d 1287 8c3b
00000270: f822 663d 67fa 82bd 589b c13c 8840 e2bd
00000280: d89d a4bd 35f6 e5bb 5061 e1bd efd8 13bd
00000290: 759f b8bd 574b 6bbd 5f58 0abd 4782 f53c
000002a0: 14ee 84bd f745 2c3d ba2d 8dbd be8b 0c3d
000002b0: 95db debd d6b4 993c d46e af3d d6f8 313c
000002c0: affb c03d 36db d53d 39bd ea3d 9549 903d
000002d0: 857d 583d 1508 343d 5ee3 f9bc 13d5 76bd
000002e0: 05a8 b3bd ed36 583d 77bd 5d3d 7c2e 98bd
000002f0: ce44 e23d bdda c4bd e716 c73d ccfe c1bd
00000300: 305e ca3d 5249 8cbc 0986 f13c ac12 983d
00000310: d311 893c 053b cb3d b8ff 9d3d bb9a 5f3d
00000320: c179 d8bc 7684 f93d 9e28 873d 8154 8fbc
00000330: 4ceb 4f3c 3cb2 50bd 8601 30bc 6d71 d83d
00000340: 5f4b 39bd 46ea 92bd e7f6 ba3d 3332 20bd
00000350: 06cc 313d 6a3b 7a3d 9003 2a3d 6360 babc
00000360: 3dae 4d3b 261c 56bd 4add a3bb 4033 133c
00000370: 9125 a8bd 7215 623d 514a c1bd c58b 043c
00000380: 2950 7ebd fca5 803d 9e00 b63d 4162 883d
00000390: 9719 ddbd 8e66 62bd 25fc 653c 24a2 9e3c
000003a0: f7eb 8e3d 6f83 f6bc 7b66 c0bd bc8b f83d
000003b0: a1bb 1cbd 448c f93d 88ce f4bd a4c6 d43d
000003c0: 8887 f33c efb7 b2bd 6159 fcbd 74df c7bd
000003d0: 21ac 0fbc ce52 e6bd c1dc fbbd e367 083d
000003e0: 7674 3d3d 72ff ce3d 7e5c 7b3c b90d d83b
000003f0: e789 20bd 53d2 f6bd eb78 d9bd 7914 033d
0.057603847 -0.07502401 0.06243159 0.08337699 0.118395224 -0.03723935 -0.069010586 0.003225221
0.0328957 -0.06327265 0.114887245 -0.111737795 -0.097601414 -0.106537566 0.03692103 0.0054294644
0.1053972 -0.04069631 -0.030246971 0.014425935 0.009256301 0.102741115 0.046098314 -0.07438965
0.11299452 -0.120774336 -0.06342626 -0.08651292 -0.109308966 -0.007874822 0.019688731 -0.11612478
-0.0074669197 0.07950918 -0.030746156 -0.076085754 0.116319075 0.0850125 -0.06694237 -0.025979746
0.016736826 -0.05161738 0.112586245 0.07545974 0.076141946 -0.077901304 0.024737086 -0.025740584
0.078929074 0.024956519 0.021129487 -0.08546341 -0.0354663 -0.07339028 -0.007515661 -0.035477713
0.004376136 -0.09828828 -0.082193606 0.0741297 0.0098329885 -0.1239099 0.06972549 0.104737416
0.009690043 -0.01255284 0.010197231 0.105594315 -0.022528877 -0.046586666 0.07079868 -0.011720822
0.055939127 0.07691774 0.048851542 0.092761144 0.019949887 0.039989628 -0.01436888 -0.048157033
-0.025228105 -0.07778081 0.084162034 -0.040753607 -0.113763556 -0.106372155 0.035774738 -0.112249725
0.0096361 -0.0876273 0.008115444 0.020103533 0.071047544 -0.033029884 0.00021234048 0.018067254
-0.107596815 -0.08387618 0.0762169 0.035811305 -0.03831366 -0.118723914 0.050158713 0.006488857
-0.120357834 0.045436468 -0.04704805 -0.050099168 0.059040595 -0.07917289 -0.11307864 0.059110004
-0.08689989 -0.120702885 0.045587834 -0.0075626443 -0.095297694 -0.030853087 0.0693356 -0.041219536
-0.101933315 0.11945523 0.055263586 -0.041603982 -0.0137320515 -0.036524188 0.092992395 0.09552294
-0.050058518 0.102138855 -0.05902757 -0.011992365 0.008245561 0.028925646 0.0057284096 -0.041261513
-0.006952251 -0.04557888 0.0711804 0.029037405 -0.101904765 0.020529555 0.08733513 -0.01920911
0.04563154 0.10266019 -0.042105462 0.052745763 0.034597956 -0.11455158 0.030905852 -0.05456319
-0.094206996 -0.093953334 0.052962977 0.0042885626 0.056185693 -0.06395417 0.023633644 -0.110474646
-0.08037919 -0.0070178756 -0.11004889 -0.036095556 -0.09014789 -0.057444897 -0.033775683 0.029969348
-0.06490722 0.04205891 -0.06893487 0.034312956 -0.10881726 0.018762987 0.08566061 0.01086255
0.09423005 0.10442202 0.114618726 0.07045285 0.05285408 0.04395302 -0.030503925 -0.060261797
-0.087722816 0.052786756 0.054135766 -0.07430741 0.1104828 -0.096120335 0.09721165 -0.09472427
0.09881246 -0.017124806 0.029482858 0.074254364 0.016732132 0.099233665 0.0771479 0.05459092
-0.026425244 0.12183468 0.06599544 -0.01749635 0.0126903765 -0.050951228 -0.010742551 0.10568509
-0.045237895 -0.0717359 0.09129124 -0.039110374 0.043407463 0.061091818 0.041507304 -0.022751039
0.0031384372 -0.05227294 -0.005000745 0.008984387 -0.0821029 0.055196233 -0.09438003 0.008089964
-0.062088165 0.06281659 0.088868365 0.066593654 -0.107958965 -0.055273585 0.014037167 0.019364424
0.069786005 -0.03009197 -0.093945466 0.12136027 -0.038264874 0.12184957 -0.11953455 0.1038945
0.029727712 -0.08726489 -0.12321735 -0.09759417 -0.008769066 -0.112462625 -0.12297965 0.0333022
0.046253644 0.10107316 0.015341876 0.0065934327 -0.039194014 -0.12051835 -0.106187664 0.032001946

onnx::Conv_103 f4 [16]
00000000: e792 c63c a50c e6bd d32b 09ba f04d b03d
00000010: 7b58 c53d c4c6 13bd ff0b 213d a48c 87bd
00000020: 2923 953d 9704 cb3d e3a9 9c3d 86f4 8cbd
00000030: f9dd 9abd e6cb d53d 8e12 813d a29e e13d
0.02423997 -0.112328805 -0.00052326656 0.086086154 0.09636017 -0.03607823 0.03931808 -0.06618622
0.07282097 0.09912985 0.07649591 -0.06882577 -0.07561869 0.10439281 0.06302367 0.11016585

onnx::Conv_105 f4 [64, 16, 3, 3]
00000000: 2ce6 913c 8a24 6d3c 9ba9 f7bc 3841 793d
00000010: 2885 13bd 27a2 a13c 3d0e 9cbb 57e6 35bd
00000020: 4d4e cbbb 0d5e 4dbd 28c0 a03d 8e3f 063d
00000030: 4e90 c93c 1a2d cabc e240 93bd c9bd 5f3d
00000040: a474 913c 7ec0 8cbc 2b13 a0bc c329 403d
00000050: df80 703d dfc3 96bc 2197 403b 7125 90bd
00000060: 37df adbc 08b7 a3bd be2f 75bd c031 24bd
00000070: 5c72 9e3c 509a 3b3d 9159 82bc 86fb af3b
00000080: 3e08 93bd 1bfb 63bd 8a62 f93c 121f 8dbb
00000090: fc92 9dbd d671 813b f038 753c b8b4 a83d
000000a0: 9623 963d a34a 2bbd 7083 e83c ade8 a2bd
000000b0: b041 11bd 5e96 603c 368f 9a3d 50ef 2b3c
000000c0: ac6c 173d 9150 99bd c31b 5bbd b6ad 623c
000000d0: 33a0 323d 1a52 2cbd eb81 d3bb 70c7 63bd
000000e0: 3013 8e3d c1be c0b9 9bb0 ac3c 137a 1c3d
000000f0: c093 86bd e5ef 773d dc71 98bd 254e 64bd
00000100: ca47 a5bd c5c5 88bd fcc0 48bd 8c63 9eba
00000110: a0d3 92bd 015e a8bd 8a46 0d3c 8ee2 7a3b
00000120: 56ca 21bd c4bf a73d 691a 873d 020f 4ebd
00000130: 3a1e 563a 2f4c 993d 34ad 04bc 3366 0a3c
00000140: 0e76 793b c455 19bd 7dc8 a1bd c455 483d
00000150: 11c9 283c 9c94 c2bc 11d0 b3bc a2e2 1e3d
00000160: 417e a4bd b4e4 3ebd 5289 8a3d 83c0 583d
00000170: 71df 083d 61eb 47bd 36cb 6abd aa7e 97bc
00000180: 00a4 793d 286e 2f3d 911a 30bd 30aa 553d
00000190: 5509 8cbd 86da 5c3d 630d 8c3d 9b99 0f3d
000001a0: 57c1 5fbc 0563 1abc 0448 243d bc61 01bd
000001b0: 8911 813d 9c95 503b da48 81bd e91b d83c
000001c0: 346b 923c 6fd0 5ebc 1ed7 833d 6728 653d
000001d0: 266a afbc ec1b 85bd bbac 343d eea5 cabb
000001e0: e268 553c 10e2 733c de55 7bbd 145b 92bd
000001f0: ff45 9dbd 7c71 9fbd 066f 92bd 1dc2 853d
00000200: be3d c93b 4468 28bd 1975 8d3d 61ae 58bd
00000210: c16f 3fbb 4349 90bd de34 8dbd 372f 67bd
00000220: 0502 333c 295d 6abd 0357 8abc 3f27 5e3c
00000230: 0d3d ccbc 4be9 7b3d 63a0 093d 2cdf 9d3c
00000240: 8b43 643d c2e6 6cbd 50b5 2bbc c437 87bd
00000250: 8f74 f53c cbec 74bd 85ec a1bd 11de 223d
00000260: d2fc 0c3d bd17 873d b386 203c bb2b 973d
00000270: 0c29 f33c 9f26 813d 2bb0 f63c ed33 353c
00000280: f093 4a3d 5020 9bbd 8d81 89bd 6854 e73c
00000290: ffac 343d cc30 9fbd 86cb a23d 3a6c 683d
000002a0: 93f9 ccbc b287 0cbc 117a 8ebc 30e9 893d
000002b0: cfe0 4c3d d712 9bbd c006 03bd baf2 5a3d
000002c0: 1a2d ca3c 4c17 1d3d ee07 bdbc 0293 8f3d
000002d0: 0c6c 8ebd caa3 a33a 1452 68bb 7a71 8abd
000002e0: 6246 0d3d 57f5 77bd d2d6 a23d 7ad1 d63c
000002f0: 8f8f c73c cd05 773d 6dd8 0abd 7f52 023d
00000300: f107 863d 7972 763d 84f1 1fbd 73ab a0bd
00000310: 462e b03b 7881 e73c 10d8 b7bc a870 243d
00000320: 98f9 a3bd 4004 0c3d b262 23bc e14f a7bd
00000330: 5956 0a3d 214d 9cbd 1825 11bd 9b7b 69bd
00000340: 018e 90bb ee9d cabc 2934 d7bc 3172 873d
00000350: 5a6c 4f3d be90 ca3b 3a49 2ebd 9a7c 36bd
00000360: c270 23bd f6a7 e0bb 276e 7c3d 8982 4abd
00000370: dee7 973c 21d3 31bd f5e1 7cbc 4069 0cbd
00000380: 64cc abbc b8fb 483d 69ec 143d 0a2d 2b3d
00000390: 6a33 3dbd 9faa 94bd 371c a1bc c2e1 5a3d
000003a0: 21fa f03b b6cd 8f3d 6c98 f33c 437f 923d
000003b0: 0376 3abc cc38 073c 08f3 73bd f6f1 49bc
000003c0: 42e5 97bd 5ebf 96bd 5a66 543b f262 16bd
000003d0: f1bd 773d a7bf 333d 3e5f 843d 83da b9ba
000003e0: ffe9 28bd 5dfb 34bc d78a 973d e6a1 5c3d
000003f0: 9e4a 893d e3fc a6bd 9cc1 40bd fc92 87bd
0.01780995 0.014474044 -0.030232241 0.060853213 -0.03601566 0.01973064 -0.0047624395 -0.044409122
-0.0062044025 -0.050138522 0.07849151 0.032775454 0.024604943 -0.02467971 -0.0719011 0.054624353
0.017755814 -0.017181631 -0.01954039 0.046914827 0.05871665 -0.018403945 0.0029386955 -0.070383914
-0.021224601 -0.07993895 -0.059859984 -0.040086508 0.01934164 0.04580146 -0.01591185 0.00537056
-0.071793064 -0.055659395 0.030442495 -0.0043066824 -0.07694051 0.003950338 0.014967188 0.08237594
0.07331006 -0.041819226 0.028382987 -0.07954536 -0.035463035 0.013707725 0.075468466 0.010494068
0.036968872 -0.0748607 -0.053493273 0.013835361 0.04360981 -0.042070486 -0.0064546964 -0.05561012
0.069372535 -0.00036763216 0.021080306 0.038202357 -0.0657115 0.060531516 -0.07443592 -0.055738587
-0.08070333 -0.066783465 -0.04901217 -0.0012084111 -0.071692705 -0.08221055 0.008622775 0.003828201
-0.039499603 0.08190873 0.06596834 -0.05030728 0.0008167956 0.07485234 -0.0080979355 0.008447218
0.003806475 -0.037435308 -0.07899568 0.048909917 0.010301844 -0.023752503 -0.0219498 0.038790353
-0.080318935 -0.046604827 0.06764473 0.05291797 0.033416215 -0.04880846 -0.057322703 -0.018493015
0.06094742 0.042829663 -0.042994086 0.052164257 -0.068377174 0.053919338 0.06838491 0.0350586
-0.013656936 -0.009423022 0.040107742 -0.031587347 0.06302173 0.0031827455 -0.063127235 0.026380496
0.017873384 -0.013599499 0.06437515 0.055946734 -0.02141292 -0.06499466 0.04411004 -0.006184331
0.013025494 0.0148854405 -0.061361186 -0.07146278 -0.07679366 -0.07785317 -0.07150082 0.06531165
0.0061413934 -0.04111506 0.069071 -0.052900676 -0.0029210898 -0.070452236 -0.06894849 -0.056441512
0.010925774 -0.05721775 -0.016887194 0.013559162 -0.024931455 0.061501782 0.033600222 0.019271456
0.055728476 -0.057837255 -0.01048024 -0.06602433 0.029962806 -0.059796136 -0.07906441 0.03976256
0.034420796 0.065963246 0.00979774 0.07381388 0.029682659 0.063061945 0.0301133 0.011059743
0.04945749 -0.075745225 -0.06714163 0.02823849 0.044110294 -0.07772979 0.07948975 0.056743838
-0.02502135 -0.008577274 -0.01739219 0.0673393 0.05001908 -0.07571953 -0.03198886 0.05345414
0.02467971 0.038352296 -0.02307507 0.070104614 -0.06954202 0.0012484726 -0.0035449313 -0.06759925
0.03449095 -0.06053671 0.0795113 0.026222933 0.024360446 0.060308266 -0.033897806 0.031816956
0.065444835 0.060167763 -0.039048687 -0.07845201 0.00537661 0.028259978 -0.022441894 0.0401465
-0.080065906 0.03418374 -0.009972261 -0.081695326 0.033773754 -0.07631899 -0.035435766 -0.057002645
-0.0044114594 -0.02473351 -0.02626999 0.06613577 0.05064044 0.0061818054 -0.042550303 -0.044552423
-0.039902456 -0.00685596 0.061628487 -0.049440894 0.01854318 -0.04341424 -0.015434732 -0.03428006
-0.020971484 0.049068183 0.03635827 0.041791 -0.04619161 -0.07259106 -0.019666774 0.053437956
0.0073540364 0.07021658 0.029735766 0.071531795 -0.011380675 0.0082532875 -0.059557945 -0.012325754
-0.07416774 -0.07360719 0.003240964 -0.036715455 0.060483877 0.043883946 0.064634785 -0.0014179501
-0.04123878 -0.011046258 0.073995285 0.053865336 0.06703685 -0.08153703 -0.04705964 -0.06619832
