models/lite_face_100.onnx (onnx, 649667 bytes, 16 tensors)

sequential.24.weight f4 [256, 256]
0	0xbcab7fbc	-0.020934932
1	0x3a85dec0	0.0010213479
2	0xbd2d47fa	-0.04230497
3	0xbd651e6a	-0.05593721
4	0xbd130208	-0.03589061
5	0x3c094ad0	0.008379653
6	0x3d7c9b7e	0.061671726
7	0x3bebb130	0.0071927533
8	0x3d5b8074	0.0535893
9	0xbd0102ec	-0.031496927
10	0xbcc439ec	-0.0239534
11	0x3c04c850	0.008104399
12	0x3c34c9f0	0.011034474
13	0xbd54a586	-0.051915668
14	0xbbf3ad60	-0.0074364394
15	0x3c4c3820	0.012464553
16	0xbbbbdd50	-0.0057331696
17	0xbb3023a0	-0.0026876703
18	0x3d7111d6	0.0588549
19	0xbb68c1c0	-0.0035515875
20	0x3d43bbbc	0.04778646
21	0x3c9a39b4	0.018826343
22	0x3c545b00	0.012961149
23	0x3d182094	0.037140444
24	0x3d655eb2	0.05599851
25	0x3d48cdf4	0.049024537
26	0xb9f6c800	-0.00047069788
27	0xbcb5d268	-0.022195056
28	0x3d661058	0.05616793
29	0x3d786c46	0.060650133
30	0x3cda2cc4	0.026632674
31	0xbd6c81b8	-0.057740897
32	0xbd735fae	-0.05941742
33	0xbc8a9844	-0.016918309
34	0xbc9ded04	-0.019278057
35	0x3c295040	0.0103340745
36	0x3b5acdc0	0.0033386797
37	0xbbdeaba0	-0.0067953616
38	0x3c760b08	0.0150172785
39	0xbcdec35c	-0.027192764
40	0x3d345fca	0.044036664
41	0x3c30c750	0.010789707
42	0xbd16d118	-0.0368205
43	0xbd435552	-0.04768879
44	0x3d59c372	0.053164907
45	0x3d57cd0e	0.05268579
46	0xbb0430c0	-0.0020170659
47	0xbd09e304	-0.033663765
48	0xbce5ec14	-0.028066672
49	0xbd4d6090	-0.050140917
50	0xbc557428	-0.013028182
51	0xbcd2d484	-0.025736101
52	0x3d3f4f40	0.046706438
53	0xbc7b4f58	-0.015338741
54	0x3d436e9c	0.047712907
55	0xbcc1d830	-0.023662657
56	0x3d17b570	0.037038267
57	0xbd4a227e	-0.0493493
58	0xbd393d02	-0.045224197
59	0x3cc327b0	0.023822635
60	0xbcd7a9b4	-0.026326038
61	0xbd60815e	-0.054810874
62	0xbc959b24	-0.018262453
63	0xbd0d6866	-0.03452339
64	0xbd0c7028	-0.034286648
65	0x3c9b38b4	0.018947937
66	0x3bdb26a0	0.006687954
67	0xbc074858	-0.008256994
68	0xbd56cd14	-0.05244167
69	0x3cc4f7ec	0.024044
70	0xbc55c448	-0.013047285
71	0x3d55444e	0.052067094
72	0xbd32b284	-0.043627277
73	0xbd43e5aa	-0.047826447
74	0x3d1c77f8	0.03820035
75	0x38911400	6.917864e-05
76	0xbd48b448	-0.049000055
77	0x3d4758d6	0.048668705
78	0xbc746e10	-0.014918819
79	0xbd390578	-0.04517123
80	0x3d44aa2c	0.04801385
81	0xbcf60380	-0.030030966
82	0xbd380e4c	-0.04493551
83	0xbbeb9610	-0.0071895197
84	0xbd33e116	-0.04391583
85	0x3d0f1522	0.034932263
86	0xbd421aba	-0.04738877
87	0xbc6f8288	-0.014618523
88	0xbd7e09b8	-0.062020987
89	0xbd5eb5c2	-0.054372557
90	0xbc2a8818	-0.010408424
91	0x3d43cec4	0.04780461
92	0xbc7f9220	-0.015598804
93	0xbd32afba	-0.043624617
94	0xbd50a710	-0.050940573
95	0xbc907b5c	-0.017636947
96	0xbc2276c0	-0.0099160075
97	0x3cd73220	0.026269019
98	0x3d41e274	0.047335103
99	0x3d02e4da	0.03195653
100	0xbd28f302	-0.041247375
101	0x3d63db18	0.055628866
102	0xbd46b2e8	-0.048510462
103	0x3d7badb6	0.06144496
104	0x3d28e3dc	0.04123293
105	0x3d31de36	0.043424807
106	0x3bec2490	0.007206507
107	0x3d326852	0.04355652
108	0x3d6c7660	0.05773008
109	0xbd558576	-0.05212923
110	0xbca273b0	-0.019830555
111	0xbd3d60f0	-0.046235025
112	0xbd62d8aa	-0.05538241
113	0x3d2877c4	0.041129842
114	0x3bef53c0	0.007303685
115	0xbc20bca0	-0.009810597
116	0xbd39ae48	-0.045332223
117	0xbd53a396	-0.05166968
118	0x3d087c0e	0.033321433
119	0xbd19bf9c	-0.03753625
120	0x3d717918	0.058953375
121	0x3caa3e38	0.020781621
122	0xb877c000	-5.9068203e-05
123	0x3d69194a	0.056908883
124	0x3cb40e84	0.021979578
125	0xbd7a4f4e	-0.061110787
126	0x3d2f11ca	0.042741574
127	0xbd3aa948	-0.045571595
128	0xb9a80600	-0.00032047927
129	0x3c973cb0	0.018461555
130	0x3d17a514	0.037022665
131	0xbcb5d574	-0.022196509
132	0x3d496ba2	0.049174912
133	0x3aa805c0	0.0012819096
134	0x3d202510	0.039097846
135	0x3cc26954	0.023731865
136	0x3d251d48	0.040311128
137	0x3d5a405a	0.053284027
138	0xbd4affc4	-0.049560323
139	0xbd43ace8	-0.047772318
140	0xbd684236	-0.05670377
141	0x3d30d3d8	0.04317078
142	0x3a39fc00	0.0007094741
143	0xbd5afcee	-0.05346387
144	0xbd786d64	-0.060651198
145	0xbce7cbb8	-0.028295383
146	0x3c8be7b4	0.017078258
147	0x3b143820	0.002261646
148	0x3c0f1b18	0.008734487
149	0xbbf7bd70	-0.0075604245
150	0xbd7247f2	-0.059150644
151	0x3aef7580	0.0018269271
152	0xbd718a9a	-0.05897007
153	0x3d2fbc44	0.042904153
154	0x3ab8d0c0	0.0014100298
155	0x3b8b82c0	0.00425753
156	0x3d13a670	0.0360474
157	0xbd6988be	-0.057015173
158	0x3d2815d6	0.04103645
159	0xbc8a41a4	-0.016877003
160	0xbd0a1b3e	-0.033717386
161	0x3d7697ac	0.06020324
162	0xbaefdd80	-0.0018300265
163	0xbd697b7a	-0.057002522
164	0xbc410860	-0.011781782
165	0x3d5de45e	0.054172866
166	0xbcb0bcd4	-0.021574415
167	0x3d142002	0.036163338
168	0xbb4323c0	-0.0029775947
169	0x3d472d70	0.048627317
170	0xbb31b4c0	-0.0027115792
171	0xbd1928e2	-0.037392505
172	0xba382400	-0.00070244074
173	0x3c984fc4	0.018592723
174	0x3d7d8b0c	0.061900184
175	0x3c94674c	0.018115662
176	0x3be96140	0.007122189
177	0x3d65a310	0.05606371
178	0xbcba31b4	-0.022728778
179	0x3d7675fc	0.060171112
180	0x3cfb2444	0.030656941
181	0xbcae39f4	-0.021267869
182	0xbd35e3e4	-0.044406787
183	0xbc844a80	-0.016148806
184	0x3c995280	0.018716097
185	0x3d52c4e8	0.051457316
186	0xbc1e7080	-0.009670377
187	0xbca5a264	-0.020219035
188	0x3ca9b34c	0.020715378
189	0x3d0687a0	0.032844186
190	0xbd48b13c	-0.04899715
191	0xbd115516	-0.035481535
192	0x3c4a7790	0.0123576075
193	0x3d27d8b0	0.040978134
194	0x3d171680	0.036886692
195	0x3c7fee88	0.015620835
196	0xbb667780	-0.0035166442
197	0x3d1fa92e	0.0389797
198	0xbd516420	-0.051120877
199	0x3b38ebc0	0.002821669
200	0xbd0a00b0	-0.033692062
201	0x3d639956	0.055566154
202	0x3ca0fb4c	0.019651078
203	0xbc35cf48	-0.011096783
204	0xbd38062e	-0.04492777
205	0x3d78a87c	0.060707554
206	0x3d3db05a	0.04631076
207	0x3d545810	0.051841795
208	0x3d0361fe	0.032075875
209	0x3d3cb658	0.046072334
210	0x3beedf00	0.0072897673
211	0xbd5caeae	-0.053877525
212	0xbcbfb3c0	-0.023401141
213	0x3d74601c	0.05966197
214	0xbd4857fe	-0.04891204
215	0x3d67e950	0.05661899
216	0xbcd8492c	-0.026402079
217	0x3c06cd18	0.008227609
218	0xbd7fd84a	-0.06246213
219	0x3d69c7c2	0.05707527
220	0x3b975ca0	0.004619196
221	0xbd336ebc	-0.043806776
222	0x3bad87e0	0.0052957386
223	0x3d68a988	0.056802303
224	0x3c276848	0.010217734
225	0xbd069ad4	-0.0328625
226	0x3d0746c4	0.03302647
227	0xbd18822c	-0.037233517
228	0xbd227480	-0.039661884
229	0xbcb5bc6c	-0.022184573
230	0x3d0c9552	0.03432209
231	0xbd5c392a	-0.053765453
232	0x3d21c54e	0.039494805
233	0x3b914840	0.0044336617
234	0xbd6aebfc	-0.05735396
235	0x3b4a4480	0.0030863583
236	0x3cfe3f84	0.031036146
237	0xbd194e58	-0.03742823
238	0xbd4301c8	-0.04760912
239	0xbcb2db44	-0.02183307
240	0xbd35a0ac	-0.04434268
241	0x3bc11bb0	0.005893193
242	0x3bfd6e50	0.0077340975
243	0xbd70188e	-0.058617167
244	0x3d757a6e	0.05993121
245	0x3d427404	0.047473922
246	0xbd16dff6	-0.03683468
247	0x3b850080	0.0040588975
248	0x3c1b1538	0.009465508
249	0xbd618f10	-0.055068076
250	0xbd495696	-0.04915484
251	0x3c2147a8	0.009843744
252	0x3d3535a8	0.044240624
253	0x3d4fc3ca	0.05072383
254	0x3d29738a	0.041369952
255	0xbd79a4f8	-0.060948342

sequential.24.bias f4 [256]
0	0x3d350fbc	0.04420446
1	0x3d55b6ec	0.0521764
2	0xbd2c9798	-0.04213676
3	0x3d4eb282	0.050463207
4	0xbd613168	-0.054978758
5	0xbd2e2402	-0.04251481
6	0x3d510594	0.05103071
7	0x3d27b9ce	0.04094868
8	0x3d60cf6e	0.05488532
9	0x3d74965c	0.059713706
10	0xbcf50f24	-0.029914446
11	0xbd292164	-0.04129161
12	0xbd61d78a	-0.055137195
13	0xbc05b4f0	-0.008160815
14	0x3d17668e	0.03696304
15	0xbd73df4a	-0.059539117
16	0xb9c11e00	-0.0003683418
17	0xbc57aba8	-0.013163485
18	0x3d6d6588	0.057958156
19	0x3d4b9c34	0.049709514
20	0x3ccfaac0	0.025349975
21	0xbd6800a0	-0.05664122
22	0xbc64eac8	-0.013971992
23	0xbd6c6064	-0.057709113
24	0x3d7490c2	0.059708364
25	0xbb6879c0	-0.003547296
26	0xbd3834b8	-0.04497215
27	0x3c4cb7f8	0.012495033
28	0xbd14b136	-0.036301814
29	0x3cafe178	0.021469817
30	0x3c263848	0.010145254
31	0x3ccc63a0	0.024949849
32	0xbd3fa010	-0.046783507
33	0x3c15dfa0	0.009147555
34	0xbcbd9e6c	-0.02314683
35	0x3c22aab0	0.00992839
36	0x3d2d5ab2	0.042322822
37	0xbcc1fac8	-0.023679152
38	0x3c834ec0	0.016028762
39	0xbcc0c144	-0.023529656
40	0xbcd02c88	-0.02541186
41	0x3d145a48	0.03621891
42	0xbc007cd0	-0.007842258
43	0x3d2872a6	0.041124962
44	0x3cffda20	0.03123194
45	0xbc7e6918	-0.015527986
46	0xbca38d44	-0.019964822
47	0x3c9c909c	0.019111924
48	0xbc5df720	-0.013547689
49	0x3ad5dc80	0.0016316324
50	0xbd62f382	-0.05540801
51	0x3c4f2960	0.012644142
52	0x3d52bbc2	0.05144859
53	0x38c84000	9.548664e-05
54	0x3ca17378	0.01970838
55	0xbcd16470	-0.025560588
56	0x3d68a6f6	0.05679985
57	0xbc5fca28	-0.013659038
58	0xbd7c1c96	-0.0615507
59	0x3d4e50ea	0.050370134
60	0xbcdc9094	-0.026924409
61	0x3c980500	0.018557072
62	0xbd62b4fa	-0.055348374
63	0x3d316d32	0.043317027
64	0x3cd2f378	0.02575086
65	0xbbe7e190	-0.0070764497
66	0x3c1b48d0	0.009477809
67	0x3bcdfc40	0.006286174
68	0x3ce15b2c	0.027509294
69	0xbcde4bc4	-0.027135737
70	0x3d70dce8	0.058804423
71	0xbcf841c8	-0.030304804
72	0xbca559d4	-0.020184435
73	0xbd643c96	-0.05572184
74	0xbb89dd60	-0.004207298
75	0x3bdb5e30	0.0066945776
76	0xbd67a78a	-0.056556262
77	0x3d147518	0.03624448
78	0xbd38a734	-0.045081332
79	0xbd438df2	-0.04774279
80	0xbd5219c6	-0.05129411
81	0xbc5e2ae8	-0.013560034
82	0x3cab8010	0.020935088
83	0xbc266ef8	-0.010158293
84	0xbcfc3ac8	-0.030789748
85	0x3d5b3f4c	0.05352716
86	0x3d216d4a	0.039410867
87	0x3d7bb166	0.061448477
88	0x3d3c60aa	0.045990624
89	0xbd5a0c22	-0.053234227
90	0x3d6f4660	0.058416724
91	0x3bf21ad0	0.00738845
92	0x3b8208b0	0.003968321
93	0xbd614ab2	-0.055002876
94	0xbd217706	-0.03942015
95	0x3c165428	0.009175338
96	0xbc0c2f60	-0.008556217
97	0x3d6c8780	0.05774641
98	0xbd4309b8	-0.04761669
99	0x3d5957c4	0.053062215
100	0xbd5daabc	-0.054117903
101	0x3d3ff8b8	0.046868056
102	0xbcbb9b10	-0.022901088
103	0x3cc566d8	0.024096891
104	0x3cb68980	0.022282362
105	0xbd1bdc74	-0.038052037
106	0xbbf0baf0	-0.0073465034
107	0x3c436018	0.011924766
108	0xbc91c768	-0.01779528
109	0xbd12bdc2	-0.0358255
110	0xbcff529c	-0.03116732
111	0x3d6ef206	0.05833628
112	0xbc2b58a0	-0.010458142
113	0x3ccc1360	0.024911582
114	0x3d5a6e2e	0.05332773
115	0x3d31005a	0.043213226
116	0xbbe782d0	-0.0070651546
117	0x3c927a08	0.017880455
118	0x3d144b32	0.036204524
119	0x3d4dd890	0.05025536
120	0xbd2ba444	-0.041904703
121	0x3c6a8a00	0.014315128
122	0xbd3c8f34	-0.046035007
123	0xbd381f3c	-0.044951662
124	0xbc14c570	-0.009080276
125	0xbc8415f8	-0.016123757
126	0x3d148a9a	0.036264993
127	0xbd372678	-0.04471442
128	0xbd35cf00	-0.044386864
129	0x3c0195f8	0.0079092905
130	0x3d040da2	0.032239564
131	0xbd5ea0de	-0.054352634
132	0x3d01d7c6	0.03169992
133	0x3ce7c0cc	0.028290175
134	0xbd5ba76a	-0.053626455
135	0x3ce96d88	0.028494611
136	0xbcda316c	-0.026634894
137	0xbcd35aa0	-0.02580005
138	0xbcd04184	-0.025421865
139	0x3d57b0c4	0.05265881
140	0x3cb26a9c	0.021779351
141	0xbd54babc	-0.051935896
142	0x3c886658	0.016650364
143	0xbce65b5c	-0.028119735
144	0x3d46d3ee	0.048541956
145	0xbce6f070	-0.028190821
146	0x3d57a40e	0.05264669
147	0x3d7bda1c	0.061487302
148	0x3ca5a444	0.02021993
149	0xbc9fd598	-0.01951103
150	0xbc80bd68	-0.015715316
151	0x3d7b197a	0.061303593
152	0xbd60c7e2	-0.054878123
153	0x3d18248a	0.03714422
154	0x3c9312bc	0.01795327
155	0xbc9cfc34	-0.019163229
156	0x3d0829aa	0.03324286
157	0x3d66a698	0.05631122
158	0xbcf8fec8	-0.030394927
159	0x3cbef7ac	0.023311459
160	0xbd42bcf6	-0.04754349
161	0xbcfccb94	-0.030858792
162	0x3b018cc0	0.0019767731
163	0x3cb7ac80	0.022421122
164	0xbd233880	-0.039848804
165	0x3d65d92c	0.056115314
166	0xbd36d0b0	-0.044632614
167	0xbc830b88	-0.01599671
168	0x3b0aab80	0.002115935
169	0x3cfecc60	0.031103313
170	0x3d0e0308	0.03467086
171	0x3cb68750	0.022281319
172	0xbce25930	-0.027630419
173	0xbc88c350	-0.016694695
174	0xbc9a3350	-0.018823296
175	0xbd60fe16	-0.054929815
176	0x3cdf2c28	0.027242735
177	0x3d5e905a	0.054336883
178	0xbc5f3870	-0.013624296
179	0xbd28598c	-0.041101024
180	0x3d41c73e	0.047309153
181	0xbccc66dc	-0.02495139
182	0xbd0fc9d0	-0.035104573
183	0x3d2b853c	0.04187511
184	0x3c92f87c	0.017940752
185	0xbcb614ac	-0.022226654
186	0x3c4f1c40	0.012641013
187	0xbc15dc40	-0.00914675
188	0x3d462fba	0.04838536
189	0xbbc55860	-0.006022498
190	0x3ccd2a90	0.02504471
191	0xbd5b074e	-0.053473763
192	0x3c19cc30	0.009387061
193	0x3c71e698	0.0147644505
194	0x3cc6e670	0.024279803
195	0x3bbcbd50	0.0057598725
196	0xbc642f38	-0.013927273
197	0xbb7ea2a0	-0.0038854256
198	0x3d2c61c0	0.04208541
199	0xbd31afc0	-0.0433805
200	0x3bc69250	0.0060599223
201	0xbc504690	-0.012712136
202	0xbd054d76	-0.032544576
203	0x3d299a26	0.041406773
204	0xbbd4c440	-0.0064931214
205	0xbd65530a	-0.055987395
206	0x3d3ea58c	0.046544597
207	0x3c562700	0.013070822
208	0xbd226544	-0.039647356
209	0x3d781a52	0.060571976
210	0x3d050b84	0.032481685
211	0xbd3af6de	-0.045645587
212	0xbc533880	-0.012891889
213	0x3cacde9c	0.021102242
214	0x3be8db60	0.0071062297
215	0xbd427ace	-0.047480397
216	0xbccd2f1c	-0.025046878
217	0xbd4a9e10	-0.049467146
218	0xbc9cb6bc	-0.019130103
219	0xbd17c2be	-0.037050955
220	0x3ce20e3c	0.027594678
221	0xbd4e05e4	-0.050298586
222	0xbd38e662	-0.045141585
223	0xbce69f38	-0.028152093
224	0xbd5d3636	-0.054006778
225	0xbc28a120	-0.010292321
226	0x3d5d0612	0.053960867
227	0x3d220c22	0.039562352
228	0xbd32a180	-0.04361105
229	0x3d58c5f2	0.05292315
230	0xbd6b1c42	-0.057399996
231	0xbd194a98	-0.037424654
232	0x3d0cfd60	0.034421325
233	0xbaa37780	-0.0012471527
234	0xbd2e84e0	-0.04260719
235	0x3d505da2	0.050870545
236	0xbce2449c	-0.027620606
237	0x3b2c36c0	0.002627775
238	0xbc71fbd8	-0.014769517
239	0x3d7724dc	0.060337886
240	0x3bb5d870	0.005549483
241	0xbc451938	-0.012029938
242	0xbd73bd7e	-0.059506886
243	0x3bf90d20	0.0076004416
244	0xbd12ef58	-0.035872787
245	0x3cd93710	0.026515514
246	0xbd569664	-0.052389517
247	0x3cf8e2e4	0.030381627
248	0x3b3e04e0	0.0028994605
249	0xbd2c1f48	-0.04202202
250	0x3c990a34	0.018681623
251	0x3befc1f0	0.0073168203
252	0xbd08c246	-0.0333884
253	0xbcb633dc	-0.022241525
254	0xbd5d1220	-0.053972363
255	0x3d4ec794	0.0504833

sequential.26.weight f4 [32, 256]
0	0xbc913200	-0.017724037
1	0x3d0b5ba8	0.034022957
2	0xbd350586	-0.04419472
3	0xbce0186c	-0.027355395
4	0xbce236c0	-0.027613997
5	0xbcad52f0	-0.021157712
6	0x3cf27a58	0.029599354
7	0x3d09fab0	0.03368634
8	0x3d6331b6	0.05546733
9	0xbd17fcf8	-0.037106484
10	0x3ca7fbe4	0.020505853
11	0xbc89ce98	-0.016822144
12	0x3d7230dc	0.059128627
13	0x3d40c3f0	0.04706186
14	0x3bc1db60	0.005916044
15	0x3c99ebdc	0.018789224
16	0x3d3635e6	0.044484995
17	0xbd00dc80	-0.031460285
18	0xbc3a9610	-0.011388317
19	0xbca1c36c	-0.019746505
20	0x3ce40078	0.027832255
21	0x3d7600ba	0.060059287
22	0x3c53da58	0.012930475
23	0xbb5a1560	-0.00332769
24	0x3ca51f88	0.020156637
25	0x3bba8960	0.005692646
26	0x3d77832a	0.060427822
27	0xbc85f6c8	-0.016353026
28	0xbd038792	-0.03211171
29	0xbd7c0d50	-0.061536133
30	0xbd2f9abe	-0.042872183
31	0x3c073bc8	0.008253999
32	0xbd55343c	-0.052051768
33	0x3cb50a14	0.022099532
34	0x3d4743d4	0.04864867
35	0x3d1f117c	0.038835034
36	0xbd480954	-0.04883702
37	0xbaa1f7c0	-0.001235716
38	0xbce67b7c	-0.028135054
39	0x3c855e60	0.016280353
40	0x3c86c1ec	0.016449891
41	0x3bace280	0.0052760243
42	0xbd051366	-0.032489203
43	0xbcf1c090	-0.029510766
44	0xbd6ab218	-0.05729875
45	0x3d276a82	0.04087306
46	0xbd7a073c	-0.061042055
47	0xbd64b860	-0.055839896
48	0xbd403002	-0.046920784
49	0xbd48a590	-0.048986018
50	0xbd3b4e18	-0.045728773
51	0xbd423b62	-0.047419913
52	0xbca82608	-0.020525947
53	0xbd065108	-0.03279212
54	0x3d79e7f4	0.061012223
55	0x3d185d1a	0.037198164
56	0x3a50c900	0.00079645216
57	0x3d6a8a70	0.05726093
58	0xbc218a08	-0.009859569
59	0x3d53c040	0.051697016
60	0x3c211720	0.009832174
61	0xbc6b6228	-0.014366664
62	0xbd44bfb0	-0.04803437
63	0xbc522678	-0.0128265545
64	0xbd6f669c	-0.058447465
65	0xbcf52304	-0.029923923
66	0xbc991418	-0.01868634
67	0x3d67669c	0.05649434
68	0xbcb9e7b0	-0.022693485
69	0xbd7cab24	-0.06168665
70	0xbd068b18	-0.032847494
71	0xb9635800	-0.0002168119
72	0x3d3e7afc	0.046504006
73	0xbd662592	-0.056188174
74	0x3cba1754	0.022716202
75	0x3d2759d8	0.040857166
76	0xbbcc13a0	-0.0062279254
77	0x3d498930	0.049203098
78	0x3cec357c	0.028834097
79	0xbcf4c468	-0.02987881
80	0xbc128a58	-0.0089441165
81	0xbbc49c60	-0.0060000867
82	0x3c444a58	0.011980616
83	0xbd562a62	-0.052286513
84	0xbd5ba00c	-0.05361943
85	0xbca87c08	-0.020566955
86	0x3bb80080	0.005615294
87	0x3c7711a0	0.015079886
88	0x3c1b3568	0.009473182
89	0x3d595930	0.05306357
90	0x3c9755f4	0.018473603
91	0xbc9fce5c	-0.01950758
92	0x3cec34a8	0.028833702
93	0xbd16d58a	-0.03682474
94	0x3c2fca18	0.010729335
95	0x3b878ba0	0.0041365176
96	0xbcc91a04	-0.024548538
97	0x3cb27db0	0.021788448
98	0x3d096242	0.03354097
99	0x3d386f66	0.045028113
100	0x3d0c1daa	0.034207977
101	0xbc9d5dd4	-0.01920978
102	0xbb66e1e0	-0.0035229847
103	0xbc371ee0	-0.011176795
104	0xbd660c38	-0.056163996
105	0x3d714c82	0.058910854
106	0x3d2ab0c8	0.041672498
107	0xbc6ab7b8	-0.0143260285
108	0x3d6602a0	0.056154847
109	0xbcd0db64	-0.025495239
110	0x3bf0f470	0.007353358
111	0x3d50fece	0.05102425
112	0xbb958420	-0.0045628697
113	0xbd1ad524	-0.037800923
114	0xbd578954	-0.0526212
115	0xbcf6077c	-0.030032866
116	0xbcded350	-0.027200371
117	0x3cfefe68	0.03112717
118	0xbd4aa4ec	-0.049473688
119	0xbc963d1c	-0.018339686
120	0xbd3bbafa	-0.04583261
121	0x3d14e0d8	0.03634724
122	0x3d2582c0	0.040407896
123	0xba8c2b40	-0.0010694042
124	0xbd496d20	-0.049176335
125	0xbd145a42	-0.03621889
126	0x3c1bf9e0	0.009520024
127	0x3b43e2c0	0.0029889792
128	0x3b11e1e0	0.0022259876
129	0xbcd70278	-0.026246294
130	0xbceef73c	-0.029170625
131	0x3b522ec0	0.0032071322
132	0x3d16e5de	0.036840312
133	0xbd7606ac	-0.060064957
134	0x3d0f5592	0.034993716
135	0x3c5c2130	0.013435647
136	0xbd742380	-0.059604168
137	0x3ba05e40	0.004894048
138	0xbd1e8a9c	-0.038706407
139	0x3caa3ca4	0.020780869
140	0x3bd47d00	0.0064846277
141	0xbd31f4aa	-0.04344622
142	0xbd5f6c0c	-0.0545464
143	0x3d78dc50	0.06075698
144	0xbd675794	-0.056480005
145	0xbc0b7ad0	-0.0085131675
146	0xbd333edc	-0.04376112
147	0x3d69a502	0.05704213
148	0xbd4077ce	-0.046989255
149	0x3c87b540	0.016565919
150	0xbc19f848	-0.009397574
151	0x3745a000	1.1779368e-05
152	0xbd1c1ba4	-0.038112298
153	0xbc923398	-0.017846867
154	0xbc0e9ed0	-0.008704856
155	0xbd4009fa	-0.046884514
156	0x3d77d72c	0.06050794
157	0x3cdcad34	0.026938058
158	0xbc043dc8	-0.00807137
159	0x3bc616c0	0.0060451925
160	0xbc1c1ca8	-0.009528317
161	0x3cda54ac	0.026651703
162	0x3d2353b2	0.03987474
163	0xbcfc1ab0	-0.030774444
164	0x3d528052	0.051391907
165	0xbc35a988	-0.011087783
166	0xbd52e1e0	-0.051484942
167	0xbd17d608	-0.03706935
168	0x3bcba660	0.006214902
169	0x3d1c62ba	0.03818009
170	0x3d55abca	0.052165784
171	0xbd5fdcbe	-0.054653876
172	0x3d3e0a1a	0.046396352
173	0xbd7481e0	-0.05969417
174	0xbbb8d270	-0.0056403205
175	0xbc91fd70	-0.017821044
176	0xbd50db9a	-0.05099068
177	0xbcb9fc28	-0.022703245
178	0x3d6e1126	0.058121823
179	0x3d6aa438	0.057285517
180	0xbd08de22	-0.033414967
181	0x3c7d2dd0	0.015452817
182	0xba077e00	-0.0005168617
183	0x3d6428cc	0.05570297
184	0x3d44d17c	0.048051342
185	0xbc4d1d08	-0.012519129
186	0xbd7e9a64	-0.062158957
187	0x3d09c544	0.033635393
188	0xbcbd5220	-0.02311045
189	0xbd2cef72	-0.04222054
190	0xbd398bde	-0.045299403
191	0xbcfadc80	-0.03062272
192	0x3d7e904a	0.062149324
193	0xbc4fd040	-0.012683928
194	0xbd4cb3d2	-0.049976178
195	0x3d512840	0.051063776
196	0xbce89f64	-0.028396316
197	0xbc8d6584	-0.01726032
198	0xbd3e004e	-0.04638701
199	0xbd6ac540	-0.05731702
200	0x3d73ce9c	0.05952321
201	0xbaba9c40	-0.001423724
202	0x3d59aa40	0.05314088
203	0x3cb56cb8	0.022146568
204	0xbcf1734c	-0.029473923
205	0x3c21e6c0	0.009881675
206	0xbd726530	-0.05917853
207	0x3ab6b5c0	0.0013939664
208	0xbca3fe10	-0.020018607
209	0x3cd14f8c	0.025550626
210	0xbcb411a8	-0.021981075
211	0x3d386284	0.045015827
212	0xbd504f2e	-0.05085676
213	0x3cb2f198	0.021843717
214	0xbb8a8e50	-0.0042283908
215	0xbd701262	-0.05861128
216	0xbb722260	-0.0036946759
217	0xbc7771c8	-0.015102811
218	0xbd3345fe	-0.04376792
219	0xbce7d158	-0.028298065
220	0x3d5ae498	0.05344066
221	0x3b9656b0	0.0045879707
222	0x3c7d8fd8	0.01547619
223	0xbd21a926	-0.039467953
224	0xbc3f9228	-0.011692561
225	0x3d430b4a	0.047618188
226	0x3d079c54	0.03310807
227	0x3cdd2ed0	0.026999861
228	0x3d4738cc	0.04863815
229	0x3bbd0cf0	0.0057693645
230	0xbc1bc790	-0.009508029
231	0xbc01cc88	-0.007922299
232	0xbd1541d2	-0.036439724
233	0x3d78c3c4	0.06073357
234	0x3d4d3412	0.050098486
235	0x3c570858	0.013124548
236	0x3d0a441c	0.03375636
237	0x3d56afbe	0.052413695
238	0x3d63c7a2	0.055610307
239	0xbd75a6a6	-0.05997338
240	0xbd3f3162	-0.046677954
241	0x3c2527c0	0.010080278
242	0x3c0da628	0.008645572
243	0x3b26e1c0	0.0025464147
244	0xbd13549e	-0.03596937
245	0xbc22e800	-0.009943008
246	0xbd1ac6ac	-0.037787125
247	0xbca0a0e4	-0.019607969
248	0xbd156326	-0.03647151
249	0xbb047ca0	-0.0020215884
250	0xbd1eba5a	-0.038751937
251	0x3d5fa304	0.054598823
252	0xbd2cb754	-0.042167023
253	0xbcffe428	-0.031236723
254	0xbd656f22	-0.056014188
255	0x3c4e2c58	0.012583815

sequential.26.bias f4 [32]
0	0xbd755de8	-0.05990401
1	0xbc8a1f9c	-0.016860776
2	0xbd5171b8	-0.05113384
3	0xbd43b488	-0.04777959
4	0x3cb05e64	0.021529384
5	0xbd6a9d04	-0.057278648
6	0xbcc02a1c	-0.02345758
7	0x3b7a1820	0.0038161352
8	0x3d2b2094	0.041779116
9	0x3d754792	0.059882708
10	0xbd1948cc	-0.03742294
11	0x3d148ff2	0.03627009
12	0x3d2e1358	0.042498916
13	0x3a78f280	0.00094965845
14	0x3c3c2a80	0.011484742
15	0xbd6023e4	-0.054721728
16	0xbbd4fc20	-0.006499782
17	0x39eddd00	0.0004536882
18	0x3d109bb4	0.03530474
19	0xbca2d794	-0.019878186
20	0x3c47e4a0	0.012200505
21	0x3c1acc60	0.009448141
22	0xbd4c5788	-0.049888164
23	0x3d08af5c	0.03337036
24	0x3c7b53e0	0.015339822
25	0x3d77bf1a	0.060484983
26	0xbb7f5700	-0.0038961768
27	0x3a3e8380	0.000726752
28	0x3bf824c0	0.0075727403
29	0xbd7ce1ee	-0.0617389
30	0x3c4997a8	0.012304224
31	0x3bc754f0	0.0060831234

onnx::Conv_75 f4 [64, 3, 3, 3]
0	0xbdc1fc8f	-0.09472
1	0xbc011396	-0.007878205
2	0xbdaae722	-0.08344866
3	0x3e25cb97	0.16190945
4	0x3d820853	0.06349244
5	0xbd81bc85	-0.06334785
6	0xbd41b9c8	-0.047296315
7	0x3e087b18	0.13328207
8	0x3db3d977	0.087817125
9	0x3d55a36a	0.052157797
10	0xbe0d2ef8	-0.13787448
11	0x3e2a0c13	0.16606168
12	0xbdec8ac7	-0.11549907
13	0x3dd93003	0.10604861
14	0x3e38fd7c	0.18065447
15	0x3dac0f96	0.0840141
16	0x3e187531	0.14888455
17	0x3e16c5de	0.14723918
18	0xbddc76dc	-0.10764858
19	0x3b0df551	0.0021661113
20	0x3d4ac7fd	0.04950713
21	0x3e2c3bd6	0.168197
22	0x3c4611cf	0.012089207
23	0xbe19bb6f	-0.15012906
24	0xbd5f3323	-0.054492127
25	0x3d505a94	0.050867632
26	0x3e18dd39	0.1492814
27	0xbdc04a4c	-0.09389171
28	0x3c5c54a8	0.013447918
29	0xbd9afaed	-0.075673915
30	0xbcfd836d	-0.030946458
31	0xbe17b61e	-0.14815566
32	0xbcf129a1	-0.029438796
33	0xbdb5cbe9	-0.088767834
34	0xbd174e1e	-0.036939733
35	0xbd0a59e3	-0.03377713
36	0xbd8c9d96	-0.06865995
37	0x3d4cb89d	0.04998075
38	0xbe34e848	-0.17666733
39	0xbd515e7f	-0.05111551
40	0xbe32ec4c	-0.17472953
41	0xbd6350a5	-0.05549683
42	0xbd8adee3	-0.067807935
43	0x3d74472c	0.059638187
44	0xbd283139	-0.041062567
45	0x3d9fc6ae	0.07801567
46	0xbe0a02d1	-0.13477637
47	0x3e30b20f	0.17255424
48	0xbd3b554f	-0.045735653
49	0xbe1dab8f	-0.15397476
50	0x3ce0e126	0.02745111
51	0xbe30829f	-0.17237328
52	0x3cb907bb	0.022586694
53	0xbe01c65f	-0.12673329
54	0xbe33d215	-0.17560609
55	0x3d06a25c	0.03286968
56	0xbe0b4962	-0.13602212
57	0x3d2b3b84	0.041804805
58	0xbdd1b953	-0.10240426
59	0x3dfecb72	0.12441148
60	0xbe14b77f	-0.14523123
61	0x3da83717	0.082136326
62	0xbdf270c8	-0.118379176
63	0xbd0486dd	-0.03235518
64	0xbe2a2128	-0.1661421
65	0xbc20dceb	-0.009818296
66	0xbd116270	-0.035494268
67	0xbc821f15	-0.015883962
68	0xbb808fd6	-0.0039233966
69	0x3d6a9583	0.05727149
70	0xbdd9cd88	-0.10634905
71	0x3c9b8fbd	0.018989438
72	0x3dc3155e	0.0952556
73	0x3dcefaca	0.10106428
74	0xbdaa43c1	-0.08313704
75	0x3d23ed26	0.040021084
76	0x3c4eb83c	0.012617167
77	0xbd1f9540	-0.038960695
78	0x3e2ba4e3	0.16762118
79	0x3e0d30af	0.13788103
80	0xbc339955	-0.01096185
81	0x3c1e2dcc	0.0096544735
82	0xbe0f2a79	-0.13981046
83	0x3e2db3e0	0.16963148
84	0xbdc2bb81	-0.0950842
85	0xbda67938	-0.081285894
86	0xbd58db91	-0.05294377
87	0x3ce20a76	0.027592879
88	0xbe228961	-0.15872718
89	0xbe450316	-0.19239458
90	0x3de491f7	0.11160653
91	0xbd6ee1aa	-0.05832068
92	0xbdf6c20e	-0.12048732
93	0x3e21c696	0.15798411
94	0x3e3e34f5	0.18574889
95	0xbcbffe99	-0.023436831
96	0xbd3ffec9	-0.04687384
97	0x3d665d50	0.056241333
98	0xbd1f57bc	-0.03890203
99	0x3d0ef01d	0.03489696
100	0xbd60dbc6	-0.054897092
101	0xbd76664f	-0.060156163
102	0x3e0dcce0	0.13847685
103	0xbd16b473	-0.036793184
104	0xbe30f1cb	-0.17279737
105	0x3dce0bde	0.10060857
106	0x3ce2c48e	0.027681615
107	0xbca26933	-0.019825554
108	0x3b94feaf	0.004546962
109	0x3da85cbb	0.08220812
110	0xbe315344	-0.1731692
111	0x3e135ff9	0.1439208
112	0xbbd6593a	-0.0065413984
113	0xbdd5bd32	-0.10436477
114	0x3d95d119	0.07315273
115	0x3de170d8	0.11007851
116	0x3d346a11	0.044046465
117	0x3b78426f	0.0037881394
118	0xbd12474c	-0.035712525
119	0xbe01903d	-0.12652679
120	0x3e2a266b	0.16616218
121	0x3d74fa04	0.059808746
122	0x3d871cf2	0.06597318
123	0xbca42d62	-0.020041171
124	0xbdca9889	-0.09892375
125	0xbe4133ae	-0.1886737
126	0x3e17bd0b	0.14818208
127	0xbdfe6694	-0.12421909
128	0x3e116e3d	0.14202209
129	0x3d37d18c	0.044877574
130	0x3b81a195	0.0039560297
131	0xbe35d3e3	-0.1775661
132	0x3ba0680b	0.0048952154
133	0xbc124a80	-0.008928895
134	0x3dbc9fd8	0.09210175
135	0xbdddcb87	-0.108298354
136	0x3cbcb01a	0.02303319
137	0x3e176db7	0.14787947
138	0xbaa0f04b	-0.0012278644
139	0xbd9378de	-0.07200788
140	0x3dd8f05b	0.10592719
141	0xbe337313	-0.17524366
142	0x3e0681b5	0.13135417
143	0x3c047b05	0.008085971
144	0x3d187b16	0.03722676
145	0x3de451fb	0.11148449
146	0xbe0e4489	-0.13893332
147	0xbdb16570	-0.08661926
148	0xbdc00e25	-0.09377698
149	0x3d807de8	0.06274015
150	0x3df4b2e2	0.11948182
151	0xbcfd295d	-0.030903513
152	0xbd078d28	-0.0330936
153	0xbda1621d	-0.07880042
154	0x3d63b73d	0.05559467
155	0xbdbdfd77	-0.0927686
156	0x3d69d5fb	0.057088833
157	0x3d16da13	0.036829066
158	0x3dbb7f2c	0.091551155
159	0x3e152c32	0.1456764
160	0xbdb53c43	-0.08849385
161	0xbe0f023e	-0.13965699
162	0xbd762d6f	-0.060101923
163	0xbd370b5c	-0.044688568
164	0xbdac5a57	-0.084156685
165	0x3e202ff4	0.15643293
166	0xbde8436f	-0.11340987
167	0xbdb163fb	-0.08661648
168	0xbd8177da	-0.06321688
169	0x3e3ee2c0	0.18641186
170	0x3c801dc6	0.015639197
171	0xbdf3f18d	-0.119113065
172	0xbdc86dd9	-0.09786577
173	0xbda8bef9	-0.0823955
174	0x3e394398	0.18092191
175	0x3ce0dde6	0.02744956
176	0xbe3bf180	-0.18353844
177	0xbe1f4785	-0.15554626
178	0xbe3b1dff	-0.18273161
179	0x3dc202d2	0.09473194
180	0xbdb3b5a6	-0.08774881
181	0xbdf37caf	-0.11889016
182	0x3d605136	0.05476495
183	0xbe3e1e91	-0.18566348
184	0xbe1ec75b	-0.15505736
185	0x3cda1fa8	0.026626423
186	0xbdd4bbb0	-0.10387361
187	0xbd6b6c2b	-0.057476204
188	0x3d2dde93	0.04244859
189	0x3cbdd37a	0.023172129
190	0xbc321266	-0.010868644
191	0xbe1af2d3	-0.15131693
192	0xbcfb8dc5	-0.03070725
193	0xbd6a3bf7	-0.057186093
194	0xbd81fe09	-0.063472815
195	0x3c02ed05	0.00799108
196	0xbcbb87ea	-0.022891957
197	0xbc89ab33	-0.016805267
198	0xbe35e053	-0.17761354
199	0x3e1d9211	0.15387751
200	0x3dbf4333	0.09338989
201	0xbe3cc6c7	-0.18435203
202	0xbdc131f0	-0.09433353
203	0x3d4c5e61	0.049894694
204	0xbe0d680a	-0.13809219
205	0x3e2c7490	0.1684134
206	0xbdac9342	-0.08426525
207	0x3cf669ff	0.03007984
208	0xbd8731ba	-0.066012815
209	0xbc9ad04d	-0.018898154
210	0x3d67d9a4	0.056604043
211	0x3d0ec691	0.034857336
212	0xbe30f8f4	-0.17282468
213	0x3df10f43	0.11770489
214	0x3e15d5e0	0.14632368
215	0xbd64ebc5	-0.05588891
216	0x3e139a33	0.14414291
217	0xbe1b958c	-0.15193766
218	0x3e046840	0.12930393
219	0x3dcda167	0.10040551
220	0x3d325669	0.04353944
221	0xbe2fea27	-0.17179166
222	0x3bfe2aad	0.007756552
223	0x3cf45838	0.029827222
224	0xbe087c64	-0.13328701
225	0xbcb89cb3	-0.022535658
226	0x3e2fce2d	0.17168494
227	0xbd8320cb	-0.06402739
228	0xbdf02abf	-0.11726903
229	0x3e4509cc	0.19242018
230	0xbb93eccf	-0.004514314
231	0x3dcac633	0.09901085
232	0x3ce4d62d	0.027934158
233	0xbe1c58c5	-0.15268238
234	0x3dfd1b2f	0.123587005
235	0xbd936c8d	-0.07198439
236	0x3d97e8cc	0.07417449
237	0xbd07e20b	-0.033174556
238	0x3da85d73	0.08220949
239	0xbcd5dc52	-0.026106033
240	0x3e2a0d8b	0.16606729
241	0xbd9da5cc	-0.07697639
242	0xbcb369ad	-0.021900976
243	0xbe053050	-0.13006711
244	0xbde65fd1	-0.11248744
245	0xbdc1bd53	-0.09459939
246	0x3d921ba6	0.0713418
247	0xbd9d4664	-0.076794416
248	0x3e1892e1	0.1489978
249	0x3dd0e0d9	0.10199136
250	0xbc93d317	-0.018044991
251	0x3e27943a	0.16365138
252	0x3e2c0b99	0.16801299
253	0x3dccc0d3	0.09997716
254	0x3b18c28e	0.0023309323
255	0x3d3eede5	0.046613593

onnx::Conv_76 f4 [64]
0	0xbe02691b	-0.12735407
1	0xbe3845ca	-0.17995372
2	0xbd23437e	-0.039859287
3	0xbdbaa928	-0.09114295
4	0xbd2ad134	-0.041703418
5	0x3dee65c8	0.11640507
6	0x3d5fb2f3	0.05461402
7	0xbc0c1c02	-0.008551599
8	0xbd0cbcb2	-0.03435964
9	0xbdbc66ce	-0.09199296
10	0xbe32715f	-0.1742606
11	0xbcf6ae97	-0.030112548
12	0xbddf61e9	-0.10907347
13	0x3e0c2167	0.13684617
14	0xbda8a7ea	-0.08235152
15	0xbe04a053	-0.12951784
16	0x3e3e4679	0.1858157
17	0x3e2f34fa	0.17110053
18	0x3e17bf3b	0.14819042
19	0xbd8c00b7	-0.06836074
20	0xbe2bf445	-0.167924
21	0xbe1e3736	-0.15450749
22	0xbceebeea	-0.02914377
23	0xbe26b16d	-0.1627862
24	0x3bff026c	0.007782271
25	0x3e209f96	0.15685877
26	0xbdf8a287	-0.12140375
27	0xbe0c76f4	-0.13717252
28	0x3e01f01e	0.12689254
29	0xbda7bcae	-0.08190285
30	0x3e23cc31	0.15995862
31	0x3db351f7	0.08755868
32	0xbcb88afb	-0.022527209
33	0x3dde5641	0.108562954
34	0x3dbbb9c0	0.091662884
35	0x3dbe0320	0.0927794
36	0xbdaf066e	-0.08546148
37	0x3e1a5a38	0.15073478
38	0xbb2e2e87	-0.0026578025
39	0x3e14cfec	0.14532441
40	0xbc1482df	-0.009064405
41	0x3d4e45d8	0.050359577
42	0xbdcac7b8	-0.099013746
43	0xbe428f0b	-0.18999879
44	0x3e115f4b	0.14196508
45	0xbdb90759	-0.090346046
46	0x3dbd19f8	0.09233469
47	0x3beb0533	0.0071722507
48	0x3ddcf132	0.10788192
49	0xbe2d9fcc	-0.16955489
50	0xbe38d2ca	-0.1804916
51	0x3d828c77	0.06374448
52	0x3e35ab3d	0.17741103
53	0xbd991032	-0.07473792
54	0x3be9b653	0.0071323304
55	0xbda74d6c	-0.08169064
56	0xbb5915f9	-0.003312467
57	0xbe317ca0	-0.17332697
58	0xbca17deb	-0.019713363
59	0xbdf52c53	-0.11971345
60	0xbe3bba4b	-0.18332784
61	0x3d7d6fc9	0.061874185
62	0x3e03e88c	0.12881678
63	0xbd65cea5	-0.056105275

onnx::Conv_78 f4 [64, 64, 3, 3]
0	0x3d0105e7	0.03149977
1	0x3d26256e	0.04056304
2	0xbc44f57b	-0.012021418
3	0x3ba2db03	0.004969956
4	0xbb31bd76	-0.0027120984
5	0xbba2084b	-0.0049448363
6	0x3d128c13	0.035778116
7	0x3ba1802b	0.004928609
8	0xbc78c56a	-0.015183786
9	0x3c344289	0.011002191
10	0xbcc4ed55	-0.02403895
11	0xbcecc812	-0.028903995
12	0xbb91d8c8	-0.004450891
13	0x3aba9223	0.0014234226
14	0xbc77e8bf	-0.015131175
15	0x3bb9a0bb	0.0056649125
16	0x3c0daec2	0.008647623
17	0x3bf1b739	0.007376578
18	0x3ccc924f	0.02497211
19	0xbd02e5dc	-0.031957492
20	0xbbc495b7	-0.0059992927
21	0xbb018b45	-0.001976685
22	0x3ce14354	0.027497925
23	0xbc1b042d	-0.009461445
24	0x3d0624e7	0.032750037
25	0xbcf22024	-0.029556341
26	0x3cfe6d57	0.031057997
27	0x3a5347bb	0.00080597
28	0xb9c9ae3e	-0.00038467528
29	0xbd1c7dd0	-0.03820592
30	0x3cadcd29	0.021215992
31	0x3c4a22ce	0.0123374
32	0xbd21dace	-0.03951531
33	0x3c377604	0.011197571
34	0x3d047ae6	0.032343768
35	0xbc97bcd6	-0.018522661
36	0x3cecf00c	0.028923057
37	0x3cd31f59	0.025771784
38	0xbc8593e2	-0.016305868
39	0xbc21055b	-0.009827937
40	0xbce5bc70	-0.028043956
41	0x3c4b6fe1	0.012416811
42	0x3cb5c076	0.0221865
43	0xbb978576	-0.004624064
44	0xbcc5bb72	-0.024137232
45	0x3caf9488	0.02143313
46	0x3c9971fe	0.018731114
47	0x3cc95164	0.024574943
48	0xbd164499	-0.036686514
49	0x3d146f18	0.03623876
50	0xbcd9a30f	-0.02656701
51	0x3c3119e2	0.010809394
52	0x3c4cd03d	0.01250082
53	0xbce390b8	-0.027778968
54	0x3c2bacb4	0.010478187
55	0xbc981cf6	-0.018568497
56	0x3c9d1e14	0.019179381
57	0x3d15abd4	0.03654082
58	0x3a75d66f	0.00093779614
59	0xbb95028f	-0.004547424
60	0xbb7c7d5d	-0.003852687
61	0xbd161d1f	-0.036648866
62	0xbd1f5944	-0.03890349
63	0xbce70067	-0.028198434
64	0xbce73e82	-0.028228048
65	0xbc6a0f89	-0.01428593
66	0x3d0094dd	0.031391967
67	0xb9cfa93c	-0.00039608206
68	0x3bcb777d	0.0062093125
69	0x3b777b1f	0.0037762595
70	0x3c390c07	0.011294371
71	0xbd0ad34c	-0.033892915
72	0xbd2931b4	-0.041307166
73	0xbc6b3959	-0.014356934
74	0x3b95a027	0.004566211
75	0xbaa3f34a	-0.0012508419
76	0x3c4d50ed	0.012531501
77	0x3c7a08f2	0.015260922
78	0xba135ad0	-0.0005621137
79	0x3d0aa20c	0.033845946
80	0x3d1623e0	0.036655307
81	0x3ca010e9	0.019539313
82	0xbb17771e	-0.002311177
83	0xbb94f0ef	-0.004545323
84	0x3bc41960	0.0059844702
85	0x3d01e098	0.03170833
86	0x3bffddf4	0.0078084413
87	0x3b57afc9	0.0032911173
88	0x3c18bb5a	0.009322012
89	0xbce05d46	-0.027388226
90	0x3ab2bb65	0.001363617
91	0x3cb2c7e3	0.021823829
92	0xbd121634	-0.035665706
93	0xbd079914	-0.03310497
94	0x3c702b55	0.014658769
95	0x3cff239a	0.031144906
96	0xbc3954af	-0.011311694
97	0x3c9dca26	0.019261431
98	0x3ca19e5b	0.01972883
99	0x3b6ea3f2	0.0036413637
100	0x3cdce392	0.026963983
101	0x3c2be7d4	0.010492284
102	0xbb44998f	-0.0029998755
103	0xbceebe92	-0.029143605
104	0xbae55455	-0.0017496446
105	0xbc2d6743	-0.010583702
106	0x3cccc64b	0.024996897
107	0xbcdea75a	-0.027179409
108	0x3c9e3b62	0.019315425
109	0x3d142220	0.036165357
110	0x3d210f96	0.039321505
111	0xbce647c4	-0.028110392
112	0xbbf6f557	-0.007536571
113	0x3b9265f0	0.0044677183
114	0x3c93ca38	0.018040761
115	0xbcab965b	-0.020945719
116	0xbcbd4faa	-0.023109276
117	0xbbffb0c4	-0.0078030545
118	0xbbec658a	-0.007214253
119	0x3b0f6361	0.0021879303
120	0xbc88b3bb	-0.016687265
121	0x3d0edf80	0.034881115
122	0x3c75876b	0.014985899
123	0x3c93ce4a	0.018042702
124	0x3bbf11c9	0.0058309776
125	0xbc1bef91	-0.009517566
126	0xbd274678	-0.04083869
127	0xbbdbd078	-0.006708201
128	0xbc66242a	-0.014046708
129	0xbcbabc29	-0.0227948
130	0xba2c3dc7	-0.0006570485
131	0xbc45e9eb	-0.012079696
132	0x3b5ae8f8	0.003340302
133	0x3ca71391	0.020395072
134	0xbb7ba55d	-0.0038398125
135	0x3bfa8446	0.0076451628
136	0x3d045cb6	0.03231498
137	0xbb79e06e	-0.0038128155
138	0x3ca6cc13	0.020360982
139	0xbcbab54b	-0.022791525
140	0x3d06aefd	0.032881726
141	0x3c48110e	0.012211097
142	0xbd2344a9	-0.0398604
143	0x3cc71901	0.024303915
144	0xbcfb8983	-0.03070522
145	0x3caecdc1	0.021338345
146	0xbc006d1a	-0.007838512
147	0xbb6908b4	-0.0035558166
148	0x3d0873dc	0.033313617
149	0x3d1254a9	0.03572527
150	0xbbcb5e85	-0.006206336
151	0x3d10d0f1	0.035355512
152	0xbcb3d330	-0.021951288
153	0xbd0d6535	-0.034520347
154	0xbcf17737	-0.029475791
155	0x3d03bf4a	0.03216485
156	0x3bdeeddf	0.006803259
157	0x3c55fc9e	0.013060717
158	0x3c75743b	0.014981325
159	0x3cdc4e6e	0.026892867
160	0xbd21c42b	-0.03949372
161	0xba73ac70	-0.00092954095
162	0x39ec5132	0.00045073923
163	0x3cb03a40	0.02151215
164	0x3cdf90f1	0.027290793
165	0x3cbf6ab7	0.023366315
166	0xbcb555ba	-0.022135604
167	0xbcb0b714	-0.021571673
168	0xbd28a147	-0.04116943
169	0x3cff8426	0.031190943
170	0xbc8d5865	-0.017254064
171	0xbd10dab2	-0.035364814
172	0xbc113630	-0.008863017
173	0xbcfdabe5	-0.030965755
174	0x3cce6a26	0.0251971
175	0x3c9bf0d7	0.01903574
176	0xbc6da8d2	-0.014505582
177	0xbd0f1b9c	-0.03493844
178	0x3cb6375e	0.022243198
179	0xbd179065	-0.03700294
180	0x3c382654	0.011239607
181	0x3c588c55	0.0132170515
182	0xbce41945	-0.02784408
183	0x3c0329b9	0.008005553
184	0x3cce2a4a	0.02516665
185	0x3d012477	0.031528916
186	0x3cede334	0.029039003
187	0xbb5f46b7	-0.003406925
188	0x3bbb1d5b	0.0057102866
189	0x3aadfe47	0.0013274633
190	0xbd003651	-0.0313018
191	0x3d1898a7	0.037254956
192	0x3d1dc0bd	0.038513888
193	0x3b22713b	0.002478673
194	0xbcb96f39	-0.022636043
195	0xbc5e9f4d	-0.013587785
196	0xbca93c86	-0.020658743
197	0x3c746670	0.014917001
198	0x3cdd7d19	0.02703719
199	0x3be4dc75	0.0069842883
200	0xbbe0128e	-0.0068381494
201	0x3c4e7b4c	0.012602638
202	0xbc2109eb	-0.009829025
203	0xbc0e3ded	-0.008681756
204	0x3baf3d86	0.0053479103
205	0xbd0ba8f1	-0.034096662
206	0x3be35515	0.006937633
207	0xbcadbeaa	-0.02120908
208	0xbcc67f2a	-0.024230558
209	0x3cfd4a8f	0.030919341
210	0x3d294f5b	0.041335445
211	0xbc8b0c85	-0.016973743
212	0x3d057c87	0.03258946
213	0xbd0514e4	-0.032490626
214	0xbcb766d7	-0.022387905
215	0xbc214c2f	-0.009844824
216	0xbbea92db	-0.00715862
217	0x3b18527e	0.0023242529
218	0x39ec5bb2	0.00045081746
219	0xbc417557	-0.011807761
220	0xbd169621	-0.036764268
221	0x3c9a2a8d	0.018819118
222	0xbcb2fbd0	-0.02184859
223	0x3cee9880	0.029125452
224	0x3c3f118d	0.011661899
225	0xbc59fcde	-0.013304917
226	0x3cbb575d	0.022868806
227	0xbcf9454e	-0.030428555
228	0xbce61655	-0.02808682
229	0xbcb7fba2	-0.022458855
230	0xbd04dce7	-0.03243723
231	0x3ccf0dba	0.0252751
232	0x3d249bc3	0.04018761
233	0xbcaec762	-0.021335308
234	0xbcaef81a	-0.021358538
235	0xbcc7efc1	-0.024406316
236	0xbc1f1340	-0.009709179
237	0xbd23e0f4	-0.040009454
238	0xbd0d7b64	-0.034541503
239	0xbd1b182c	-0.03786485
240	0x3c4b3edd	0.0124051245
241	0xbc8a356e	-0.01687118
242	0x3c9187da	0.017764974
243	0xbca6de01	-0.020369532
244	0xbc49d0f4	-0.012317885
245	0xbb3b45f3	-0.0028575629
246	0xbcf6755f	-0.030085264
247	0xbd14fab7	-0.036371913
248	0x3cec7f34	0.028869249
249	0xbb9be415	-0.004757414
250	0xbcf7e5cf	-0.030260948
251	0x3cca961c	0.02472978
252	0x3cf12b2b	0.02943953
253	0xbcdb4d53	-0.02677027
254	0x3cac5339	0.021035777
255	0xb93d6ec2	-0.00018065705

onnx::Conv_79 f4 [64]
0	0x3ca38a6a	0.019963462
1	0xbc8fe154	-0.0175635
2	0xbbf6a0e7	-0.0075265053
3	0xbd040aac	-0.03223674
4	0xba5512ba	-0.00081280957
5	0x3d257b6d	0.04040091
6	0x3ca632c1	0.020287873
7	0x3d079009	0.033096347
8	0xbc54bc40	-0.012984335
9	0x3d1d507d	0.038406838
10	0x3c1885de	0.00930926
11	0xbb3873c3	-0.0028145171
12	0xbd200bf5	-0.039073903
13	0x3c5b0bb4	0.013369489
14	0x3d144c5e	0.036205642
15	0xbd0e4679	-0.034735177
16	0x3d02c1a6	0.03192296
17	0xbb01c4c5	-0.0019801122
18	0x3b8325cd	0.004002309
19	0xbb3b2743	-0.0028557337
20	0xbc8fb059	-0.017540144
21	0xbb45a22f	-0.0030156483
22	0xbceb3683	-0.028712517
23	0xbd14a677	-0.036291566
24	0x3bc2e180	0.005947292
25	0xbd08f3e9	-0.033435736
26	0xbb8be372	-0.004269057
27	0xbc4c8023	-0.012481722
28	0xbccd8d45	-0.025091777
29	0x3d29f525	0.041493554
30	0xbc933ef8	-0.017974362
31	0xba904751	-0.0011007582
32	0x3cac8389	0.021058815
33	0xbd256015	-0.040374834
34	0x3d049cb7	0.032376017
35	0x3d2347fb	0.039863568
36	0xbcf9b4c9	-0.030481713
37	0xbd0f10db	-0.034928184
38	0x39d93539	0.0004142912
39	0x3d1f9b15	0.038966257
40	0x3a7fcd6c	0.0009758088
41	0xbcf2ab1e	-0.02962261
42	0x3d09d2f4	0.033648446
43	0xbc472e1b	-0.0121569885
44	0xbcfdc305	-0.030976782
45	0xbd132c23	-0.035930764
46	0x3cf0e657	0.02940671
47	0xbc99bca6	-0.018766712
48	0xbc6a6fe3	-0.014308902
49	0xbcc157d1	-0.023601444
50	0xbced413a	-0.028961767
51	0xbc0cee66	-0.0086017605
52	0xbc7c70cd	-0.015407753
53	0xbb091b13	-0.0020920679
54	0xbad4241a	-0.0016185076
55	0xbc6616e1	-0.014043541
56	0xbd08f902	-0.033440597
57	0x3c072f04	0.0082509555
58	0xbd185e92	-0.037199564
59	0xbd207ce7	-0.039181616
60	0xbb2a0338	-0.002594186
61	0x3ca79923	0.020458763
62	0xbcb2ee18	-0.021842048
63	0x3c5688c6	0.013094133

onnx::Conv_81 f4 [16, 64, 1, 1]
0	0xbcda6de8	-0.026663736
1	0x3deecee6	0.116605565
2	0x3d3d27d6	0.04618057
3	0x3d946161	0.07245136
4	0xbdba45f3	-0.09095373
5	0xbd506a3c	-0.050882563
6	0xbd0da09a	-0.03457699
7	0x3cd46ca2	0.025930706
8	0xbdd6c886	-0.104874656
9	0x3d93ac5a	0.07210608
10	0xbdb9fb2d	-0.09081111
11	0xbd5ed6f3	-0.05440421
12	0x3deb8ba1	0.115012415
13	0xbd09dbd3	-0.033656906
14	0x3c828635	0.015933136
15	0x3df2eb8e	0.11861335
16	0x3da56246	0.08075385
17	0x3dc2f662	0.0951965
18	0x3d1b9ef1	0.037993375
19	0x3dec2e13	0.115322255
20	0xbdd45596	-0.10367887
21	0x3dcc3cff	0.099725716
22	0xbd9eeb0e	-0.07759677
23	0x3d33b0f9	0.043869946
24	0x3dad3183	0.08456709
25	0xbdd9ce93	-0.10635104
26	0xbd880fe9	-0.066436596
27	0xbdd3250d	-0.10309801
28	0xbd845bbf	-0.06462812
29	0xbd01b6dd	-0.031668533
30	0xbd6e18c2	-0.05812908
31	0xbb014316	-0.0019723824
32	0x3caf1377	0.021371586
33	0xbdf5509e	-0.11978267
34	0x3dfa65f6	0.12226479
35	0xbc56c54a	-0.013108561
36	0xbde6ba10	-0.11265957
37	0x3dff57c6	0.12467913
38	0x3b8cbfb2	0.004295313
39	0xbdca18b0	-0.0986799
40	0xbd23064f	-0.03980094
41	0xbdd72ea1	-0.10506941
42	0xbd970f7c	-0.07376
43	0xbd86cf64	-0.06582525
44	0x3bf20b71	0.007386618
45	0xbd8a3377	-0.067480974
46	0x3d827bc9	0.063712664
47	0xbd8724c2	-0.06598808
48	0xbda89a7d	-0.08232591
49	0x3dc3792c	0.09544596
50	0xbde9f979	-0.11424536
51	0x3dff3894	0.12461963
52	0xbda73dc9	-0.081660815
53	0x3d1b99e5	0.037988562
54	0x3cc95b6e	0.02457973
55	0x3d8aa391	0.06769479
56	0xbde8d844	-0.113693744
57	0x3d967875	0.07347194
58	0x3b96d6cf	0.004603244
59	0x3d6ef1ee	0.05833619
60	0x3d7e05fd	0.06201743
61	0xbb3e3782	-0.0029024784
62	0xbd148c93	-0.036266875
63	0xbc7df04d	-0.015499187
64	0x3dd92695	0.10603062
65	0x3dea170d	0.11430178
66	0xbbdba5b8	-0.006703105
67	0x3d149b5f	0.036280986
68	0x3dd64f6e	0.10464369
69	0xbcd88a21	-0.026433052
70	0x3d74a770	0.059729993
71	0xbd97a62e	-0.07404743
72	0xbd314cda	-0.043286182
73	0x3982c5d5	0.0002494293
74	0xbd77a517	-0.060460176
75	0xbd2cec03	-0.042217266
76	0x3d237742	0.039908655
77	0xbd5e0c63	-0.05421103
78	0xbcd0849c	-0.025453858
79	0xbc5e2c77	-0.013560406
80	0xbda36124	-0.079775125
81	0xbde518ab	-0.11186346
82	0x3c848f25	0.016181538
83	0xbdd2be05	-0.102901496
84	0xbd756a0b	-0.059915584
85	0xbc628f86	-0.013828164
86	0xbdef1326	-0.11673574
87	0xbd52ddf7	-0.051481213
88	0xbcac733f	-0.021051047
89	0x3c5e8267	0.013580895
90	0x3d917f6e	0.071043834
91	0xbdc19cc6	-0.0945373
92	0x3dea8ed7	0.11453026
93	0xbde43a25	-0.11143903
94	0xbddd5e21	-0.10808969
95	0x3d2c487b	0.04206131
96	0x3df22a41	0.118244655
97	0xbcc5096f	-0.02405235
98	0x3db62dac	0.0889543
99	0xbd97cc58	-0.07412022
100	0x3cf39b58	0.02973716
101	0x3b5740b9	0.0032844974
102	0xbce3a1fd	-0.027787203
103	0x3d6d4a32	0.057932086
104	0x3c9181e0	0.017762125
105	0xbda68cfb	-0.08132359
106	0xbdb26f81	-0.08712674
107	0xbcc90026	-0.024536204
108	0x3d1b6da5	0.037946362
109	0x3df16419	0.1178667
110	0x3dba5271	0.09097756
111	0x3d91307e	0.07089327
112	0xbda941c2	-0.082644954
113	0x3dc1ed20	0.09469056
114	0x3dfb71b3	0.12277546
115	0xbd1bd3e9	-0.03804389
116	0xbbe022b6	-0.0068400754
117	0xbdb1ee3c	-0.08688018
118	0xbdd6cf14	-0.10488716
119	0x3dce7ffe	0.10083006
120	0x3c0b81f2	0.008514868
121	0x3caf03bf	0.021364091
122	0xbd84aa9e	-0.06477855
123	0x3ccccbb5	0.024999479
124	0xbd0fe4e5	-0.0351304
125	0x3d50cc03	0.05097581
126	0x3ce3ffdd	0.027831966
127	0xbde44ebd	-0.11147831
128	0x3da7a973	0.08186617
129	0xbd5743b5	-0.052554805
130	0xbd827eed	-0.063718654
131	0x3c0af9c2	0.008482398
132	0x3d862818	0.06550616
133	0x3c4516bf	0.012029349
134	0xbdea6457	-0.114449196
135	0x3d1fdabc	0.03902696
136	0x3dac25f4	0.084056765
137	0x3d03f8e9	0.0322198
138	0xbdb8f929	-0.090318985
139	0xbd29d58c	-0.04146342
140	0x3dd32f1f	0.10311722
141	0x3dbb7db6	0.09154837
142	0xbcfc00dd	-0.03076213
143	0x3dc30aee	0.09523569
144	0xbd9f93ee	-0.07791887
145	0x3d56cb72	0.052440114
146	0xbd4e8b50	-0.050425828
147	0xbcfd7345	-0.030938754
148	0x3dc429ac	0.09578261
149	0xbdc87a94	-0.09789005
150	0xbd099c73	-0.033596467
151	0x3c52f75b	0.012876357
152	0x3cf2a530	0.029619783
153	0xbdec9a86	-0.115529105
154	0x3ca5d132	0.020241354
155	0xbddf07a3	-0.108901285
156	0xbd8d4a78	-0.068989694
157	0x3d393d4f	0.045224484
158	0xbdf19cd9	-0.117974944
159	0xbdec3f42	-0.11535503
160	0x3d9a34a7	0.07529574
161	0x3d94d69f	0.07267498
162	0x3d70f911	0.05883128
163	0xbde0cb82	-0.10976316
164	0xbcdcf8bf	-0.02697408
165	0xbdc5db7d	-0.09661005
166	0xbdfb48b2	-0.12269725
167	0xbda538c6	-0.08067469
168	0x3db96deb	0.09054168
169	0x3d38774f	0.045035657
170	0x3df71631	0.120647795
171	0x3cd4214a	0.02589478
172	0x3dd2e8df	0.10298323
173	0xbd4fd034	-0.050735667
174	0xbd8204c1	-0.06348563
175	0xbd19e466	-0.037571333
176	0x3d941549	0.07230622
177	0xbd314266	-0.043276213
178	0xbdfc860f	-0.12330257
179	0xbdade5dd	-0.084911086
180	0xbdac8b91	-0.08425058
181	0x3d2d0c37	0.042247977
182	0xbbe6fb34	-0.0070489887
183	0x3c5781c9	0.013153502
184	0xbd559452	-0.052143402
185	0x3d0cdf72	0.03439278
186	0xbdd5a102	-0.104311004
187	0xbde05974	-0.10954562
188	0xbdc1e6ce	-0.094678506
189	0xbded94d8	-0.11600655
190	0xbb62f2f6	-0.003462968
191	0x3d7c3a99	0.06157932
192	0xbded2024	-0.11578396
193	0x3cf92916	0.0304151
194	0x3cfb1a8e	0.03065231
195	0x3d9c0e7d	0.07619951
196	0xbd0c32c6	-0.03422811
197	0xbd3498e1	-0.04409111
198	0x3dfe00d5	0.124025024
199	0xbdfd47c7	-0.12367206
200	0x3de8e568	0.11371881
201	0x3db469e3	0.08809259
202	0xbcc61687	-0.024180664
203	0x3c0ca7e2	0.008584948
204	0xbd333229	-0.04374901
205	0xbd95d2b7	-0.07315581
206	0x3dc69cbb	0.09697863
207	0xbdd09106	-0.10183911
208	0x3d8d46dc	0.06898281
209	0x3de4b557	0.111674
210	0xbb902d91	-0.004399963
211	0x3d52be57	0.051451053
212	0xbc905ad9	-0.017621445
213	0x3df51db6	0.119685575
214	0xbdbbfb62	-0.09178807
215	0x3d6513f5	0.055927236
216	0xbbbfe341	-0.005855948
217	0xbdac51c9	-0.08414037
218	0xbc951177	-0.018196804
219	0xbd9e7de0	-0.077388525
220	0x3de89f16	0.11358468
221	0x3dab9be6	0.08379345
222	0xbc7de39d	-0.015496162
223	0x3dc7ca7a	0.09755416
224	0xbd59b745	-0.053153295
225	0x3d09683f	0.033546682
226	0x3ddd4d35	0.10805742
227	0x3ce40d75	0.027838448
228	0x3d9293be	0.07157086
229	0x3cdb55d8	0.026774332
230	0xbc17d9be	-0.009268222
231	0x3d999d22	0.07500674
232	0xbd05b820	-0.0326463
233	0x3ce3f44d	0.027826453
234	0x3da4de7c	0.08050248
235	0x3d90ed90	0.070765615
236	0x3dd29353	0.10282006
237	0xbdf6a1c9	-0.12042577
238	0xbdd06bb0	-0.1017679
239	0xbd21f3eb	-0.03953926
240	0x3d4380c8	0.047730237
241	0xbd8c42d8	-0.06848687
242	0xbb26b889	-0.0025439581
243	0x3c528c5b	0.012850846
244	0x3d83dab3	0.06438198
245	0x3c618c06	0.013766294
246	0x3d375c70	0.04476589
247	0x3dd8ffdf	0.105956785
248	0xbd019221	-0.0316335
249	0xbd6282da	-0.05530057
250	0xbdd57320	-0.10422349
251	0xbd0760f8	-0.03305146
252	0x3dc09a57	0.09404438
253	0xbd317282	-0.043322094
254	0x3dd0fdc1	0.1020465
255	0x3dabde62	0.083920255

onnx::Conv_82 f4 [16]
0	0xbd69ca63	-0.057077777
1	0x3df94b40	0.12172556
2	0xbdfb916d	-0.12283597
3	0x3db820a4	0.08990601
4	0x3d3b708a	0.045761622
5	0xbc718ac1	-0.014742554
6	0x3c7908be	0.015199838
7	0x3bf8d76e	0.0075940406
8	0x3dc77323	0.097387575
9	0xbdcb47e5	-0.09925822
10	0xbd8d8fb6	-0.06912176
11	0xbddcd7b2	-0.10783328
12	0xbd2df6cf	-0.042471703
13	0xbd145427	-0.036213066
14	0xbc9996d6	-0.018748682
15	0xbb373b84	-0.0027959058
