models/lite_face.onnx (onnx, 692134 bytes, 20 tensors)

sequential.31.weight f4 [256, 256]
00000000: b44f 8b3c dc1b 903c 9c94 47bd e0ac 523d
00000010: 9e40 4cbd ec0d b63c a082 fb3b 6aab 5b3d
00000020: 7021 fdbb bc94 36bd 3812 7d3d 6e3d 79bd
00000030: 401e b7bb 3899 0cbd c0b5 a53a 6ef0 683d
00000040: 28bd 6b3c c80d 79bc e652 273d ba88 2bbd
00000050: 5451 f83c 6674 023d 04cf 98bc 7ec8 50bd
00000060: 8cd8 52bd f8e0 563d d0e8 cabb 60b8 f63b
00000070: 8027 e73b a289 0c3d 3638 64bd 066a 44bd
00000080: 6c66 cebc 7e63 60bd b4aa e4bc 68c3 cc3c
00000090: d88c 61bd d2bb 4b3d 0825 08bc a47d 443d
000000a0: b055 8ebc 12f8 59bd e8ab 183c 9882 76bd
000000b0: 6e21 313d 28bb 5fbc 94b1 afbc 2883 15bc
000000c0: c851 28bd fa6f 34bd e0e2 7ebc d015 44bd
000000d0: 2e73 7f3d 5853 0fbc 62fb 743d 5259 683d
000000e0: 3898 e0bc 3099 6a3d ac80 913c a04f 873c
000000f0: 104e 92bb 8007 4b3c 581a 2dbd e8a5 cebc
00000100: 0e82 77bd 5072 20bc c6d5 593d 827a 69bd
00000110: eaf1 5bbd 6a89 063d b6af 5e3d ea59 27bd
00000120: f06d df3b b4b2 8cbc 225a 133d ee33 1dbd
00000130: fc0c 83bc 8e00 24bd 505f f8bc 40a9 cf3a
00000140: deb1 79bd 1e4e 513d 4c1b ee3c 4892 5bbd
00000150: f87c 0cbd c0c7 f9ba 8628 633d a04e 94bb
00000160: c043 cdbb ac8d fdbc 682a 75bc 7c53 4ebd
00000170: 8034 5abc a8c1 ed3c f83e 253d 0815 ccbc
00000180: 80d1 b43b 8449 35bd b0f8 3e3c 8075 183b
00000190: a00a fabc d058 23bc 2898 0a3c 9e24 293d
000001a0: 5ee8 3d3d 8c24 c4bc 2a96 4fbd 9812 ae3c
000001b0: eecd 5a3d f677 243d 78d6 61bd b0de 7e3d
000001c0: a615 2c3d 708e c23c 5622 573d dc38 c93c
000001d0: 3cf8 aabc 0209 53bd 2004 c83b dc73 43bd
000001e0: 4096 9fba 00d2 393c a092 27bd a0ca 3c3b
000001f0: 0091 03bd 10df 53bd 8085 d33b c4c1 50bd
00000200: ec2d 29bd 1c56 e83c 0070 05b8 0a36 19bd
00000210: 0ad1 7d3d ca92 4c3d 14eb 3b3d 100e 95bc
00000220: dc0b 6c3d 0811 573d 205c 95bb 583f 15bc
00000230: d0cf cdbc 82aa 20bd 9817 733c 84eb b5bc
00000240: 10af d3bb dc88 69bd 00ec fbba 1c42 bf3c
00000250: ee6d 6c3d 80fd 2b3d f88c 4b3d 6460 4ebd
00000260: e0cb d63b 2018 f13b 2027 99bb a86a f2bc
00000270: d4eb 0b3d e0c4 55bb 2c3c 4dbd ec2a 83bc
00000280: cc1e 2e3d b486 acbc ae2d 6bbd 00d0 2bb9
00000290: 36b3 04bd 067f 7f3d 5017 60bd 30c1 233c
000002a0: 2aba 6d3d 9aa3 0ebd 2486 0abd 68d3 7b3d
000002b0: 08f3 81bc 2c35 25bd 9875 2c3d 78c9 99bc
000002c0: ced1 043d 0c47 72bd 6093 643d 6c8b 01bd
000002d0: 664d 5e3d fcac 1cbd ecde 3b3d 9a5b 7cbd
000002e0: 9c98 683d 1ac3 5a3d 34f4 553d e8a2 153c
000002f0: 3a50 5e3d 1876 76bd 805d 0ebd 90f5 0dbc
00000300: 6269 393d 5091 443c 0c7b c2bc 0ca4 6ebd
00000310: 68e3 133d 80ac cdba 88bb cc3c dc11 6fbd
00000320: e0e2 34bb e0e2 743d b0f9 cbbc 000e 1ebb
00000330: ce82 55bd f04c 24bd f8c2 7abd cc00 183d
00000340: ce3b 683d 708f 243d 4c3b 7cbd 5889 7fbd
00000350: 740a bcbc c07a 1dbc 0290 2bbd 20a4 61bb
00000360: 400a a53a 0459 f73c b8c9 2b3d d4a8 da3c
00000370: 8055 53bd a26b 233d 409a e7bb d81f dfbc
00000380: a074 c33c 80df 4eba 4cc7 d2bc 8078 8e3a
00000390: 0899 3b3d b655 333d 6e35 39bd 4277 19bd
000003a0: fcce 93bc d085 43bc 90c0 2cbc ba8e 35bd
000003b0: b023 9a3c 7830 5d3d 807e 36bd 1ea2 573d
000003c0: 800e b3bc f008 1cbd 8868 a1bc e809 07bd
000003d0: 00cb 623d 127b 11bd 4c6f 29bd bea5 2dbd
000003e0: 509f 71bd 9409 723d 1c23 fcbc 60cc 483b
000003f0: d4c2 f03c 00c8 71bc 2801 c33c c04a 1cbd
0.017005779 0.01759141 -0.04872571 0.051434398 -0.04986631 0.022223435 0.007675484 0.05363027
-0.0077249333 -0.044575438 0.061784953 -0.0608496 -0.005588323 -0.03432581 0.0012642667 0.056869917
0.01438836 -0.01520104 0.040850542 -0.04187844 0.030312218 0.031849287 -0.0186534 -0.050972454
-0.051476046 0.05246064 -0.006192304 0.0075293034 0.0070542693 0.034310944 -0.05571767 -0.047952674
-0.025195323 -0.054782383 -0.027913429 0.02499552 -0.05506596 0.049739666 -0.00830961 0.047971383
-0.017374843 -0.053215094 0.009318329 -0.060183138 0.04324477 -0.013655461 -0.02144698 -0.009125508
-0.041093618 -0.0440521 -0.015557021 -0.047872365 0.062365703 -0.008747898 0.05981005 0.056725807
-0.027416334 0.057274997 0.01776155 0.01651746 -0.004464872 0.012391925 -0.04226145 -0.025225595
-0.060426764 -0.009792879 0.053182386 -0.0570016 -0.053697504 0.032845892 0.05436679 -0.040857233
0.0068185255 -0.017175056 0.03597463 -0.038379602 -0.015997402 -0.04003959 -0.030318886 0.0015843287
-0.060960643 0.05109989 0.02906575 -0.0536063 -0.034298867 -0.0019056723 0.055458568 -0.0045259744
-0.00626418 -0.030951343 -0.014963724 -0.050372586 -0.013318181 0.029023007 0.040343255 -0.024912372
0.0055181384 -0.044259563 0.011655971 0.0023263395 -0.030522645 -0.009969905 0.008459128 0.041294686
0.04636418 -0.023943208 -0.050680317 0.0212491 0.053419046 0.040153466 -0.055136174 0.06222409
0.042012833 0.02374956 0.05252298 0.024563245 -0.02087032 -0.051522262 0.0061040074 -0.047717914
-0.0012175515 0.011341572 -0.040911317 0.0028807297 -0.032120705 -0.0517264 0.0064551234 -0.05096604
-0.04130356 0.028361373 -3.181398e-05 -0.03740505 0.061966933 0.049944676 0.045878485 -0.018195182
0.057628497 0.052506477 -0.0045581013 -0.009109341 -0.025123507 -0.03922511 0.014837168 -0.02220703
-0.006460078 -0.057015285 -0.0019220114 0.023346953 0.057722025 0.041989803 0.049694985 -0.050384894
0.0065550655 0.0073576123 -0.0046738535 -0.029591873 0.03416045 -0.0032618567 -0.050106212 -0.016011678
0.04250984 -0.021060325 -0.05741661 -0.00016385317 -0.03239747 0.062377 -0.054709733 0.00999479
0.058038868 -0.03482399 -0.033819333 0.06148091 -0.015862957 -0.04033391 0.042104334 -0.018772826
0.032426648 -0.059149787 0.05580461 -0.031627104 0.05427303 -0.03825091 0.04586689 -0.061610796
0.056786165 0.05340872 0.052234843 0.009133078 0.05427573 -0.060171217 -0.034757137 -0.008664504
0.045266517 0.011997536 -0.023740314 -0.058261916 0.036105543 -0.0015691668 0.024991766 -0.05836664
-0.0027601048 0.059786677 -0.024899334 -0.0024117231 -0.0521267 -0.040112436 -0.061221093 0.037110135
0.05669766 0.040175855 -0.061579987 -0.06238684 -0.022954203 -0.009611785 -0.041885383 -0.0034430102
0.0012591556 0.030193813 0.04194042 0.026691832 -0.05159521 0.03989757 -0.0070679486 -0.027236864
0.023859322 -0.00078915805 -0.025729798 0.0010869652 0.04580024 0.043782912 -0.04521697 -0.03746725
-0.018043034 -0.011933759 -0.010543957 -0.044325568 0.018815845 0.0540013 -0.044554234 0.05264484
-0.0218575 -0.03809446 -0.019703165 -0.03296843 0.055369377 -0.03551776 -0.041365907 -0.042394392
-0.058989823 0.059091166 -0.03077846 0.0030639395 0.029389776 -0.014757156 0.023804262 -0.038157225

sequential.31.bias f4 [256]
00000000: e0cd 663d ba74 3bbd f6ac 5ebd 1c12 a53c
00000010: c6c5 7fbd c06a 77bc 480f 46bd 4c4a b73c
00000020: fc3b c63c 14b5 26bd 32e5 6f3d 38e6 7dbd
00000030: 8822 513c c0f7 733b 003f 2e3b 2475 6a3d
00000040: f852 47bd 4c14 283d 70af f83b 1c58 c03c
00000050: 005d abb9 0aff 6abd b055 6ebd 9e44 2c3d
00000060: 6a76 0f3d 921f 253d a470 39bd cccf 813c
00000070: 765f 63bd a81c 9cbc 10fc 633c be86 3fbd
00000080: ee5b 70bd 2275 793d f8ea b5bc 9012 083d
00000090: 0c44 613d 940a 233d 280b 24bd 00fa eb39
000000a0: 40c7 453b 3cf7 a53c be74 543d 8015 25ba
000000b0: 5ee2 6dbd e87b 0f3d 0006 d7bc 4423 c6bc
000000c0: 2c1f 133d 4298 4e3d 5096 5dbc 805b 87ba
000000d0: 684a bf3c 009f e8b9 fa02 323d 9e17 253d
000000e0: 32bb 7b3d 00c0 4ab7 90c2 acbc ac3d 12bd
000000f0: 2c69 fabc 5e1e 133d 1cf8 3d3d 9c98 f53c
00000100: ea7e 3ebd 00b6 fdb9 0e49 573d 2027 fb3b
00000110: 600c 66bc 50b9 903b e830 3c3d bc08 30bd
00000120: b6d6 4a3d 1ac3 383d 9c67 3dbd c87c 233d
00000130: 58b3 d2bc 7c27 a3bc 440d ea3c 00ec c3b9
00000140: 8074 5f3c 66fd 063d ec5b c03c 4023 0ebb
00000150: 0ea8 7cbd 1001 3bbd 2030 0bbb e09d 7d3c
00000160: 5002 c9bb 66a9 43bd 7c1d fe3c e0f1 bc3c
00000170: 7438 bfbc 1a6d 33bd aae7 69bd d626 633d
00000180: acde 6bbd c480 613d c86f 843c ec51 80bc
00000190: 22cb 59bd d01b 6a3c b6eb 07bd d8d7 80bc
000001a0: c825 343d d00d 86bb c0e9 cd3b ca49 003d
000001b0: 64ed efbc b4bb 9f3c 8a3f 3b3d ec7a d83c
000001c0: 8c76 3b3d 74f6 4cbd 4cce 58bd 0abb 313d
000001d0: 8a94 4d3d ac91 3d3d f0c3 ebbb 24cb 563d
000001e0: 2214 143d 0a93 4c3d 88c3 563c d2b6 1fbd
000001f0: e634 3a3d 24b7 853c cc8a 71bd 9881 cd3c
00000200: e4e5 08bd 2826 373d fa21 443d b098 e1bc
00000210: 701f 90bc 4c91 843c bc8e d73c a409 57bd
00000220: 400a 36bc 9a18 1c3d d23b 76bd f6f1 75bd
00000230: 0835 0b3d f0bd 88bc 1409 4bbd c6db 4abd
00000240: f24d 4abd 8e7a 54bd 8caf 933c dc7b 1c3d
00000250: e0f0 f63b a00b b5bb 7ce6 373d 6e20 76bd
00000260: 8806 2dbc 5642 723d bae3 453d 328e 123d
00000270: 8828 333c 967f 583d 205d 593b 9a59 0cbd
00000280: facd 2b3d 5419 a93c 440f 85bc ccdd 433d
00000290: 88aa 26bc 1865 2dbc 2464 06bd 80fd b5bb
000002a0: c86c 02bc 58e7 213c c87d 21bc e09d 833b
000002b0: 08a8 193c 00ac 19b9 b8d8 5cbc 44e5 ce3c
000002c0: 3a2a 6e3d 0cfc 9e3c 6ca7 0c3d e0ad 88bc
000002d0: cc18 6fbd e881 d83c 0655 2e3d 181b f93c
000002e0: 9032 043d d883 f03c e0f0 613d 82da 093d
000002f0: f87a 84bc 9089 fabb b058 c53b d039 6e3c
00000300: c873 263d 38c9 863c 3879 3ebc 58ff 14bd
00000310: b43a 16bd 98c0 893c e0a4 d23b 1064 df3b
00000320: 3865 583d f09f 25bd d2d7 52bd 7ac7 3fbd
00000330: 805a 583a 80e7 8bbb feec 45bd 00d0 d73c
00000340: 5076 45bc 0049 ba3c 8662 523d 4028 cdbc
00000350: 1824 023d 701c ea3c 084f 0a3c ce23 25bd
00000360: 00f6 ec39 76dd 3abd 28af 88bc 045b 0b3d
00000370: 0674 663d 687c 30bd c826 6d3d 801d 553d
00000380: f4f0 8dbc b491 b1bc 28b6 1f3d f650 5bbd
00000390: 1092 61bd 94eb 84bc 808c bf3c 7275 3dbd
000003a0: 8875 a73c 1633 30bd 8019 65bd 7ea5 51bd
000003b0: aabb 68bd 34b9 88bc 129a 3c3d 30d9 3abd
000003c0: dc6b 2b3d 7468 3f3d 88f6 5ebd 3a13 7cbd
000003d0: 70ff 8dbb 6808 39bc aceb ce3c fc7a 023d
000003e0: 2625 6abd 3e24 6d3d 0e66 51bd 9e8c 0e3d
000003f0: 8270 673d 70c2 01bc 9871 3e3d 0c0f fe3c
0.05634868 -0.045765616 -0.054364167 0.020150237 -0.06244447 -0.015101135 -0.048354417 0.022374295
0.024198525 -0.040700033 0.058568187 -0.06198713 0.012764581 0.0037226528 0.0026587844 0.05724062
-0.04866311 0.04103498 0.007589273 0.023479514 -0.00032684952 -0.05737213 -0.058187187 0.042057626
0.035025038 0.04031331 -0.045273438 0.015846156 -0.05551096 -0.019056633 0.013915077 -0.04675936
-0.05868142 0.060902722 -0.022206768 0.033220828 0.054996535 0.03980501 -0.040049702 0.00045008957
0.0030178577 0.020259492 0.051869147 -0.0006297454 -0.05807721 0.035030276 -0.026247978 -0.024186738
0.0359184 0.050438173 -0.013524607 -0.0010326952 0.02335091 -0.00044368953 0.04345987 0.040305726
0.06145782 -1.2084842e-05 -0.021088868 -0.035703346 -0.030567728 0.035917632 0.046379194 0.029979996
-0.046507753 -0.0004839152 0.052559905 0.007664576 -0.014041036 0.004416622 0.045945078 -0.04297708
0.04952117 0.04510794 -0.046241388 0.039913923 -0.025720283 -0.019916289 0.028570779 -0.00037369132
0.013638616 0.032956503 0.023481332 -0.002168849 -0.061683707 -0.04565531 -0.0021238402 0.015479535
-0.006134309 -0.047768973 0.031019919 0.023064554 -0.023342349 -0.04380522 -0.057105698 0.05545696
-0.057585403 0.05505444 0.016166583 -0.015664063 -0.05317224 0.014288858 -0.033183776 -0.015727922
0.043981344 -0.004091002 0.0062839687 0.03132037 -0.029288001 0.019498684 0.045714892 0.026425801
0.045767352 -0.050039724 -0.052931115 0.043391265 0.050190486 0.0462815 -0.0071949884 0.052439824
0.036152013 0.049944915 0.013108142 -0.03899271 0.045460604 0.01632268 -0.058970258 0.02508621
-0.033422366 0.044714123 0.047883965 -0.027538627 -0.017593116 0.016182564 0.026313178 -0.05249943
-0.011110842 0.0381094 -0.060115643 -0.060045205 0.03398612 -0.016692132 -0.049569204 -0.049526
-0.04939074 -0.05187469 0.018028043 0.03820406 0.0075360388 -0.0055250674 0.04489754 -0.06008952
-0.010560639 0.059145294 0.04831288 0.03578014 0.010934956 0.05285605 0.003316708 -0.03426514
0.04194448 0.02064196 -0.01624263 0.047818944 -0.010172494 -0.010583185 -0.032810345 -0.005553901
-0.007960506 0.009881817 -0.009856649 0.004016623 0.009378441 -0.00014655292 -0.013479404 0.025255807
0.05814574 0.019407295 0.034339353 -0.016684473 -0.058373258 0.026429132 0.042561553 0.030408427
0.032274783 0.029359743 0.055161357 0.03365565 -0.016171917 -0.0076457933 0.0060225353 0.014540151
0.04063776 0.01645337 -0.0116255805 -0.036376327 -0.036677077 0.016815469 0.006428346 0.0068173483
0.052830905 -0.04043573 -0.051475354 -0.046821095 0.00082532316 -0.0042695403 -0.048321716 0.0263443
-0.012052134 0.022739887 0.05136349 -0.025043607 0.031772703 0.028578013 0.008441694 -0.04031735
0.00045196712 -0.045621358 -0.016685084 0.034022346 0.056262992 -0.043087393 0.057898313 0.052030087
-0.01732681 -0.021675922 0.038992077 -0.053544007 -0.055070937 -0.016225614 0.023382425 -0.046254583
0.020441785 -0.04301747 -0.05593252 -0.051183216 -0.056819595 -0.016689874 0.04604537 -0.045617282
0.04185091 0.046730474 -0.05443433 -0.061541773 -0.004333429 -0.011293508 0.025258861 0.03185557
-0.057164334 0.05789589 -0.051122718 0.03480207 0.05650378 -0.007919893 0.04649505 0.031013034

sequential.33.weight f4 [32, 256]
00000000: 405c 103d f04f 773c 50fe 43bd 0c7c f3bc
00000010: e229 273d c2c5 2c3d bce7 5dbd 5649 4d3d
00000020: 945e aabc 064c 04bd 10fe 343d 1405 0b3d
00000030: 90ab ff3b 8afb 31bd e644 3f3d b87e 0abd
00000040: d008 f43c 267a 08bd bcf7 283d 88a2 00bd
00000050: 202f d4bc c473 a8bc 6881 2a3c 845c 1d3d
00000060: 00a2 36bb 34b6 2ebd b6d2 783d 00c2 d03a
00000070: 50b2 63bc 2c73 80bc 605e 7abd 0831 463d
00000080: 7a57 5f3d 48c8 43bc e0e5 62bc a87f 5c3c
00000090: 3851 873c 9af9 02bd d81b 48bd e0ac 65bc
000000a0: ca9c 143d 382b b43c 8eb6 24bd b8b3 a73c
000000b0: 1813 2d3d 84ca da3c 0c4b acbc a81d 6abd
000000c0: c043 ff3b 6866 1abc 4208 083d ea12 1b3d
000000d0: 482b 113c a083 5cbb 28f1 863c e49c 4cbd
000000e0: 2c7c 3ebd e808 b03c 2ef0 353d 786d 483d
000000f0: 0e0e 7dbd a8e2 78bd 2621 79bd c837 39bc
00000100: fac4 12bd bc2c 543d 4a6d 4b3d 7060 1a3c
00000110: 7081 6b3d 90c0 febb 203d 983c 60b4 083b
00000120: 683d 3bbc 7e8f 2dbd 00a2 89b9 96b1 243d
00000130: 50c9 b3bc 40a2 bc3b a034 07bd f022 0dbc
00000140: 0894 55bc c636 003d 6063 fbbb 6882 f4bc
00000150: 5a04 34bd fad0 41bd 22b6 2c3d d67f 753d
00000160: 308a 393c 4070 eabb b889 4f3d 8024 2cbc
00000170: 2095 9d3b acc4 cc3c 6c80 7dbd 9482 2d3d
00000180: 685e 613c b0f2 943c 5e65 01bd dc70 7bbd
00000190: 20f8 e5bc 5849 2e3c d40a 8cbc 4c08 41bd
000001a0: 0089 a4b9 beb4 5abd 40fc 963a 8005 3a3c
000001b0: bc0c bd3c a04d 0fbc c0aa 123b 00dd 1a3b
000001c0: 28ab 61bc e8fb 713d 18f9 2dbd 0c58 a1bc
000001d0: 54d6 eebc 1009 2e3d acf4 bb3c b8e1 59bc
000001e0: f03b d13b 344d e13c c263 103d ce64 573d
000001f0: d000 113d 1a03 0ebd a2d6 5abd fa4d 253d
00000200: 0096 e5b9 60c2 a33b 763f 6dbd 80ca abbc
00000210: 0ee2 1d3d 8098 a13c 000c 00b9 1cf8 fdbc
00000220: 80a2 483c d051 00bc 8099 e33c d886 84bc
00000230: 602b a0bb d637 723d 5809 383c 2053 7abb
00000240: a6bb 253d 80cf 7d3b 5890 ef3c a865 4ebd
00000250: 04ce 6fbd b28e 0ebd 40a5 cd3c 48ca 523c
00000260: 441d 6f3d 48f0 2cbc 30d8 873b 7cc8 5abd
00000270: dc4a 47bd ccd4 1f3d d0e0 b6bc e0f3 a93b
00000280: 7cc4 9f3c 8035 bcbb 0073 38bd 48f9 d6bc
00000290: 0ad1 7d3d 2063 43bd c021 05bc bafe 54bd
000002a0: 38fc 093c f00f 4cbc 3241 77bd eedf 4c3d
000002b0: 4850 7dbd 82db 563d f8df 3fbd 4058 e7ba
000002c0: 48a8 703d 04d9 d9bc a00c 0cbb e6e9 143d
000002d0: a8c9 593d c2ac 523d a4b1 c6bc 50b8 92bb
000002e0: 8489 ab3c 44af f5bc aa88 1fbd a86e 79bc
000002f0: eaa1 48bd 8801 353c a0b4 72bc d477 493d
00000300: 8697 47bd 78e6 c2bc 00e0 9f39 c883 9fbc
00000310: b41c aebc 3097 a9bc c28f 2d3d e08c 373b
00000320: 0088 51bc 969b 0b3d 9864 6a3c d0cb 8bbc
00000330: 7afe 633d dc7c b03c 1cc1 a7bc 0e22 493d
00000340: c055 ac3b 7c4f 50bd 3404 86bc 541a 5bbd
00000350: 8cb2 89bc a0bc 083d 6637 103d c202 3c3d
00000360: 7420 6a3d e68b 0a3d c0c1 5ebc 5c27 c8bc
00000370: 0051 bcba d03b eb3b 0074 243a 40c1 d13a
00000380: d493 033d 5031 d3bc b6f3 5d3d b0bb 633c
00000390: a8b5 8dbc 00aa 853c f6fb 2bbd 0a76 21bd
000003a0: c64c 433d 049c 4c3d fc95 aabc 5222 36bd
000003b0: 0009 74bc b8a3 003d 6ad5 3ebd 2843 6abc
000003c0: 783b 303d 589c 523c d006 cf3b 9ac4 5c3d
000003d0: acba 4f3d e051 78bb 0066 46bd 945b bfbc
000003e0: 5c87 33bd 1828 213d 5e16 27bd 0ad5 17bd
000003f0: c488 c4bc a020 6f3c 6495 4bbd 7290 51bd
0.035244226 0.015094742 -0.047849953 -0.029722236 0.040811427 0.042180784 -0.054176077 0.050118767
-0.020797051 -0.032299064 0.044187605 0.03394039 0.0078024343 -0.043452777 0.046696566 -0.033812255
0.029789358 -0.033319615 0.041251883 -0.031405002 -0.025901377 -0.020563014 0.010406829 0.038418308
-0.0027867556 -0.04265423 0.060747825 0.0015926957 -0.0138974935 -0.015679918 -0.06112516 0.048386604
0.054526784 -0.011949606 -0.013848752 0.01345817 0.01651822 -0.03197632 -0.04885468 -0.014018267
0.03628234 0.021993265 -0.04021316 0.020471439 0.042254537 0.026707895 -0.021031879 -0.05715719
0.007790059 -0.00942383 0.033211 0.037859835 0.008860417 -0.003364779 0.016472414 -0.04995431
-0.04650514 0.021488622 0.044418506 0.048932523 -0.06178098 -0.06076303 -0.06082263 -0.011304803
-0.035832383 0.051800475 0.049664773 0.009422407 0.057496488 -0.00777442 0.018583834 0.0020859465
-0.011428215 -0.042373173 -0.00026251376 0.04020842 -0.02194658 0.0057566464 -0.03300917 -0.008614287
-0.013035782 0.031302236 -0.0076717585 -0.029847339 -0.043949462 -0.047318436 0.042165883 0.059936367
0.01132445 -0.0071544945 0.05066845 -0.010506749 0.004809037 0.024996124 -0.06189005 0.042360857
0.013755418 0.018182129 -0.031590812 -0.061386928 -0.028072417 0.010637604 -0.017095007 -0.047127053
-0.0003138259 -0.053395025 0.0011519268 0.01135385 0.023077361 -0.008746535 0.0022379607 0.0023630261
-0.013773717 0.059078127 -0.042473882 -0.019695304 -0.029154934 0.04248911 0.022943817 -0.013298444
0.006385319 0.027502634 0.035251386 0.05258637 0.035401165 -0.034670927 -0.053427346 0.040357567
-0.00043790042 0.0049975365 -0.05792185 -0.020970583 0.03854566 0.019726038 -0.00012211502 -0.031002097
0.012245774 -0.007832006 0.027783155 -0.01617758 -0.004887983 0.05913528 0.0112326965 -0.003819652
0.04046216 0.0038728416 0.029243633 -0.050389916 -0.05854608 -0.034804054 0.025103211 0.01286561
0.05837752 -0.010555334 0.0041456446 -0.053413853 -0.048655376 0.0390213 -0.022323996 0.005186543
0.01950287 -0.0057436824 -0.045031548 -0.026241913 0.061966933 -0.047701955 -0.008125722 -0.05200074
0.00842195 -0.012454972 -0.06036491 0.050018243 -0.06184414 0.052455433 -0.046844453 -0.0017650202
0.058754236 -0.026592739 -0.002136983 0.036355875 0.05317083 0.051434286 -0.024254628 -0.004477538
0.020939596 -0.0299908 -0.038948692 -0.015224136 -0.04898254 0.011047728 -0.014813572 0.049186543
-0.04872849 -0.023791537 0.00030493736 -0.019472018 -0.021253921 -0.020701975 0.042373426 0.0028007552
-0.012788773 0.034083925 0.01430621 -0.017064959 0.05566261 0.021543913 -0.020477824 0.049104743
0.0052592456 -0.050857052 -0.016359426 -0.053491905 -0.01680877 0.03338301 0.035209082 0.045901068
0.057159856 0.033824824 -0.013595998 -0.02443283 -0.0014367402 0.007178761 0.0006273389 0.0016003028
0.0321234 -0.02578035 0.0541875 0.013899729 -0.017298535 0.016316414 -0.041988336 -0.03941921
0.04768064 0.049953476 -0.020823471 -0.044466324 -0.014894724 0.031406134 -0.046590246 -0.014298238
0.043025464 0.012854658 0.006317951 0.05389843 0.050715134 -0.0037890598 -0.04843712 -0.023359098
-0.04383026 0.039344877 -0.040792815 -0.037068404 -0.023990996 0.014595181 -0.049703017 -0.051163144

sequential.33.bias f4 [32]
00000000: 98be 743c f825 313c 8840 7c3c c86f fb3c
00000010: fe02 58bd 2e1c 27bd 1ec6 693d a235 013d
00000020: 3840 18bd 3870 59bc d0ac b83b 689a adbc
00000030: 4094 85ba c04c 0f3b e484 b93c 36c0 63bd
00000040: 0825 743c e62c 01bd 0056 bf3c f828 6cbc
00000050: c0d2 2ebb 544d 1abd e0c8 84bb 9872 0fbc
00000060: 707d e8bb 60b3 54bc 28ae 233d b44f 0fbd
00000070: 40ae 133d 0084 beb8 7cb8 443d 00b0 d439
0.014938019 0.010812275 0.015396245 0.03069295 -0.05273723 -0.04079836 0.057073705 0.03154529
-0.03717062 -0.013271384 0.005635835 -0.02119179 -0.0010191277 0.0021865815 0.022646375 -0.05560323
0.014901407 -0.03153696 0.023356438 -0.014414065 -0.002667591 -0.037671402 -0.0040522665 -0.008755349
-0.0070950314 -0.012982219 0.03996101 -0.03498812 0.03605485 -9.084493e-05 0.0480275 0.0004056692

onnx::Conv_96 f4 [64, 3, 3, 3]
00000000: 556a 09be 3524 193e 0afd c1bd 18ad 683d
00000010: 7435 ffbc ce4b fa3b 7e6c 35be f68e 973c
00000020: 420f 413e f099 80bd 6b4b a2bc 23d7 083d
00000030: af18 513d f363 9ebd 217f 1a3d 15e7 83bc
00000040: a56f eb3d a888 403e 2572 653c 945d e6bc
00000050: 03e4 3ebe f999 c63d 4067 273e 107d 05be
00000060: 3266 213e dfd1 f1bd cb8d 113e 1bcb d33b
00000070: e201 25bd 739e 393c 6436 1a3e 3270 143e
00000080: ea22 0fbe 0935 3d3e 1aa2 35be 4463 a53d
00000090: c0fe 9cbd b7ca 9a3d 0ab8 a93d 6d6d 4dbc
000000a0: 954f b93d 755a cbbc 36ec 0fbe b204 61bd
000000b0: c447 c1bd 4bd5 e9bc 5137 c73d 9276 ee3b
000000c0: a61e d6bd 1f08 cd3d f4aa 063c 800c f1bd
000000d0: 03bc 213d d94a 1abe cc55 a43d f772 223d
000000e0: e979 9ebd eec7 1a3e 399f 33bd 1c0a 85bc
000000f0: 7612 93bd c19c 02bd a9b3 bdbd a615 d03d
00000100: 009c 123d 74e3 40be 769a 00bd c7e2 d0bd
00000110: 4397 6b3c f5d2 14be 1168 8e3b b8cf c73d
00000120: 52e0 edbb c3c9 b1bd 294c 643d aa18 543c
00000130: 199a 64bd 3936 28bd af6a cd3d a0c4 393e
00000140: be6b 933d 0c61 b03d 8216 3c3c 0790 babd
00000150: bcd7 bdbd 2ff9 87bd 0331 d73d 672f cb3d
00000160: e310 243e 31bb 8dbc 38a2 b03d d0e1 24be
00000170: 7540 eb3d 126a 2c3e 045a 43be d5f8 02ba
00000180: f738 d8bd ad78 ae3d ed1c fbbd 8701 1f3e
00000190: 5d0e 253e 2718 51bd ea7b 933d a553 053e
000001a0: fa52 853d 613b 063e d571 e3bb 14c9 35be
000001b0: 23e6 e33d 81fb 063e df1a 94bd 4365 2ebe
000001c0: 9390 82bd 4219 81bd fbe8 0a3e 4533 9a3c
000001d0: 2ae3 a93d fdbb f63d 90a4 733c 9531 123e
000001e0: ac3f 73bd 1775 aebc dc82 15be d876 5bbc
000001f0: b437 66b9 ed86 04be a4b4 ce3c b68a 62ba
00000200: 627d 1b3e 6169 37be cd1a fc3b 136f 3bbe
00000210: 071d 1bbe 52b4 473d 8094 12be b458 8d3d
00000220: c549 10bd 04d6 3f3e f2ec d4bc b208 e83d
00000230: 8398 523d 423c 1cbe 8f8b 10be 93e5 293e
00000240: e972 33bd 56ac 11be d241 dbbd 0647 913d
00000250: a8f4 2a3d fe30 1abe d1ad 8fba 2e09 09be
00000260: 8dd5 fcbd 6c89 383e ccc1 283e b9b7 16be
00000270: 4948 f63d ae7a c93c 75b9 03be 7611 a7bd
00000280: 7bbc 77bd 8b60 bf3d 05a5 ac3d 4361 293e
00000290: e9c8 58bc 1549 a23d 0ce4 bfbd b501 b93d
000002a0: 8428 803d dca0 143e f3a9 a9bd cd2f 0b3e
000002b0: 1a53 42be 631d acbd 0db5 633d 3526 2abe
000002c0: b48a e23d c5f3 d03d f367 e6bd 3a48 bdbc
000002d0: 7f75 303e b943 3ebe 0b7a a83d 9044 1fbe
000002e0: 0de1 063e 90d3 0abe 7088 153e e3c3 813d
000002f0: a48d 093e c00a 26be 6f94 183e bd9c ad3d
00000300: 53b9 b9bc 93b0 153d e989 23be 46f3 1a3e
00000310: 3f02 34be 33c8 ba3c 8dac d13d 0e92 7abc
00000320: d445 c3bd 420b 103e b023 4ebd 0bb0 cdbd
00000330: a1f1 313e 16e1 18be db35 20be 0541 703d
00000340: ae02 0f3e ff2f 3a3d 151c 64bc e48b 0cbe
00000350: 4c6b 7fbc e6ef 05be c678 b9bd 7513 4dbd
00000360: 3350 6abc 5f18 a93d f684 e0bc fb17 2dbd
00000370: 161a b83d 816e 0fbe 99cb 0bbe a6eb 9e3d
00000380: 22e7 3d3c 9ac8 d6bb 0332 0b3e 8f25 303e
00000390: bae2 3f3e 36a9 19be 2e26 1ebe 22fe 3e3e
000003a0: acf1 1fbc 9bff e43d c8f8 dbbd c0a3 5c3d
000003b0: c47f 13be d62e e03c 5da1 3bbe 2d0f d1bd
000003c0: aae9 1b3e 2e35 083e af01 acbd 6fed e33d
000003d0: f738 debb 6b8b 35be 73e4 88bb a409 0e3e
000003e0: bb25 003e 83e2 eb3c 16f1 2c3e 2cae 8cbd
000003f0: 1cf6 403e a678 a9bd 2219 19bd b0d9 c83d
-0.13419469 0.14955218 -0.094720915 0.0568057 -0.031153418 0.007638431 -0.17717168 0.018500786
0.18853477 -0.06279361 -0.019811353 0.033408295 0.05104893 -0.077339076 0.037718896 -0.0161014
0.11495904 0.1880213 0.014004265 -0.028120793 -0.18641667 0.09697337 0.1634798 -0.13035989
0.1576164 -0.11807608 0.14214246 0.006463421 -0.040285 0.011329281 0.15059811 0.14495924
-0.13978162 0.18477263 -0.17737618 0.08075574 -0.07665777 0.07558196 0.08287056 -0.012538296
0.09048382 -0.024823407 -0.14054951 -0.05493612 -0.09437516 -0.028544089 0.09727348 0.0072773183
-0.104550645 0.100113146 0.008219469 -0.11769962 0.039485943 -0.15067615 0.08024177 0.03966042
-0.07738096 0.1511533 -0.04385302 -0.016240172 -0.071812555 -0.031887773 -0.09262783 0.10160379
0.035793304 -0.18836766 -0.031397305 -0.10199504 0.014379325 -0.14533599 0.004345902 0.09756416
-0.007259407 -0.08681061 0.055736694 0.0129453335 -0.05581102 -0.041067336 0.10030114 0.18141413
0.071982846 0.0861226 0.011479976 -0.09109502 -0.09269664 -0.06639325 0.10507395 0.09921151
0.16022067 -0.017301174 0.08624691 -0.16101766 0.114869036 0.16837338 -0.19077307 -0.00049961853
-0.1055774 0.08519111 -0.122613765 0.15527926 0.1611876 -0.051048424 0.07201369 0.13020189
0.06509967 0.13108589 -0.00694106 -0.17752486 0.111278795 0.13181879 -0.07231688 -0.17030816
-0.063752316 -0.06303646 0.13565437 0.018823275 0.08295281 0.12047575 0.014870778 0.14276727
-0.059386894 -0.021296067 -0.146007 -0.013395034 -0.0002195526 -0.12942095 0.02523262 -0.00086418854
0.15184548 -0.17911293 0.0076936246 -0.1830409 -0.15147792 0.04875595 -0.14314461 0.069016844
-0.035226602 0.18733984 -0.02599189 0.113297835 0.051414978 -0.15257362 -0.14115737 0.16591482
-0.04381076 -0.14225897 -0.107059136 0.07093625 0.04173723 -0.15057752 -0.0010961836 -0.13382408
-0.12345419 0.18021172 0.16480178 -0.14718522 0.12025506 0.024594631 -0.12863715 -0.08157627
-0.060482483 0.09344586 0.084299125 0.16541009 -0.013231494 0.079240955 -0.09369668 0.09033529
0.06257728 0.14514488 -0.08284368 0.13592453 -0.18977013 -0.084040426 0.055592585 -0.16616137
0.11061612 0.10202745 -0.112502955 -0.02310573 0.17232321 -0.18580522 0.08226403 -0.15553498
0.13171788 -0.13557267 0.14602828 0.063361906 0.13432938 -0.16215038 0.14900373 0.08477161
-0.022671377 0.036545347 -0.15970577 0.15131864 -0.17578982 0.02280054 0.102379896 -0.015293611
-0.09534803 0.14066795 -0.050327003 -0.10043343 0.1737733 -0.14929613 -0.15645544 0.058655757
0.13965866 0.04545593 -0.013922711 -0.13725239 -0.015589546 -0.13079795 -0.09056239 -0.050067384
-0.014301348 0.082566015 -0.02740715 -0.042259198 0.089893505 -0.14006998 -0.13651885 0.0775979
0.011590751 -0.0065546753 0.13593297 0.17201827 0.18738833 -0.15005955 -0.15444252 0.18651631
-0.009762209 0.111815654 -0.10740811 0.0538671 -0.14404207 0.027366083 -0.18323274 -0.10207973
0.15225855 0.13301536 -0.083987586 0.11129271 -0.006781693 -0.17728965 -0.004177624 0.13870865
0.12514393 0.028794533 0.16888842 -0.06869158 0.18843883 -0.08274965 -0.037377484 0.098071456

onnx::Conv_97 f4 [64]
00000000: 3b8b b1bd dd1a 44be 5c13 16be 569d 183d
00000010: a49d 35bd 682a 2abe b9df 58bc a9ed 1d3e
00000020: de3a 263e bfeb 6a3d ba92 2fbd d20b da3d
00000030: e977 253e 35a2 6f3d 5004 11bb 8b90 0c3e
00000040: d859 2d3e 347f 1ebd 77bc 41be 3ede f33d
00000050: f2b4 0bbd ceaa 0e3e 939e 38be 2641 d03d
00000060: 3ce9 f83d afac 513d 89df 1cbd 35db ea3d
00000070: 6ce6 bb3d 2bab 9ebd b06d 44bc 58a5 393e
00000080: ac3a b13d 8275 dc3d 43c3 f03d 92ef e0bd
00000090: 13f8 09bd ff0a cc3d 16e7 f43d 90e6 0f3e
000000a0: 4af8 3a3e 7597 e5bd 558f 8cbd 3378 6a3b
000000b0: 7ee1 12be 14bf 66bd 2e1f 3f3e debc 98bc
000000c0: d109 1f3e 9b66 00be a1bc c03c 75f5 2ebe
000000d0: a584 cbbd 9f17 393d 1aaf f23d 46fb c3bd
000000e0: d337 453d 2f38 27be 2fbe 2cbd a69a 233d
000000f0: dbec f9bd bd15 4bbb d554 e5bd 9cbf 04be
-0.08669134 -0.19150873 -0.14655823 0.037259422 -0.04433979 -0.16617739 -0.013236933 0.15422691
0.16233394 0.05735373 -0.04286454 0.10646786 0.16159023 0.058504302 -0.0022127815 0.13727014
0.16928804 -0.03869553 -0.1891955 0.11907624 -0.03410811 0.13932344 -0.18029241 0.10168676
0.12153861 0.051190075 -0.038299117 0.11467592 0.09174809 -0.077474914 -0.011989042 0.1812948
0.08653769 0.107646 0.11755993 -0.109831944 -0.033683848 0.09963035 0.11958139 0.14052796
0.18258777 -0.11210529 -0.06863276 0.003577721 -0.14343831 -0.05633457 0.18664238 -0.018644746
0.15531088 -0.12539141 0.023527445 -0.17085822 -0.09937409 0.045188542 0.11849804 -0.09569411
0.04814894 -0.16330026 -0.04217356 0.039942406 -0.1220338 -0.0030988299 -0.11197821 -0.12963718

onnx::Conv_99 f4 [64, 64, 3, 3]
00000000: 8d24 e93c a42d b1bc 1b1a eb3b 00b0 eebc
00000010: 2220 0f3d f0c3 1abd 17e9 c0bc 51fe dd3c
00000020: b1b1 64bc 4d4c ba3c 7c25 0ebd 9113 073d
00000030: 0523 063d a018 2abd 9ee9 6c3c b331 8abc
00000040: cb2b a03b d0f8 e5bc 39fe d639 089f abbb
00000050: 90e2 28bd 2170 a73c 7598 eebc c8de 6dbc
00000060: 3221 9f3c d9cf d7bb d0cc 1fbc 8b5d 22bc
00000070: 749f 0fbd e893 05bd 34cc ec3c c0bd c2b9
00000080: 1776 e33c c5be 9a3c 8629 31bc 352d 65bb
00000090: 38ce a43c 128f 6d3c 707b 27bd 977b dd3b
000000a0: 43d2 2cbc 5508 1cbd 4782 e53c ce57 0d3c
000000b0: 03c5 d93c bd36 4d39 8797 c0bc 57a1 d7bc
000000c0: 5ffa 073c 2250 86bc 4e3a 17bb 1088 f43b
000000d0: a49a b0bc 99aa d33c 796a 273c 533a 1f3d
000000e0: 6b39 d83c 082f 8c3c 0d51 ddbc a592 0b3d
000000f0: 87b3 f53b de1d 49bc 0eb3 92bc 02d6 9dbc
00000100: 2910 903b 649d efbc ddae 0cbd a2ac 94bc
00000110: ba9f 54b9 c4c0 353b 402b 84bc cb48 65bc
00000120: 264c 00bd b9cd 013c 7689 17bd b7cf 09bc
00000130: 4bd4 193d f1a7 8eba 915e a0bc 89f8 873c
00000140: d258 c43c de3b 873c f189 903a 0532 9c3b
00000150: 22e4 16bc 7fba cebc 0c86 093d 071e e53c
00000160: 7b25 053d 6081 c23a 62e6 493c a8a3 93bb
00000170: ee6d 79ba d55f b93c d816 6dbc c802 283d
00000180: 36e1 c1bc e3cf 0b3d 3c10 213d 9842 ca3c
00000190: af4b 833c f024 06bc f4d1 b1bc be83 4a3c
000001a0: cde3 2ebc 7cd3 8ebc cc1c b2bc 24d7 9fbc
000001b0: 514c 903a e698 42bc d2df 05bd 524a bebc
000001c0: 703e 43bc cc02 80bc 69d5 053d e0b9 dbbb
000001d0: 6dec e43b ee88 b13b e669 b53c ee7c fe3c
000001e0: 6d9f 273c 25db 02bd b3a6 163c a5a5 053d
000001f0: 0c02 1bbd 8a06 e9bc 7bb2 ccbc 8014 e3bc
00000200: 276f 0c3d 3a72 1b3d 132d 0b3d 69e3 de3c
00000210: 015e eb3c a644 303c 2f3c 94ba fdb1 4dba
00000220: 55ec 64bc 1f51 293d be64 4a3b 9061 093d
00000230: f6b9 db3c 3c6f 4e3b 5c6a 223d ff33 f7bc
00000240: 1457 213d 55ed 323b 363c c4bc 3f4b 2a3d
00000250: d15a f1bc e903 593b a41d b8ba f672 603a
00000260: 7ecb 07bd 4ff6 02bd 88b3 e13c 20a4 223d
00000270: 41e3 bf39 150f 03bb 6623 aa3c 274d 0b3d
00000280: 9480 bb3c 59bf 263c 3d29 27bd 8c33 213d
00000290: f7f8 f7bb 8785 16bd 8d03 073d f96e a13c
000002a0: 3a51 acbc 2311 a2bb 738b 813c 6531 123d
000002b0: 9784 c6bb 5a5a 8d3b ef74 96bb 9fe6 c5bc
000002c0: 333f e9bb 2b29 193d 7215 6f3b 941d b7bc
000002d0: 85a5 debc 57b6 d93c a956 a73b 6dc1 ecbc
000002e0: d461 fabc 03e4 88bc c58e 193d d5e9 fc3b
000002f0: 50e8 c73c cdd6 df3c 2d37 7ebc c1ce 1bbd
00000300: b3e9 b8bc c39e 0c3d e44e 5abc 86e4 30bc
00000310: 201a c2bc bf09 0abd 153c 95bc 7ec0 0cbd
00000320: e55a 25bd e71d e6bc 24a8 9ebb 45ea 0f3c
00000330: 31e2 c53c b54f 9cbb cd10 2ebc 2d19 29bd
00000340: 5713 183d 50f5 e03c cfb3 94ba 7d89 c53c
00000350: d119 f2bb 7b90 213c 21d7 bebb 8a20 093d
00000360: 1782 94bc cbc3 be3c 7ae3 53bb f238 033d
00000370: 3384 bf3c 354f e33b f7c7 9a3c 84dd d43c
00000380: a617 acbc 19d3 293d 79e5 933c 3520 e5bb
00000390: a6b4 72bc f8ff bd3c 0f68 90bc 8108 0b3d
000003a0: 29fe 873c a82f e5bc d1f2 97bc 2caf d0bc
000003b0: 0064 55bc c5a2 fdbb 4303 1bbd 28c1 1dbc
000003c0: 16d3 08bd 50f3 1d3c 4c5e b8bb b006 973c
000003d0: 2559 c7bc 6c82 ee3c 13a9 1bbd 7430 383c
000003e0: 1fcb 143b 5d57 cd3a 4605 1a3d abcf f13c
000003f0: 05a0 c43c 88ba 12bd b9b5 893c 0543 033c
0.028459812 -0.021628208 0.007174743 -0.029136658 0.034942754 -0.037784517 -0.023548646 0.027098807
-0.013958381 0.022741461 -0.034703717 0.032977644 0.03274824 -0.04152739 0.014459996 -0.016869402
0.004888033 -0.028072745 0.0004100667 -0.005237464 -0.04123169 0.02043921 -0.029125432 -0.014518447
0.019425008 -0.0065860567 -0.009753421 -0.009909998 -0.035064176 -0.032611758 0.028905965 -0.00037143938
0.02776627 0.018889794 -0.010813123 -0.0034969572 0.020117864 0.014499443 -0.040889204 0.006759118
-0.010548177 -0.038093884 0.028016223 0.008626891 0.0265832 0.00019570715 -0.023509754 -0.02632205
0.008299439 -0.016395632 -0.0023075524 0.007462509 -0.021558113 0.025838183 0.010218256 0.03887398
0.026394567 0.01711227 -0.027016187 0.034075398 0.007498208 -0.012275187 -0.017907646 -0.019267086
0.0043964577 -0.029249854 -0.03434645 -0.018148724 -0.00020277398 0.0027733305 -0.016133904 -0.013994406
-0.03132262 0.007922583 -0.036996327 -0.0084113395 0.037555974 -0.0010883791 -0.019576343 0.016598003
0.023968134 0.01650804 0.0011027438 0.004766705 -0.009209665 -0.025235413 0.033575103 0.02796842
0.032506447 0.0014839582 0.012322994 -0.0045055933 -0.0009514977 0.022628704 -0.014470778 0.041018277
-0.02366696 0.034133803 0.039322123 0.024689957 0.0160273 -0.0081875175 -0.021706559 0.012360511
-0.010674429 -0.017434828 -0.021742247 -0.019511767 0.0011009072 -0.011877274 -0.032684155 -0.023228798
-0.011916742 -0.015626334 0.032674227 -0.0067055076 0.006986192 0.0054179346 0.022145223 0.03106543
0.010230881 -0.031947274 0.009195018 0.032628674 -0.03784375 -0.0284455 -0.02498745 -0.027719736
0.03428569 0.03795073 0.033978533 0.027208047 0.028731348 0.010758555 -0.001130944 -0.0007846652
-0.013972362 0.04133713 0.00308828 0.03354031 0.026822072 0.0031499406 0.039652213 -0.03017616
0.039389685 0.0027302105 -0.023954492 0.041575667 -0.02946225 0.0033113903 -0.001404692 0.00085620524
-0.03315305 -0.03197318 0.027551427 0.039707303 0.00036599676 -0.0019998003 0.020768832 0.034009125
0.02288846 0.010177457 -0.040810812 0.0393558 -0.0075675207 -0.036748435 0.03296237 0.019706236
-0.021034826 -0.0049458905 0.015813565 0.035691638 -0.0060582864 0.0043137493 -0.0045915763 -0.02415782
-0.0071181296 0.037392776 0.0036481288 -0.022352971 -0.027178535 0.026576204 0.0051067662 -0.028900826
-0.030564226 -0.016710287 0.03748967 0.0077183046 0.024402767 0.027324105 -0.015516085 -0.038038973
-0.022572374 0.034331094 -0.013324473 -0.010796672 -0.023694098 -0.0337007 -0.018217126 -0.034363262
-0.040369887 -0.02809043 -0.0048418213 0.008783882 0.024155708 -0.004770244 -0.010624123 -0.041283775
0.03712782 0.027460724 -0.0011345091 0.024113411 -0.0073883315 0.009861107 -0.005823985 0.033478297
-0.018128438 0.02328672 -0.0032331632 0.03203673 0.023378467 0.0069369324 0.018894179 0.025984533
-0.02100737 0.041461084 0.018053757 -0.006992365 -0.014813578 0.023193344 -0.017627744 0.033943657
0.016600685 -0.027976826 -0.018548401 -0.025474153 -0.01302433 -0.007740351 -0.037844907 -0.009628572
-0.033404432 0.00964053 -0.0056264754 0.018435806 -0.0243345 0.029114924 -0.03800304 0.011242021
0.0022704077 0.0015666295 0.037602685 0.02951797 0.024002085 -0.03582242 0.016810285 0.008011584

onnx::Conv_100 f4 [64]
00000000: 954e d13c d79e 2c3b 1151 1abc c322 84bc
00000010: 28e7 a33c 9bd8 243d 1c5a 0bbd 04b5 66bb
00000020: 2ce8 23bd a273 17bc 04a7 353c d1f5 f53c
00000030: 4b2c 82bc 9a9f 2abd 49f7 8dbb 19ad 193d
00000040: 01c8 24bd 484c d4bc 2a3e 8cbc 0bf5 01bd
00000050: 555b 32bc e960 8e3b bedb e83c 17a4 b43c
00000060: 3bcb dcbc af7a cb3c 9ee2 dbbc e8a9 153d
00000070: 5b83 d1ba 2257 b6bc 25f3 82bc 1dc4 81bb
00000080: 8aed 023d 7e7d 253c 8538 063d 1f62 0c3d
00000090: 5c7d 11bc f5a3 81ba c71d cebc f1de de3c
000000a0: cc0c 123c 3f20 d83c 26d3 af3a a725 f7bb
000000b0: cfa4 d8bc 6eef b53c f55e d23c 65bb ad3c
000000c0: 05bb 03bd 7e4d 81bb dbc7 5e3c b612 62bb
000000d0: 0faf 6b3c 7c37 ef3c 8f6e 1abd 41b9 01bc
000000e0: 3873 1ebc 9bcf c2bc de51 19bd 8890 ecbc
000000f0: 5bdc d0bb 84f3 013d 2a35 c33c 8f42 dd3b
0.025550166 0.0026339793 -0.009418742 -0.016129857 0.020007685 0.040245634 -0.034021482 -0.0035203109
-0.04001634 -0.009243878 0.011087183 0.030024441 -0.015890261 -0.041656114 -0.004332457 0.037518594
-0.0402298 -0.02591528 -0.017119486 -0.03172783 -0.010886033 0.0043450487 0.028425094 0.0220509
-0.026952377 0.024838774 -0.026841458 0.03653899 -0.0015984582 -0.022258345 -0.015985081 -0.003960146
0.031964816 0.01010072 0.032768745 0.034273263 -0.008879986 -0.0009890782 -0.025160683 0.027205916
0.008914184 0.026382564 0.0013414368 -0.0075423303 -0.026445774 0.022208896 0.025680045 0.02120752
-0.032160778 -0.0039460054 0.013597454 -0.0034496016 0.014384999 0.029201262 -0.037703093 -0.007917703
-0.009671025 -0.023780635 -0.03743159 -0.028877512 -0.0063739247 0.031726375 0.023829062 0.006752319

onnx::Conv_102 f4 [16, 64, 1, 1]
00000000: b463 fbbd f2dc af3d a2f8 78bd 4861 dabc
00000010: 20b0 c2bb b339 47bd 0f4a 763d cd04 8a3d
00000020: 0d7f b43c f8b1 b63d 903d d5bd dea7 fa3c
00000030: e971 a03d 410b 04bd 2dfe bebd 4725 53bd
00000040: 0b05 22bb 1f15 adbc fccd 90bd 6ce3 05bd
00000050: c49a 9fbc 7a81 62bd ca88 873d e9aa f13c
00000060: 4636 80bd 5afe e8bd c2ad d43c 5c03 91bd
00000070: 5029 a5bd 16d1 8b3d 574a 8f3d e7ee a7bd
00000080: bbed 213d 0f24 5f3d f5af 02bd c8ea 2bbb
00000090: 70d0 dabd b990 10bd 815d a6bc 054c 1a3d
000000a0: 40de dabc e6ac 55bd f1d1 c03c 86ae 243d
000000b0: 47d4 aebd c87b 80bd 112e 9c3d f76d 5f3d
000000c0: 9689 e0bc 0d70 df3d dc61 aabd b04c 80bd
000000d0: 577a ccbd 2de6 833d 065e ce3d 8961 c1bd
000000e0: 15a7 63bc cdaa 59bd 7a44 a5bc bd28 413d
000000f0: b788 75bd a267 0c3d 6c76 c23d ef64 c0bd
00000100: b1ad 6f3b 35ca e43a 38f8 9ebd 084d dabd
00000110: dd50 e9bd 3b04 b9bc 7fa3 c43c a1e5 4a3d
00000120: 68d5 8bbd 7cd2 68bd ab8b 08bd ed08 ecbd
00000130: 18dd a5bd 854b b33d ae1e 7bbb 3831 373d
00000140: 39ac ac3d 511a 9bbd dd78 e5bd b5b6 e3ba
00000150: bfc7 87bd ea8c 00bd 157a a8bd d052 cfbd
00000160: 330d ebbb 6d97 34bd f7e9 9a3d 7591 023d
00000170: c607 dcbd 045e 37bc 98ab f9bd 4f2e b93d
00000180: 89bc 6fbd 4304 393c d4de d3bd 6ec5 afbc
00000190: b563 bbbd e36b e3bd e96b 883d 5fcc ebbd
000001a0: bfaf 4438 f0c4 9ebd 88b4 933d d8b2 bdbd
000001b0: 6423 67bd 24cb a93d 0f62 b33d be44 7bbd
000001c0: 6c21 4ebc 20ee 8c3d 7e96 f8bd ebde 883c
000001d0: 4bb7 9a3d 9449 1d3d 018b 71bc 30cf c3bd
000001e0: f0d4 91bb e89b a93d 40d0 97bd 65c7 653d
000001f0: ac7f 803d 52be c93d 328d 2fbd 5e00 bebd
00000200: 6a54 ec3c 19c0 7d3d 47c0 acbb 53db 8fbd
00000210: 23be d13d 822f d53c 7b1d a6bd bd3f cd3b
00000220: 137c 203d f280 6cbd ae1e 98bd 087a 1f3d
00000230: 4150 7c3d d2be 3d3c 9dcf 4b3c b348 69bd
00000240: 42ee 0abd c275 62bd 9298 e03d 3534 d73d
00000250: 9be7 fb3d 3c6e d0ba 8bdd e3bd 4085 67bd
00000260: 4687 f8bc 1758 fc3d 168c cabd 4211 9ebd
00000270: 4516 043d 0136 febd 2daa a23d cc2b c4bd
00000280: e497 e7bd d24c a5bc a8e8 4dbd 7030 5abd
00000290: 957c 283d 7e5e c83b e2c1 8b3c a88a 973d
000002a0: 5601 9f3d 3b04 2d3d 15f2 703d ccdc b1bd
000002b0: d420 073c 7139 ccbd 934a 823d 4fde a13d
000002c0: 297f 4b3d 4154 10bd b9bd be3d d26e 0d3b
000002d0: 8a25 e7bd 7125 70bc 3271 3e3d 7a21 8bbd
000002e0: 91e0 28bd 732b 463d 2873 f43d 540b a63d
000002f0: 108a 1dbd 2750 ae3c 1a06 eebd ab77 a2bc
00000300: 14b6 35bd 867f a3bd 731f 76bd ae07 4a3d
00000310: 79d1 4b3d 4860 443d 288e 2b3d b420 5abd
00000320: d3b0 c63d 2a7f 24bd 1e9f a9bd 178c 2cbd
00000330: 0d76 96bd 57b3 2e3d f88f 07bd a9c1 0dbd
00000340: f52c 9bbc f5e6 273d f932 0fbd 85ce 833c
00000350: e41a 2a3d 3dde 9cbd 0c0d dabd 1c8c 8b3d
00000360: ce75 493d 09e9 343d fffd 953c 845d 37bc
00000370: 7aa2 913d 0843 f4bd e0c6 433d e8e6 5b3c
00000380: 5769 ddbc a096 b5bd 0532 cbbd 6081 5abd
00000390: 2b53 bbbd 742c 063d 4694 17bd 4968 c1bd
000003a0: ed51 cdbd a065 05bd 2300 8abc 4e0d b73d
000003b0: d363 e93c 1488 d03d 9bca f13d 0533 d8bd
000003c0: a91f f1bd fa46 0b3d 0be6 fc3d 34a7 4e3d
000003d0: ce33 ee3d 6ff1 393d ee69 f9bc 2f81 82bd
000003e0: 5407 68bd 5a18 a33c 3a8c 183d bf2a 453c
000003f0: d59e 9abd a91f c53d 7726 af3d 7a6f 9fbd
-0.12274876 0.08587064 -0.06078399 -0.026657715 -0.005941406 -0.04863901 0.06012922 0.06739197
0.022033239 0.089206636 -0.10412133 0.030597623 0.07834227 -0.032237295 -0.09325824 -0.051549222
-0.0024722244 -0.021128235 -0.070705384 -0.03268759 -0.019482978 -0.05529926 0.06617887 0.029500442
-0.06260352 -0.11376639 0.02596176 -0.07080719 -0.0806452 0.06826989 0.06996601 -0.08199864
0.039533358 0.054477748 -0.031906087 -0.002623247 -0.106842875 -0.03529427 -0.020308258 0.037670154
-0.026717305 -0.052166842 0.023537608 0.0402055 -0.085365824 -0.062736094 0.07625974 0.05454823
-0.027409356 0.10910044 -0.083194464 -0.06264627 -0.09984272 0.06440387 0.10076527 -0.094424315
-0.013894816 -0.053141404 -0.020174254 0.04715799 -0.059944835 0.03427852 0.094952434 -0.093942516
0.0036572034 0.0017455282 -0.07762188 -0.10659224 -0.113923766 -0.022585025 0.024003742 0.049535397
-0.068278134 -0.05684136 -0.033336323 -0.1152514 -0.08098811 0.087546386 -0.0038317847 0.044724673
0.08431286 -0.07573379 -0.112046935 -0.0017373177 -0.066298954 -0.031384386 -0.0822641 -0.10123217
-0.0071732043 -0.044089723 0.075641565 0.031877 -0.1074367 -0.011191849 -0.12190932 0.09042036
-0.05852941 0.01129252 -0.103452355 -0.021456446 -0.09149877 -0.11104562 0.06661207 -0.1151359
4.6893718e-05 -0.077524066 0.07212168 -0.09262627 -0.056430236 0.08290699 0.087589376 -0.061344855
-0.012581211 0.06881356 -0.12138079 0.016707858 0.075544916 0.038400248 -0.014742614 -0.09561002
-0.004450433 0.0828169 -0.074127674 0.05609836 0.062743515 0.09850754 -0.042859264 -0.09277414
0.028848846 0.061950777 -0.0052719447 -0.07024255 0.10241344 0.02602363 -0.08111092 0.0062637017
0.039180826 -0.05774016 -0.07427727 0.038934737 0.061599974 0.01158114 0.012439636 -0.056954097
-0.033918627 -0.055288084 0.109666005 0.105080046 0.123000346 -0.0015901993 -0.1112624 -0.05652356
-0.03033794 0.12321489 -0.098900005 -0.077181354 0.0322478 -0.12412644 0.07942615 -0.09578666
-0.11308268 -0.020178232 -0.050270706 -0.05326885 0.041134436 0.00611478 0.017060224 0.073994935
0.07763927 0.042240363 0.058824617 -0.08684692 0.008247573 -0.099718936 0.0636188 0.0790373
0.049681816 -0.0352366 0.093135305 0.0021580947 -0.11286457 -0.014657364 0.04649467 -0.067934945
-0.04122979 0.04838128 0.11936027 0.081076294 -0.038461745 0.021278454 -0.116222575 -0.019832453
-0.044363096 -0.079833075 -0.060088586 0.04932373 0.049760316 0.047943383 0.041883618 -0.053253844
0.09701695 -0.040160336 -0.08282302 -0.042125788 -0.07346735 0.0426515 -0.033096284 -0.034608517
-0.018942336 0.040991742 -0.03496072 0.016089687 0.04152955 -0.07659576 -0.1064702 0.06813833
0.049184613 0.044167552 0.018309591 -0.011191729 0.07111068 -0.11926848 0.047797084 0.013421752
-0.027027769 -0.0886662 -0.0992165 -0.053346038 -0.091467224 0.032757238 -0.03700664 -0.09443719
-0.10025392 -0.03256762 -0.016845768 0.089380845 0.028489983 0.10182205 0.11806222 -0.10556606
-0.11773617 0.034003235 0.12348565 0.050452426 0.11630975 0.045396265 -0.030446019 -0.06372296
-0.056647614 0.019909073 0.037243105 0.012034117 -0.07549826 0.09625179 0.085522585 -0.07784934

onnx::Conv_103 f4 [16]
00000000: 8d10 1abc ff85 adbd 1cd0 4ebc 728a a53c
00000010: 37bd 5ebb b1f7 93bd b20f bd3d 876f 2d3c
00000020: a2fd b7bd 7c70 e8bd 3ce3 84bc caad 00bd
00000030: f937 d2bd b523 04bc 9764 39bd 051d b3bd
-0.00940336 -0.08472823 -0.012622859 0.020207617 -0.0033987293 -0.07224978 0.09231509 0.010585672
-0.089839235 -0.1134958 -0.016221635 -0.03141574 -0.10264582 -0.008065154 -0.045261946 -0.087457694

onnx::Conv_105 f4 [64, 16, 3, 3]
00000000: 4e8d c9bb a58d 3cbd 41e5 903d d500 d83c
00000010: ae76 a23d b060 133d 10b6 9a3d 9f07 a63d
00000020: ff75 933d 09d6 62bd bbed 283d e0a2 a9bd
00000030: 7c54 f43c 8b8d 32bd e394 ba3c 76a2 003b
00000040: 89c7 6a3d 4176 cd3c bc7e 303d 6db1 cb3b
00000050: e830 753c 3045 9b3d f27e 2dbd 7885 733c
00000060: ba76 fabc 374a 1a3d c3eb 69bd d457 a03d
00000070: 76b9 ed3c cdc2 773d a606 c4bc 6426 abbc
00000080: 9ad6 c8bc e86c 1cbd a4ff 943d b543 77bd
00000090: 5288 1ebd 58cd 473d d301 0abb f885 883d
000000a0: 0b77 9e3d c3b4 583d 5197 70bd ef50 16bc
000000b0: 2f0a 403d 9a5e 5dbd 728a 25bd acf9 04bd
000000c0: e38c 703d c52b 8e3c d242 8bba 4afa a4bd
000000d0: efda 14bb 535f 9d3d ccdb f23c f3ce ebbc
000000e0: 3bf7 1a3d 6b45 03bd 2370 ddbc eb0d a9bd
000000f0: e04b 93bb d593 8138 2edf 50bd c285 0b3d
00000100: 561c 74bd 1c84 9e3b 1a1e 97bd 5d49 5fbd
00000110: 4eba 22bd 8115 393d 8b67 943c 04f2 953d
00000120: 40cd 4abd 2a38 823d 90d2 81bd 7f8a 85bd
00000130: 223f af3c 8c5c a13d a938 39bd 413c 90bb
00000140: b87e 4cbd 81c0 213d f104 72bd 47f7 68bd
00000150: 58e2 5b3b 035f 20bd ae8f 623c 3c54 673c
00000160: 178b 45bc bc95 933c d5c8 3a3d ac30 613d
00000170: 0f71 983d 77bd a7bd 1952 2fbd 438f babc
00000180: d0c5 b7bc b556 a93d dfef ba3c 7e6c a2bd
00000190: 9cce 9ebd 4e26 9b3d 79fb 0d3d 638c 5bbd
000001a0: 249a 8a3d 1192 263d 3fe0 453a 0ad6 933d
000001b0: 07c2 77bd e6a9 9dbd 92f3 8a3a 3940 9d3d
000001c0: 765c 883d 8374 1abd 57e7 35bd 99ea 2e3d
000001d0: d3b7 6b3b ac1a e0bc 3b6d 7cbd b5ba 2c3d
000001e0: 5af5 c8bc 91db 593c 92b9 503d 7c4f 40bd
000001f0: e3b5 9dbd bfd6 f73c a25f a4bd 626e e0bc
00000200: 9465 f33c 6450 953d 35eb 55bd 78ea cf3c
00000210: e481 86bd 50a7 e83c cee2 8e3d 6ebe 38bd
00000220: c1b8 2c3d 8682 85bd 2eed 96bd ff2a a1bc
00000230: c025 313d f1d5 9bbc 346c aabd aa24 a43c
00000240: ae18 833d 7777 653d f6f3 a4bd 546b 783d
00000250: 68e2 4abd 4d10 2e3d b0bb 9dbc ce75 5bbd
00000260: 6db2 9bbc 6ca3 febc 9143 d3bc c4d5 9c3d
00000270: 4add a2bd 0096 c33b cea3 17ba f55f 02bd
00000280: 5582 81bd 5bce 3a3c 8390 eabb fdec 8dbd
00000290: baf4 733d 7337 63bd 5e04 42bd 0046 23bd
000002a0: 4109 58bc 2241 a23d 4158 263d f6fc b0bc
000002b0: 46b8 99bd edd6 95bd c0aa c13a 9e3e 51bd
000002c0: 37b1 27bd 69c7 863d 2158 26bd 878e d23c
000002d0: 35b3 a2bd 3eda 4e3d ea4e 9a3d 1dbb 90bc
000002e0: b860 4cbd d9e3 2fbd ecb9 ffbb 3811 013d
000002f0: 9a26 b03c eade c93c 59b2 8ebd f72b 59bd
00000300: d697 b13c 0d39 8fbd fbae 42bd 3941 773d
00000310: 44b1 553d 6314 3b3b d5ed 8a3d 0d51 023d
00000320: 9052 913a 4c4c 05bd 602b f53b 6669 30bd
00000330: a439 3e3d c2ed 423d 94de 543d 26de ed3c
00000340: f07d 623d d207 0d3b 46d2 a2bd 854b 78bd
00000350: 2bc6 8a3d 085e a4bd 37d3 583d 3213 1fbd
00000360: a8d9 aa3c 80a1 64bd 8951 a93d 1b4c d2bc
00000370: dd68 adbc cd3d 9bba f52f 35bd 3b3a 403d
00000380: 3ab8 4e3d 9edb 7f3d 1370 eabc 4ef1 16ba
00000390: a03b 6ebd 7a20 c8bc 7886 a93b 7103 b43c
000003a0: de42 d63c 85be 6b3d 0c1e 7b3d cc7c 36bc
000003b0: 8174 8cbd ed4e dfbc 8631 79bd 24ed 623d
000003c0: aa0d 25bb d33d 593d f3f4 913d bb8e 963c
000003d0: 9bbd 1abd 303d 603d 6b0c a7bd bc39 3e3d
000003e0: 7f14 4c3d ab0a 353d 8063 87bc d61f a23d
000003f0: 5774 9fbd 7b06 a03b 8849 603d a1de 97bd
-0.006150878 -0.04603352 0.07074977 0.026367584 0.079327926 0.03598088 0.07554257 0.08106922
0.0720024 -0.0553799 0.041242342 -0.08283019 0.029825442 -0.043592017 0.022776073 0.0019628084
0.057319198 0.025080802 0.043089613 0.006216219 0.014965273 0.07581556 -0.042357393 0.014863364
-0.030574191 0.037668433 -0.057109606 0.07829252 0.029019099 0.06048851 -0.023928951 -0.02089233
-0.024516392 -0.0381898 0.07275322 -0.060367305 -0.038704224 0.048779815 -0.0021058216 0.066661775
0.077375494 0.052906763 -0.058738057 -0.0091745695 0.04688471 -0.054045297 -0.040415235 -0.03246467
0.05872811 0.017354855 -0.0010624772 -0.08055551 -0.0022713502 0.07684197 0.029645823 -0.028785205
0.037833434 -0.032048624 -0.02703101 -0.08254608 -0.004495129 6.178735e-05 -0.05099409 0.03406311
-0.059597336 0.004837526 -0.07378788 -0.054513324 -0.039728455 0.045186523 0.01811578 0.073215514
-0.049512148 0.06358369 -0.0633899 -0.06520557 0.021392409 0.0787898 -0.04522005 -0.004401714
-0.049925536 0.039490227 -0.059086744 -0.056876447 0.003355166 -0.03915311 0.013828201 0.014119204
-0.012057087 0.018015735 0.045601685 0.054978058 0.07443439 -0.081904344 -0.042802904 -0.02277339
-0.022433192 0.08268491 0.022819458 -0.079308495 -0.07754251 0.075756654 0.03466365 -0.05360068
0.06767681 0.040666644 0.0007548369 0.07218559 -0.060487773 -0.07698421 0.0010601154 0.07678265
0.066582605 -0.03770877 -0.044410076 0.0427042 0.0035967722 -0.027356468 -0.061627608 0.042170245
-0.024531055 0.013296978 0.050958224 -0.046950802 -0.07700708 0.030253766 -0.08026053 -0.027396385
0.029711522 0.07290724 -0.052226264 0.025380358 -0.065677434 0.028400093 0.06976853 -0.045103483
0.042168383 -0.06519036 -0.07369457 -0.019673822 0.04324889 -0.019022914 -0.08321419 0.020037014
0.06401192 0.056022134 -0.08054344 0.06064923 -0.049532324 0.042496014 -0.019254535 -0.053579144
-0.019005978 -0.031083785 -0.025789054 0.0765796 -0.07952364 0.005968809 -0.00057846017 -0.031829793
-0.06323687 0.011401738 -0.0071583404 -0.069299676 0.05955956 -0.055472802 -0.047367446 -0.03986168
-0.0131858 0.07922579 0.04061151 -0.021604996 -0.075058505 -0.073163845 0.0014775619 -0.051085107
-0.04094049 0.06581003 -0.04061139 0.025702728 -0.07944337 0.0505011 0.07534583 -0.017667348
-0.049896926 -0.0429419 -0.007804146 0.03151056 0.021502782 0.024642427 -0.06967611 -0.053020444
0.021678846 -0.069933034 -0.047530156 0.060364936 0.052171007 0.0028546087 0.06783644 0.031815577
0.0011087228 -0.032543465 0.0074819773 -0.043069266 0.04644169 0.047590025 0.05197008 0.029036593
0.055295885 0.0021519554 -0.07950263 -0.060618896 0.06776079 -0.080257475 0.052935805 -0.038836665
0.02085574 -0.05581808 0.08267505 -0.025671056 -0.021168167 -0.001184398 -0.04423519 0.046930533
0.05046866 0.062465303 -0.028617894 -0.0005758003 -0.05816233 -0.024429549 0.0051735006 0.021974297
0.026154932 0.05755474 0.06130795 -0.011138152 -0.06858159 -0.027259314 -0.060838245 0.055401936
-0.0025185146 0.053037476 0.071267985 0.018378606 -0.037778478 0.054745853 -0.081566654 0.04644178
0.049824234 0.044199627 -0.016526937 0.079162285 -0.07785862 0.004883585 0.054757625 -0.0741551
